…
I0828 09:46:02.084869 26536 net.cpp:313] The NetState phase (0) differed from the phase (1) specified by a rule in layer accuracy
I0828 09:46:02.085136 26536 net.cpp:49] Initializing net from parameters: 
name: "CaffeNet"
state {
  phase: TRAIN
}
layer {
  name: "data"
  type: "Data"
  top: "data"
  top: "label"
  include {
    phase: TRAIN
  }
  transform_param {
    mirror: true
    crop_size: 224
    mean_file: "/home/jessi12/CNN_local/caffe/data/mupi_mcc7/imagenet_mean.binaryproto"
  }
  data_param {
    source: "/home/jessi12/CNN_local/caffe/examples/imagenet/mupi_mcc7_train_lmdb"
    batch_size: 100
    backend: LMDB
  }
}
layer {
  name: "conv1"
  type: "Convolution"
  bottom: "data"
  top: "conv1"
  param {
    lr_mult: 1
    decay_mult: 1
  }
  param {
    lr_mult: 2
    decay_mult: 0
  }
  convolution_param {
    num_output: 96
    kernel_size: 11
    stride: 4
    weight_filler {
      type: "gaussian"
      std: 0.01
    }
    bias_filler {
      type: "constant"
      value: 0
    }
  }
}
layer {
  name: "relu1"
  type: "ReLU"
  bottom: "conv1"
  top: "conv1"
}
layer {
  name: "pool1"
  type: "Pooling"
  bottom: "conv1"
  top: "pool1"
  pooling_param {
    pool: MAX
    kernel_size: 3
    stride: 2
  }
}
layer {
  name: "norm1"
  type: "LRN"
  bottom: "pool1"
  top: "norm1"
  lrn_param {
    local_size: 5
    alpha: 0.0001
    beta: 0.75
  }
}
layer {
  name: "conv2_changed"
  type: "Convolution"
  bottom: "norm1"
  top: "conv2_changed"
  param {
    lr_mult: 1
    decay_mult: 1
  }
  param {
    lr_mult: 2
    decay_mult: 0
  }
  convolution_param {
    num_output: 256
    pad: 2
    kernel_size: 5
    group: 2
    weight_filler {
      type: "gaussian"
      std: 0.01
    }
    bias_filler {
      type: "constant"
      value: 1
    }
  }
}
layer {
  name: "relu2"
  type: "ReLU"
  bottom: "conv2_changed"
  top: "conv2_changed"
}
layer {
  name: "pool2"
  type: "Pooling"
  bottom: "conv2_changed"
  top: "pool2"
  pooling_param {
    pool: MAX
    kernel_size: 3
    stride: 2
  }
}
layer {
  name: "norm2"
  type: "LRN"
  bottom: "pool2"
  top: "norm2"
  lrn_param {
    local_size: 5
    alpha: 0.0001
    beta: 0.75
  }
}
layer {
  name: "conv3_changed"
  type: "Convolution"
  bottom: "norm2"
  top: "conv3_changed"
  param {
    lr_mult: 1
    decay_mult: 1
  }
  param {
    lr_mult: 2
    decay_mult: 0
  }
  convolution_param {
    num_output: 384
    pad: 1
    kernel_size: 3
    weight_filler {
      type: "gaussian"
      std: 0.01
    }
    bias_filler {
      type: "constant"
      value: 0
    }
  }
}
layer {
  name: "relu3"
  type: "ReLU"
  bottom: "conv3_changed"
  top: "conv3_changed"
}
layer {
  name: "conv4"
  type: "Convolution"
  bottom: "conv3_changed"
  top: "conv4"
  param {
    lr_mult: 1
    decay_mult: 1
  }
  param {
    lr_mult: 2
    decay_mult: 0
  }
  convolution_param {
    num_output: 384
    pad: 1
    kernel_size: 3
    group: 2
    weight_filler {
      type: "gaussian"
      std: 0.01
    }
    bias_filler {
      type: "constant"
      value: 1
    }
  }
}
layer {
  name: "relu4"
  type: "ReLU"
  bottom: "conv4"
  top: "conv4"
}
layer {
  name: "conv5"
  type: "Convolution"
  bottom: "conv4"
  top: "conv5"
  param {
    lr_mult: 1
    decay_mult: 1
  }
  param {
    lr_mult: 2
    decay_mult: 0
  }
  convolution_param {
    num_output: 256
    pad: 1
    kernel_size: 3
    group: 2
    weight_filler {
      type: "gaussian"
      std: 0.01
    }
    bias_filler {
      type: "constant"
      value: 1
    }
  }
}
layer {
  name: "relu5"
  type: "ReLU"
  bottom: "conv5"
  top: "conv5"
}
layer {
  name: "pool5"
  type: "Pooling"
  bottom: "conv5"
  top: "pool5"
  pooling_param {
    pool: MAX
    kernel_size: 3
    stride: 2
  }
}
layer {
  name: "fc6"
  type: "InnerProduct"
  bottom: "pool5"
  top: "fc6"
  param {
    lr_mult: 1
    decay_mult: 1
  }
  param {
    lr_mult: 2
    decay_mult: 0
  }
  inner_product_param {
    num_output: 4096
    weight_filler {
      type: "gaussian"
      std: 0.005
    }
    bias_filler {
      type: "constant"
      value: 1
    }
  }
}
layer {
  name: "relu6"
  type: "ReLU"
  bottom: "fc6"
  top: "fc6"
}
layer {
  name: "drop6_changed"
  type: "Dropout"
  bottom: "fc6"
  top: "fc6"
  dropout_param {
    dropout_ratio: 0.5
  }
}
layer {
  name: "fc7"
  type: "InnerProduct"
  bottom: "fc6"
  top: "fc7"
  param {
    lr_mult: 1
    decay_mult: 1
  }
  param {
    lr_mult: 2
    decay_mult: 0
  }
  inner_product_param {
    num_output: 4096
    weight_filler {
      type: "gaussian"
      std: 0.005
    }
    bias_filler {
      type: "constant"
      value: 1
    }
  }
}
layer {
  name: "relu7"
  type: "ReLU"
  bottom: "fc7"
  top: "fc7"
}
layer {
  name: "drop7_changed"
  type: "Dropout"
  bottom: "fc7"
  top: "fc7"
  dropout_param {
    dropout_ratio: 0.5
  }
}
layer {
  name: "fc8_neutrino"
  type: "InnerProduct"
  bottom: "fc7"
  top: "fc8_neutrino"
  param {
    lr_mult: 1
    decay_mult: 1
  }
  param {
    lr_mult: 2
    decay_mult: 0
  }
  inner_product_param {
    num_output: 2
    weight_filler {
      type: "gaussian"
      std: 0.01
    }
    bias_filler {
      type: "constant"
      value: 0
    }
  }
}
layer {
  name: "accuracy"
  type: "Accuracy"
  bottom: "fc8_neutrino"
  bottom: "label"
  top: "accuracy"
  include {
    phase: TRAIN
  }
}
layer {
  name: "loss"
  type: "SoftmaxWithLoss"
  bottom: "fc8_neutrino"
  bottom: "label"
  top: "loss"
}
I0828 09:46:02.085345 26536 layer_factory.hpp:77] Creating layer data
I0828 09:46:02.086223 26536 net.cpp:91] Creating Layer data
I0828 09:46:02.086251 26536 net.cpp:399] data -> data
I0828 09:46:02.086307 26536 net.cpp:399] data -> label
I0828 09:46:02.086392 26536 data_transformer.cpp:25] Loading mean file from: /home/jessi12/CNN_local/caffe/data/mupi_mcc7/imagenet_mean.binaryproto
I0828 09:46:02.086655 26537 db_lmdb.cpp:35] Opened lmdb /home/jessi12/CNN_local/caffe/examples/imagenet/mupi_mcc7_train_lmdb
I0828 09:46:02.087551 26536 data_layer.cpp:41] output data size: 100,1,224,224
I0828 09:46:02.117622 26536 net.cpp:141] Setting up data
I0828 09:46:02.117653 26536 net.cpp:148] Top shape: 100 1 224 224 (5017600)
I0828 09:46:02.117671 26536 net.cpp:148] Top shape: 100 (100)
I0828 09:46:02.117682 26536 net.cpp:156] Memory required for data: 20070800
I0828 09:46:02.117704 26536 layer_factory.hpp:77] Creating layer label_data_1_split
I0828 09:46:02.117722 26536 net.cpp:91] Creating Layer label_data_1_split
I0828 09:46:02.117734 26536 net.cpp:425] label_data_1_split <- label
I0828 09:46:02.117759 26536 net.cpp:399] label_data_1_split -> label_data_1_split_0
I0828 09:46:02.117780 26536 net.cpp:399] label_data_1_split -> label_data_1_split_1
I0828 09:46:02.117804 26536 net.cpp:141] Setting up label_data_1_split
I0828 09:46:02.117820 26536 net.cpp:148] Top shape: 100 (100)
I0828 09:46:02.117832 26536 net.cpp:148] Top shape: 100 (100)
I0828 09:46:02.117842 26536 net.cpp:156] Memory required for data: 20071600
I0828 09:46:02.117853 26536 layer_factory.hpp:77] Creating layer conv1
I0828 09:46:02.117882 26536 net.cpp:91] Creating Layer conv1
I0828 09:46:02.117895 26536 net.cpp:425] conv1 <- data
I0828 09:46:02.117911 26536 net.cpp:399] conv1 -> conv1
I0828 09:46:02.118216 26536 net.cpp:141] Setting up conv1
I0828 09:46:02.118242 26536 net.cpp:148] Top shape: 100 96 54 54 (27993600)
I0828 09:46:02.118254 26536 net.cpp:156] Memory required for data: 132046000
I0828 09:46:02.118301 26536 layer_factory.hpp:77] Creating layer relu1
I0828 09:46:02.118319 26536 net.cpp:91] Creating Layer relu1
I0828 09:46:02.118330 26536 net.cpp:425] relu1 <- conv1
I0828 09:46:02.118345 26536 net.cpp:386] relu1 -> conv1 (in-place)
I0828 09:46:02.118366 26536 net.cpp:141] Setting up relu1
I0828 09:46:02.118379 26536 net.cpp:148] Top shape: 100 96 54 54 (27993600)
I0828 09:46:02.118389 26536 net.cpp:156] Memory required for data: 244020400
I0828 09:46:02.118401 26536 layer_factory.hpp:77] Creating layer pool1
I0828 09:46:02.118415 26536 net.cpp:91] Creating Layer pool1
I0828 09:46:02.118427 26536 net.cpp:425] pool1 <- conv1
I0828 09:46:02.118440 26536 net.cpp:399] pool1 -> pool1
I0828 09:46:02.118474 26536 net.cpp:141] Setting up pool1
I0828 09:46:02.118491 26536 net.cpp:148] Top shape: 100 96 27 27 (6998400)
I0828 09:46:02.118502 26536 net.cpp:156] Memory required for data: 272014000
I0828 09:46:02.118513 26536 layer_factory.hpp:77] Creating layer norm1
I0828 09:46:02.118527 26536 net.cpp:91] Creating Layer norm1
I0828 09:46:02.118538 26536 net.cpp:425] norm1 <- pool1
I0828 09:46:02.118552 26536 net.cpp:399] norm1 -> norm1
I0828 09:46:02.118579 26536 net.cpp:141] Setting up norm1
I0828 09:46:02.118595 26536 net.cpp:148] Top shape: 100 96 27 27 (6998400)
I0828 09:46:02.118605 26536 net.cpp:156] Memory required for data: 300007600
I0828 09:46:02.118616 26536 layer_factory.hpp:77] Creating layer conv2_changed
I0828 09:46:02.118633 26536 net.cpp:91] Creating Layer conv2_changed
I0828 09:46:02.118644 26536 net.cpp:425] conv2_changed <- norm1
I0828 09:46:02.118659 26536 net.cpp:399] conv2_changed -> conv2_changed
I0828 09:46:02.124497 26536 net.cpp:141] Setting up conv2_changed
I0828 09:46:02.124524 26536 net.cpp:148] Top shape: 100 256 27 27 (18662400)
I0828 09:46:02.124536 26536 net.cpp:156] Memory required for data: 374657200
I0828 09:46:02.124557 26536 layer_factory.hpp:77] Creating layer relu2
I0828 09:46:02.124572 26536 net.cpp:91] Creating Layer relu2
I0828 09:46:02.124583 26536 net.cpp:425] relu2 <- conv2_changed
I0828 09:46:02.124600 26536 net.cpp:386] relu2 -> conv2_changed (in-place)
I0828 09:46:02.124617 26536 net.cpp:141] Setting up relu2
I0828 09:46:02.124631 26536 net.cpp:148] Top shape: 100 256 27 27 (18662400)
I0828 09:46:02.124642 26536 net.cpp:156] Memory required for data: 449306800
I0828 09:46:02.124656 26536 layer_factory.hpp:77] Creating layer pool2
I0828 09:46:02.124672 26536 net.cpp:91] Creating Layer pool2
I0828 09:46:02.124685 26536 net.cpp:425] pool2 <- conv2_changed
I0828 09:46:02.124698 26536 net.cpp:399] pool2 -> pool2
I0828 09:46:02.124722 26536 net.cpp:141] Setting up pool2
I0828 09:46:02.124738 26536 net.cpp:148] Top shape: 100 256 13 13 (4326400)
I0828 09:46:02.124749 26536 net.cpp:156] Memory required for data: 466612400
I0828 09:46:02.124760 26536 layer_factory.hpp:77] Creating layer norm2
I0828 09:46:02.124774 26536 net.cpp:91] Creating Layer norm2
I0828 09:46:02.124788 26536 net.cpp:425] norm2 <- pool2
I0828 09:46:02.124802 26536 net.cpp:399] norm2 -> norm2
I0828 09:46:02.124820 26536 net.cpp:141] Setting up norm2
I0828 09:46:02.124835 26536 net.cpp:148] Top shape: 100 256 13 13 (4326400)
I0828 09:46:02.124846 26536 net.cpp:156] Memory required for data: 483918000
I0828 09:46:02.124860 26536 layer_factory.hpp:77] Creating layer conv3_changed
I0828 09:46:02.124876 26536 net.cpp:91] Creating Layer conv3_changed
I0828 09:46:02.124887 26536 net.cpp:425] conv3_changed <- norm2
I0828 09:46:02.124902 26536 net.cpp:399] conv3_changed -> conv3_changed
I0828 09:46:02.142452 26536 net.cpp:141] Setting up conv3_changed
I0828 09:46:02.142529 26536 net.cpp:148] Top shape: 100 384 13 13 (6489600)
I0828 09:46:02.142540 26536 net.cpp:156] Memory required for data: 509876400
I0828 09:46:02.142572 26536 layer_factory.hpp:77] Creating layer relu3
I0828 09:46:02.142592 26536 net.cpp:91] Creating Layer relu3
I0828 09:46:02.142606 26536 net.cpp:425] relu3 <- conv3_changed
I0828 09:46:02.142622 26536 net.cpp:386] relu3 -> conv3_changed (in-place)
I0828 09:46:02.142658 26536 net.cpp:141] Setting up relu3
I0828 09:46:02.142688 26536 net.cpp:148] Top shape: 100 384 13 13 (6489600)
I0828 09:46:02.142699 26536 net.cpp:156] Memory required for data: 535834800
I0828 09:46:02.142709 26536 layer_factory.hpp:77] Creating layer conv4
I0828 09:46:02.142729 26536 net.cpp:91] Creating Layer conv4
I0828 09:46:02.142741 26536 net.cpp:425] conv4 <- conv3_changed
I0828 09:46:02.142757 26536 net.cpp:399] conv4 -> conv4
I0828 09:46:02.154539 26536 net.cpp:141] Setting up conv4
I0828 09:46:02.154577 26536 net.cpp:148] Top shape: 100 384 13 13 (6489600)
I0828 09:46:02.154587 26536 net.cpp:156] Memory required for data: 561793200
I0828 09:46:02.154603 26536 layer_factory.hpp:77] Creating layer relu4
I0828 09:46:02.154619 26536 net.cpp:91] Creating Layer relu4
I0828 09:46:02.154630 26536 net.cpp:425] relu4 <- conv4
I0828 09:46:02.154645 26536 net.cpp:386] relu4 -> conv4 (in-place)
I0828 09:46:02.154662 26536 net.cpp:141] Setting up relu4
I0828 09:46:02.154676 26536 net.cpp:148] Top shape: 100 384 13 13 (6489600)
I0828 09:46:02.154687 26536 net.cpp:156] Memory required for data: 587751600
I0828 09:46:02.154698 26536 layer_factory.hpp:77] Creating layer conv5
I0828 09:46:02.154717 26536 net.cpp:91] Creating Layer conv5
I0828 09:46:02.154728 26536 net.cpp:425] conv5 <- conv4
I0828 09:46:02.154748 26536 net.cpp:399] conv5 -> conv5
I0828 09:46:02.163017 26536 net.cpp:141] Setting up conv5
I0828 09:46:02.163049 26536 net.cpp:148] Top shape: 100 256 13 13 (4326400)
I0828 09:46:02.163061 26536 net.cpp:156] Memory required for data: 605057200
I0828 09:46:02.163084 26536 layer_factory.hpp:77] Creating layer relu5
I0828 09:46:02.163101 26536 net.cpp:91] Creating Layer relu5
I0828 09:46:02.163113 26536 net.cpp:425] relu5 <- conv5
I0828 09:46:02.163130 26536 net.cpp:386] relu5 -> conv5 (in-place)
I0828 09:46:02.163147 26536 net.cpp:141] Setting up relu5
I0828 09:46:02.163162 26536 net.cpp:148] Top shape: 100 256 13 13 (4326400)
I0828 09:46:02.163172 26536 net.cpp:156] Memory required for data: 622362800
I0828 09:46:02.163183 26536 layer_factory.hpp:77] Creating layer pool5
I0828 09:46:02.163202 26536 net.cpp:91] Creating Layer pool5
I0828 09:46:02.163213 26536 net.cpp:425] pool5 <- conv5
I0828 09:46:02.163228 26536 net.cpp:399] pool5 -> pool5
I0828 09:46:02.163249 26536 net.cpp:141] Setting up pool5
I0828 09:46:02.163264 26536 net.cpp:148] Top shape: 100 256 6 6 (921600)
I0828 09:46:02.163275 26536 net.cpp:156] Memory required for data: 626049200
I0828 09:46:02.163286 26536 layer_factory.hpp:77] Creating layer fc6
I0828 09:46:02.163306 26536 net.cpp:91] Creating Layer fc6
I0828 09:46:02.163317 26536 net.cpp:425] fc6 <- pool5
I0828 09:46:02.163336 26536 net.cpp:399] fc6 -> fc6
I0828 09:46:02.693928 26536 net.cpp:141] Setting up fc6
I0828 09:46:02.694010 26536 net.cpp:148] Top shape: 100 4096 (409600)
I0828 09:46:02.694020 26536 net.cpp:156] Memory required for data: 627687600
I0828 09:46:02.694037 26536 layer_factory.hpp:77] Creating layer relu6
I0828 09:46:02.694066 26536 net.cpp:91] Creating Layer relu6
I0828 09:46:02.694077 26536 net.cpp:425] relu6 <- fc6
I0828 09:46:02.694095 26536 net.cpp:386] relu6 -> fc6 (in-place)
I0828 09:46:02.694115 26536 net.cpp:141] Setting up relu6
I0828 09:46:02.694128 26536 net.cpp:148] Top shape: 100 4096 (409600)
I0828 09:46:02.694136 26536 net.cpp:156] Memory required for data: 629326000
I0828 09:46:02.694145 26536 layer_factory.hpp:77] Creating layer drop6_changed
I0828 09:46:02.694160 26536 net.cpp:91] Creating Layer drop6_changed
I0828 09:46:02.694169 26536 net.cpp:425] drop6_changed <- fc6
I0828 09:46:02.694181 26536 net.cpp:386] drop6_changed -> fc6 (in-place)
I0828 09:46:02.694207 26536 net.cpp:141] Setting up drop6_changed
I0828 09:46:02.694221 26536 net.cpp:148] Top shape: 100 4096 (409600)
I0828 09:46:02.694229 26536 net.cpp:156] Memory required for data: 630964400
I0828 09:46:02.694238 26536 layer_factory.hpp:77] Creating layer fc7
I0828 09:46:02.694253 26536 net.cpp:91] Creating Layer fc7
I0828 09:46:02.694263 26536 net.cpp:425] fc7 <- fc6
I0828 09:46:02.694294 26536 net.cpp:399] fc7 -> fc7
I0828 09:46:02.929558 26536 net.cpp:141] Setting up fc7
I0828 09:46:02.929639 26536 net.cpp:148] Top shape: 100 4096 (409600)
I0828 09:46:02.929649 26536 net.cpp:156] Memory required for data: 632602800
I0828 09:46:02.929666 26536 layer_factory.hpp:77] Creating layer relu7
I0828 09:46:02.929684 26536 net.cpp:91] Creating Layer relu7
I0828 09:46:02.929697 26536 net.cpp:425] relu7 <- fc7
I0828 09:46:02.929711 26536 net.cpp:386] relu7 -> fc7 (in-place)
I0828 09:46:02.929730 26536 net.cpp:141] Setting up relu7
I0828 09:46:02.929741 26536 net.cpp:148] Top shape: 100 4096 (409600)
I0828 09:46:02.929750 26536 net.cpp:156] Memory required for data: 634241200
I0828 09:46:02.929759 26536 layer_factory.hpp:77] Creating layer drop7_changed
I0828 09:46:02.929774 26536 net.cpp:91] Creating Layer drop7_changed
I0828 09:46:02.929782 26536 net.cpp:425] drop7_changed <- fc7
I0828 09:46:02.929797 26536 net.cpp:386] drop7_changed -> fc7 (in-place)
I0828 09:46:02.929813 26536 net.cpp:141] Setting up drop7_changed
I0828 09:46:02.929824 26536 net.cpp:148] Top shape: 100 4096 (409600)
I0828 09:46:02.929833 26536 net.cpp:156] Memory required for data: 635879600
I0828 09:46:02.929842 26536 layer_factory.hpp:77] Creating layer fc8_neutrino
I0828 09:46:02.929857 26536 net.cpp:91] Creating Layer fc8_neutrino
I0828 09:46:02.929867 26536 net.cpp:425] fc8_neutrino <- fc7
I0828 09:46:02.929880 26536 net.cpp:399] fc8_neutrino -> fc8_neutrino
I0828 09:46:02.930030 26536 net.cpp:141] Setting up fc8_neutrino
I0828 09:46:02.930065 26536 net.cpp:148] Top shape: 100 2 (200)
I0828 09:46:02.930075 26536 net.cpp:156] Memory required for data: 635880400
I0828 09:46:02.930089 26536 layer_factory.hpp:77] Creating layer fc8_neutrino_fc8_neutrino_0_split
I0828 09:46:02.930104 26536 net.cpp:91] Creating Layer fc8_neutrino_fc8_neutrino_0_split
I0828 09:46:02.930114 26536 net.cpp:425] fc8_neutrino_fc8_neutrino_0_split <- fc8_neutrino
I0828 09:46:02.930126 26536 net.cpp:399] fc8_neutrino_fc8_neutrino_0_split -> fc8_neutrino_fc8_neutrino_0_split_0
I0828 09:46:02.930140 26536 net.cpp:399] fc8_neutrino_fc8_neutrino_0_split -> fc8_neutrino_fc8_neutrino_0_split_1
I0828 09:46:02.930155 26536 net.cpp:141] Setting up fc8_neutrino_fc8_neutrino_0_split
I0828 09:46:02.930167 26536 net.cpp:148] Top shape: 100 2 (200)
I0828 09:46:02.930177 26536 net.cpp:148] Top shape: 100 2 (200)
I0828 09:46:02.930186 26536 net.cpp:156] Memory required for data: 635882000
I0828 09:46:02.930196 26536 layer_factory.hpp:77] Creating layer accuracy
I0828 09:46:02.930220 26536 net.cpp:91] Creating Layer accuracy
I0828 09:46:02.930230 26536 net.cpp:425] accuracy <- fc8_neutrino_fc8_neutrino_0_split_0
I0828 09:46:02.930241 26536 net.cpp:425] accuracy <- label_data_1_split_0
I0828 09:46:02.930256 26536 net.cpp:399] accuracy -> accuracy
…
