…
I0828 21:18:26.615161 28769 net.cpp:313] The NetState phase (0) differed from the phase (1) specified by a rule in layer accuracy
I0828 21:18:26.615425 28769 net.cpp:49] Initializing net from parameters: 
name: "CaffeNet"
state {
  phase: TRAIN
}
layer {
  name: "data"
  type: "Data"
  top: "data"
  top: "label"
  include {
    phase: TRAIN
  }
  transform_param {
    mirror: true
    crop_size: 224
    mean_file: "/home/jessi12/CNN_local/caffe/data/mupi_mcc7/imagenet_mean.binaryproto"
  }
  data_param {
    source: "/home/jessi12/CNN_local/caffe/examples/imagenet/mupi_mcc7_train_lmdb"
    batch_size: 100
    backend: LMDB
  }
}
layer {
  name: "conv1"
  type: "Convolution"
  bottom: "data"
  top: "conv1"
  param {
    lr_mult: 1
    decay_mult: 1
  }
  param {
    lr_mult: 2
    decay_mult: 0
  }
  convolution_param {
    num_output: 96
    kernel_size: 11
    stride: 4
    weight_filler {
      type: "gaussian"
      std: 0.01
    }
    bias_filler {
      type: "constant"
      value: 0
    }
  }
}
layer {
  name: "relu1"
  type: "ReLU"
  bottom: "conv1"
  top: "conv1"
}
layer {
  name: "pool1"
  type: "Pooling"
  bottom: "conv1"
  top: "pool1"
  pooling_param {
    pool: MAX
    kernel_size: 3
    stride: 2
  }
}
layer {
  name: "norm1"
  type: "LRN"
  bottom: "pool1"
  top: "norm1"
  lrn_param {
    local_size: 5
    alpha: 0.0001
    beta: 0.75
  }
}
layer {
  name: "conv2"
  type: "Convolution"
  bottom: "norm1"
  top: "conv2"
  param {
    lr_mult: 1
    decay_mult: 1
  }
  param {
    lr_mult: 2
    decay_mult: 0
  }
  convolution_param {
    num_output: 256
    pad: 2
    kernel_size: 5
    group: 2
    weight_filler {
      type: "gaussian"
      std: 0.01
    }
    bias_filler {
      type: "constant"
      value: 1
    }
  }
}
layer {
  name: "relu2"
  type: "ReLU"
  bottom: "conv2"
  top: "conv2"
}
layer {
  name: "pool2"
  type: "Pooling"
  bottom: "conv2"
  top: "pool2"
  pooling_param {
    pool: MAX
    kernel_size: 3
    stride: 2
  }
}
layer {
  name: "norm2"
  type: "LRN"
  bottom: "pool2"
  top: "norm2"
  lrn_param {
    local_size: 5
    alpha: 0.0001
    beta: 0.75
  }
}
layer {
  name: "conv3"
  type: "Convolution"
  bottom: "norm2"
  top: "conv3"
  param {
    lr_mult: 1
    decay_mult: 1
  }
  param {
    lr_mult: 2
    decay_mult: 0
  }
  convolution_param {
    num_output: 384
    pad: 1
    kernel_size: 3
    weight_filler {
      type: "gaussian"
      std: 0.01
    }
    bias_filler {
      type: "constant"
      value: 0
    }
  }
}
layer {
  name: "relu3"
  type: "ReLU"
  bottom: "conv3"
  top: "conv3"
}
layer {
  name: "conv4"
  type: "Convolution"
  bottom: "conv3"
  top: "conv4"
  param {
    lr_mult: 1
    decay_mult: 1
  }
  param {
    lr_mult: 2
    decay_mult: 0
  }
  convolution_param {
    num_output: 384
    pad: 1
    kernel_size: 3
    group: 2
    weight_filler {
      type: "gaussian"
      std: 0.01
    }
    bias_filler {
      type: "constant"
      value: 1
    }
  }
}
layer {
  name: "relu4"
  type: "ReLU"
  bottom: "conv4"
  top: "conv4"
}
layer {
  name: "conv5"
  type: "Convolution"
  bottom: "conv4"
  top: "conv5"
  param {
    lr_mult: 1
    decay_mult: 1
  }
  param {
    lr_mult: 2
    decay_mult: 0
  }
  convolution_param {
    num_output: 256
    pad: 1
    kernel_size: 3
    group: 2
    weight_filler {
      type: "gaussian"
      std: 0.01
    }
    bias_filler {
      type: "constant"
      value: 1
    }
  }
}
layer {
  name: "relu5"
  type: "ReLU"
  bottom: "conv5"
  top: "conv5"
}
layer {
  name: "pool5"
  type: "Pooling"
  bottom: "conv5"
  top: "pool5"
  pooling_param {
    pool: MAX
    kernel_size: 3
    stride: 2
  }
}
layer {
  name: "fc6"
  type: "InnerProduct"
  bottom: "pool5"
  top: "fc6"
  param {
    lr_mult: 1
    decay_mult: 1
  }
  param {
    lr_mult: 2
    decay_mult: 0
  }
  inner_product_param {
    num_output: 4096
    weight_filler {
      type: "gaussian"
      std: 0.005
    }
    bias_filler {
      type: "constant"
      value: 1
    }
  }
}
layer {
  name: "relu6"
  type: "ReLU"
  bottom: "fc6"
  top: "fc6"
}
layer {
  name: "drop6"
  type: "Dropout"
  bottom: "fc6"
  top: "fc6"
  dropout_param {
    dropout_ratio: 0.5
  }
}
layer {
  name: "fc7"
  type: "InnerProduct"
  bottom: "fc6"
  top: "fc7"
  param {
    lr_mult: 1
    decay_mult: 1
  }
  param {
    lr_mult: 2
    decay_mult: 0
  }
  inner_product_param {
    num_output: 4096
    weight_filler {
      type: "gaussian"
      std: 0.005
    }
    bias_filler {
      type: "constant"
      value: 1
    }
  }
}
layer {
  name: "relu7"
  type: "ReLU"
  bottom: "fc7"
  top: "fc7"
}
layer {
  name: "drop7"
  type: "Dropout"
  bottom: "fc7"
  top: "fc7"
  dropout_param {
    dropout_ratio: 0.5
  }
}
layer {
  name: "fc8_neutrino"
  type: "InnerProduct"
  bottom: "fc7"
  top: "fc8_neutrino"
  param {
    lr_mult: 1
    decay_mult: 1
  }
  param {
    lr_mult: 2
    decay_mult: 0
  }
  inner_product_param {
    num_output: 2
    weight_filler {
      type: "gaussian"
      std: 0.01
    }
    bias_filler {
      type: "constant"
      value: 0
    }
  }
}
layer {
  name: "accuracy"
  type: "Accuracy"
  bottom: "fc8_neutrino"
  bottom: "label"
  top: "accuracy"
  include {
    phase: TRAIN
  }
}
layer {
  name: "loss"
  type: "SoftmaxWithLoss"
  bottom: "fc8_neutrino"
  bottom: "label"
  top: "loss"
}
I0828 21:18:26.615634 28769 layer_factory.hpp:77] Creating layer data
I0828 21:18:26.616534 28769 net.cpp:91] Creating Layer data
I0828 21:18:26.616561 28769 net.cpp:399] data -> data
I0828 21:18:26.616617 28769 net.cpp:399] data -> label
I0828 21:18:26.616663 28769 data_transformer.cpp:25] Loading mean file from: /home/jessi12/CNN_local/caffe/data/mupi_mcc7/imagenet_mean.binaryproto
I0828 21:18:26.616940 28770 db_lmdb.cpp:35] Opened lmdb /home/jessi12/CNN_local/caffe/examples/imagenet/mupi_mcc7_train_lmdb
I0828 21:18:26.617813 28769 data_layer.cpp:41] output data size: 100,1,224,224
I0828 21:18:26.646558 28769 net.cpp:141] Setting up data
I0828 21:18:26.646590 28769 net.cpp:148] Top shape: 100 1 224 224 (5017600)
I0828 21:18:26.646607 28769 net.cpp:148] Top shape: 100 (100)
I0828 21:18:26.646620 28769 net.cpp:156] Memory required for data: 20070800
I0828 21:18:26.646638 28769 layer_factory.hpp:77] Creating layer label_data_1_split
I0828 21:18:26.646656 28769 net.cpp:91] Creating Layer label_data_1_split
I0828 21:18:26.646669 28769 net.cpp:425] label_data_1_split <- label
I0828 21:18:26.646693 28769 net.cpp:399] label_data_1_split -> label_data_1_split_0
I0828 21:18:26.646714 28769 net.cpp:399] label_data_1_split -> label_data_1_split_1
I0828 21:18:26.646736 28769 net.cpp:141] Setting up label_data_1_split
I0828 21:18:26.646752 28769 net.cpp:148] Top shape: 100 (100)
I0828 21:18:26.646765 28769 net.cpp:148] Top shape: 100 (100)
I0828 21:18:26.646776 28769 net.cpp:156] Memory required for data: 20071600
I0828 21:18:26.646787 28769 layer_factory.hpp:77] Creating layer conv1
I0828 21:18:26.646816 28769 net.cpp:91] Creating Layer conv1
I0828 21:18:26.646828 28769 net.cpp:425] conv1 <- data
I0828 21:18:26.646844 28769 net.cpp:399] conv1 -> conv1
I0828 21:18:26.647128 28769 net.cpp:141] Setting up conv1
I0828 21:18:26.647153 28769 net.cpp:148] Top shape: 100 96 54 54 (27993600)
I0828 21:18:26.647164 28769 net.cpp:156] Memory required for data: 132046000
I0828 21:18:26.647193 28769 layer_factory.hpp:77] Creating layer relu1
I0828 21:18:26.647217 28769 net.cpp:91] Creating Layer relu1
I0828 21:18:26.647239 28769 net.cpp:425] relu1 <- conv1
I0828 21:18:26.647256 28769 net.cpp:386] relu1 -> conv1 (in-place)
I0828 21:18:26.647275 28769 net.cpp:141] Setting up relu1
I0828 21:18:26.647289 28769 net.cpp:148] Top shape: 100 96 54 54 (27993600)
I0828 21:18:26.647300 28769 net.cpp:156] Memory required for data: 244020400
I0828 21:18:26.647320 28769 layer_factory.hpp:77] Creating layer pool1
I0828 21:18:26.647338 28769 net.cpp:91] Creating Layer pool1
I0828 21:18:26.647349 28769 net.cpp:425] pool1 <- conv1
I0828 21:18:26.647363 28769 net.cpp:399] pool1 -> pool1
I0828 21:18:26.647395 28769 net.cpp:141] Setting up pool1
I0828 21:18:26.647413 28769 net.cpp:148] Top shape: 100 96 27 27 (6998400)
I0828 21:18:26.647423 28769 net.cpp:156] Memory required for data: 272014000
I0828 21:18:26.647434 28769 layer_factory.hpp:77] Creating layer norm1
I0828 21:18:26.647449 28769 net.cpp:91] Creating Layer norm1
I0828 21:18:26.647459 28769 net.cpp:425] norm1 <- pool1
I0828 21:18:26.647474 28769 net.cpp:399] norm1 -> norm1
I0828 21:18:26.647501 28769 net.cpp:141] Setting up norm1
I0828 21:18:26.647516 28769 net.cpp:148] Top shape: 100 96 27 27 (6998400)
I0828 21:18:26.647527 28769 net.cpp:156] Memory required for data: 300007600
I0828 21:18:26.647537 28769 layer_factory.hpp:77] Creating layer conv2
I0828 21:18:26.647554 28769 net.cpp:91] Creating Layer conv2
I0828 21:18:26.647565 28769 net.cpp:425] conv2 <- norm1
I0828 21:18:26.647580 28769 net.cpp:399] conv2 -> conv2
I0828 21:18:26.653398 28769 net.cpp:141] Setting up conv2
I0828 21:18:26.653425 28769 net.cpp:148] Top shape: 100 256 27 27 (18662400)
I0828 21:18:26.653439 28769 net.cpp:156] Memory required for data: 374657200
I0828 21:18:26.653458 28769 layer_factory.hpp:77] Creating layer relu2
I0828 21:18:26.653473 28769 net.cpp:91] Creating Layer relu2
I0828 21:18:26.653484 28769 net.cpp:425] relu2 <- conv2
I0828 21:18:26.653499 28769 net.cpp:386] relu2 -> conv2 (in-place)
I0828 21:18:26.653517 28769 net.cpp:141] Setting up relu2
I0828 21:18:26.653532 28769 net.cpp:148] Top shape: 100 256 27 27 (18662400)
I0828 21:18:26.653542 28769 net.cpp:156] Memory required for data: 449306800
I0828 21:18:26.653553 28769 layer_factory.hpp:77] Creating layer pool2
I0828 21:18:26.653570 28769 net.cpp:91] Creating Layer pool2
I0828 21:18:26.653583 28769 net.cpp:425] pool2 <- conv2
I0828 21:18:26.653596 28769 net.cpp:399] pool2 -> pool2
I0828 21:18:26.653619 28769 net.cpp:141] Setting up pool2
I0828 21:18:26.653635 28769 net.cpp:148] Top shape: 100 256 13 13 (4326400)
I0828 21:18:26.653647 28769 net.cpp:156] Memory required for data: 466612400
I0828 21:18:26.653658 28769 layer_factory.hpp:77] Creating layer norm2
I0828 21:18:26.653672 28769 net.cpp:91] Creating Layer norm2
I0828 21:18:26.653683 28769 net.cpp:425] norm2 <- pool2
I0828 21:18:26.653697 28769 net.cpp:399] norm2 -> norm2
I0828 21:18:26.653719 28769 net.cpp:141] Setting up norm2
I0828 21:18:26.653733 28769 net.cpp:148] Top shape: 100 256 13 13 (4326400)
I0828 21:18:26.653744 28769 net.cpp:156] Memory required for data: 483918000
I0828 21:18:26.653754 28769 layer_factory.hpp:77] Creating layer conv3
I0828 21:18:26.653774 28769 net.cpp:91] Creating Layer conv3
I0828 21:18:26.653786 28769 net.cpp:425] conv3 <- norm2
I0828 21:18:26.653800 28769 net.cpp:399] conv3 -> conv3
I0828 21:18:26.670188 28769 net.cpp:141] Setting up conv3
I0828 21:18:26.670253 28769 net.cpp:148] Top shape: 100 384 13 13 (6489600)
I0828 21:18:26.670265 28769 net.cpp:156] Memory required for data: 509876400
I0828 21:18:26.670289 28769 layer_factory.hpp:77] Creating layer relu3
I0828 21:18:26.670307 28769 net.cpp:91] Creating Layer relu3
I0828 21:18:26.670341 28769 net.cpp:425] relu3 <- conv3
I0828 21:18:26.670361 28769 net.cpp:386] relu3 -> conv3 (in-place)
I0828 21:18:26.670382 28769 net.cpp:141] Setting up relu3
I0828 21:18:26.670395 28769 net.cpp:148] Top shape: 100 384 13 13 (6489600)
I0828 21:18:26.670406 28769 net.cpp:156] Memory required for data: 535834800
I0828 21:18:26.670418 28769 layer_factory.hpp:77] Creating layer conv4
I0828 21:18:26.670474 28769 net.cpp:91] Creating Layer conv4
I0828 21:18:26.670486 28769 net.cpp:425] conv4 <- conv3
I0828 21:18:26.670501 28769 net.cpp:399] conv4 -> conv4
I0828 21:18:26.682963 28769 net.cpp:141] Setting up conv4
I0828 21:18:26.683001 28769 net.cpp:148] Top shape: 100 384 13 13 (6489600)
I0828 21:18:26.683012 28769 net.cpp:156] Memory required for data: 561793200
I0828 21:18:26.683027 28769 layer_factory.hpp:77] Creating layer relu4
I0828 21:18:26.683048 28769 net.cpp:91] Creating Layer relu4
I0828 21:18:26.683059 28769 net.cpp:425] relu4 <- conv4
I0828 21:18:26.683074 28769 net.cpp:386] relu4 -> conv4 (in-place)
I0828 21:18:26.683091 28769 net.cpp:141] Setting up relu4
I0828 21:18:26.683104 28769 net.cpp:148] Top shape: 100 384 13 13 (6489600)
I0828 21:18:26.683115 28769 net.cpp:156] Memory required for data: 587751600
I0828 21:18:26.683126 28769 layer_factory.hpp:77] Creating layer conv5
I0828 21:18:26.683145 28769 net.cpp:91] Creating Layer conv5
I0828 21:18:26.683156 28769 net.cpp:425] conv5 <- conv4
I0828 21:18:26.683182 28769 net.cpp:399] conv5 -> conv5
I0828 21:18:26.691638 28769 net.cpp:141] Setting up conv5
I0828 21:18:26.691665 28769 net.cpp:148] Top shape: 100 256 13 13 (4326400)
I0828 21:18:26.691678 28769 net.cpp:156] Memory required for data: 605057200
I0828 21:18:26.691704 28769 layer_factory.hpp:77] Creating layer relu5
I0828 21:18:26.691718 28769 net.cpp:91] Creating Layer relu5
I0828 21:18:26.691730 28769 net.cpp:425] relu5 <- conv5
I0828 21:18:26.691747 28769 net.cpp:386] relu5 -> conv5 (in-place)
I0828 21:18:26.691766 28769 net.cpp:141] Setting up relu5
I0828 21:18:26.691779 28769 net.cpp:148] Top shape: 100 256 13 13 (4326400)
I0828 21:18:26.691790 28769 net.cpp:156] Memory required for data: 622362800
I0828 21:18:26.691802 28769 layer_factory.hpp:77] Creating layer pool5
I0828 21:18:26.691820 28769 net.cpp:91] Creating Layer pool5
I0828 21:18:26.691831 28769 net.cpp:425] pool5 <- conv5
I0828 21:18:26.691846 28769 net.cpp:399] pool5 -> pool5
I0828 21:18:26.691869 28769 net.cpp:141] Setting up pool5
I0828 21:18:26.691884 28769 net.cpp:148] Top shape: 100 256 6 6 (921600)
I0828 21:18:26.691893 28769 net.cpp:156] Memory required for data: 626049200
I0828 21:18:26.691905 28769 layer_factory.hpp:77] Creating layer fc6
I0828 21:18:26.691925 28769 net.cpp:91] Creating Layer fc6
I0828 21:18:26.691936 28769 net.cpp:425] fc6 <- pool5
I0828 21:18:26.691956 28769 net.cpp:399] fc6 -> fc6
I0828 21:18:27.245568 28769 net.cpp:141] Setting up fc6
I0828 21:18:27.245651 28769 net.cpp:148] Top shape: 100 4096 (409600)
I0828 21:18:27.245661 28769 net.cpp:156] Memory required for data: 627687600
I0828 21:18:27.245678 28769 layer_factory.hpp:77] Creating layer relu6
I0828 21:18:27.245697 28769 net.cpp:91] Creating Layer relu6
I0828 21:18:27.245708 28769 net.cpp:425] relu6 <- fc6
I0828 21:18:27.245725 28769 net.cpp:386] relu6 -> fc6 (in-place)
I0828 21:18:27.245745 28769 net.cpp:141] Setting up relu6
I0828 21:18:27.245757 28769 net.cpp:148] Top shape: 100 4096 (409600)
I0828 21:18:27.245766 28769 net.cpp:156] Memory required for data: 629326000
I0828 21:18:27.245776 28769 layer_factory.hpp:77] Creating layer drop6
I0828 21:18:27.245790 28769 net.cpp:91] Creating Layer drop6
I0828 21:18:27.245800 28769 net.cpp:425] drop6 <- fc6
I0828 21:18:27.245811 28769 net.cpp:386] drop6 -> fc6 (in-place)
I0828 21:18:27.245836 28769 net.cpp:141] Setting up drop6
I0828 21:18:27.245848 28769 net.cpp:148] Top shape: 100 4096 (409600)
I0828 21:18:27.245857 28769 net.cpp:156] Memory required for data: 630964400
I0828 21:18:27.245867 28769 layer_factory.hpp:77] Creating layer fc7
I0828 21:18:27.245882 28769 net.cpp:91] Creating Layer fc7
I0828 21:18:27.245892 28769 net.cpp:425] fc7 <- fc6
I0828 21:18:27.245906 28769 net.cpp:399] fc7 -> fc7
I0828 21:18:27.481051 28769 net.cpp:141] Setting up fc7
I0828 21:18:27.481135 28769 net.cpp:148] Top shape: 100 4096 (409600)
I0828 21:18:27.481147 28769 net.cpp:156] Memory required for data: 632602800
I0828 21:18:27.481163 28769 layer_factory.hpp:77] Creating layer relu7
I0828 21:18:27.481195 28769 net.cpp:91] Creating Layer relu7
I0828 21:18:27.481221 28769 net.cpp:425] relu7 <- fc7
I0828 21:18:27.481236 28769 net.cpp:386] relu7 -> fc7 (in-place)
I0828 21:18:27.481256 28769 net.cpp:141] Setting up relu7
I0828 21:18:27.481266 28769 net.cpp:148] Top shape: 100 4096 (409600)
I0828 21:18:27.481276 28769 net.cpp:156] Memory required for data: 634241200
I0828 21:18:27.481284 28769 layer_factory.hpp:77] Creating layer drop7
I0828 21:18:27.481297 28769 net.cpp:91] Creating Layer drop7
I0828 21:18:27.481307 28769 net.cpp:425] drop7 <- fc7
I0828 21:18:27.481339 28769 net.cpp:386] drop7 -> fc7 (in-place)
I0828 21:18:27.481358 28769 net.cpp:141] Setting up drop7
I0828 21:18:27.481369 28769 net.cpp:148] Top shape: 100 4096 (409600)
I0828 21:18:27.481379 28769 net.cpp:156] Memory required for data: 635879600
I0828 21:18:27.481387 28769 layer_factory.hpp:77] Creating layer fc8_neutrino
I0828 21:18:27.481401 28769 net.cpp:91] Creating Layer fc8_neutrino
I0828 21:18:27.481410 28769 net.cpp:425] fc8_neutrino <- fc7
I0828 21:18:27.481423 28769 net.cpp:399] fc8_neutrino -> fc8_neutrino
I0828 21:18:27.481570 28769 net.cpp:141] Setting up fc8_neutrino
I0828 21:18:27.481585 28769 net.cpp:148] Top shape: 100 2 (200)
I0828 21:18:27.481593 28769 net.cpp:156] Memory required for data: 635880400
I0828 21:18:27.481606 28769 layer_factory.hpp:77] Creating layer fc8_neutrino_fc8_neutrino_0_split
I0828 21:18:27.481621 28769 net.cpp:91] Creating Layer fc8_neutrino_fc8_neutrino_0_split
I0828 21:18:27.481631 28769 net.cpp:425] fc8_neutrino_fc8_neutrino_0_split <- fc8_neutrino
I0828 21:18:27.481642 28769 net.cpp:399] fc8_neutrino_fc8_neutrino_0_split -> fc8_neutrino_fc8_neutrino_0_split_0
I0828 21:18:27.481655 28769 net.cpp:399] fc8_neutrino_fc8_neutrino_0_split -> fc8_neutrino_fc8_neutrino_0_split_1
I0828 21:18:27.481669 28769 net.cpp:141] Setting up fc8_neutrino_fc8_neutrino_0_split
I0828 21:18:27.481681 28769 net.cpp:148] Top shape: 100 2 (200)
I0828 21:18:27.481691 28769 net.cpp:148] Top shape: 100 2 (200)
I0828 21:18:27.481700 28769 net.cpp:156] Memory required for data: 635882000
I0828 21:18:27.481709 28769 layer_factory.hpp:77] Creating layer accuracy
I0828 21:18:27.481730 28769 net.cpp:91] Creating Layer accuracy
I0828 21:18:27.481740 28769 net.cpp:425] accuracy <- fc8_neutrino_fc8_neutrino_0_split_0
I0828 21:18:27.481751 28769 net.cpp:425] accuracy <- label_data_1_split_0
I0828 21:18:27.481766 28769 net.cpp:399] accuracy -> accuracy
…
