…
I0830 11:19:08.877846 24139 net.cpp:313] The NetState phase (0) differed from the phase (1) specified by a rule in layer accuracy
I0830 11:19:08.878094 24139 net.cpp:49] Initializing net from parameters: 
name: "CaffeNet"
state {
  phase: TRAIN
}
layer {
  name: "data"
  type: "Data"
  top: "data"
  top: "label"
  include {
    phase: TRAIN
  }
  transform_param {
    mirror: true
    crop_size: 224
    mean_file: "/home/jessi12/CNN_local/caffe/data/mupi_mcc7/imagenet_mean.binaryproto"
  }
  data_param {
    source: "/home/jessi12/CNN_local/caffe/examples/imagenet/mupi_mcc7_train_lmdb"
    batch_size: 100
    backend: LMDB
  }
}
layer {
  name: "conv1"
  type: "Convolution"
  bottom: "data"
  top: "conv1"
  param {
    lr_mult: 1
    decay_mult: 1
  }
  param {
    lr_mult: 2
    decay_mult: 0
  }
  convolution_param {
    num_output: 96
    kernel_size: 11
    stride: 4
    weight_filler {
      type: "gaussian"
      std: 0.01
    }
    bias_filler {
      type: "constant"
      value: 0
    }
  }
}
layer {
  name: "relu1"
  type: "ReLU"
  bottom: "conv1"
  top: "conv1"
}
layer {
  name: "pool1"
  type: "Pooling"
  bottom: "conv1"
  top: "pool1"
  pooling_param {
    pool: MAX
    kernel_size: 3
    stride: 2
  }
}
layer {
  name: "norm1"
  type: "LRN"
  bottom: "pool1"
  top: "norm1"
  lrn_param {
    local_size: 5
    alpha: 0.0001
    beta: 0.75
  }
}
layer {
  name: "conv2_changed"
  type: "Convolution"
  bottom: "norm1"
  top: "conv2_changed"
  param {
    lr_mult: 1
    decay_mult: 1
  }
  param {
    lr_mult: 2
    decay_mult: 0
  }
  convolution_param {
    num_output: 256
    pad: 2
    kernel_size: 5
    group: 2
    weight_filler {
      type: "gaussian"
      std: 0.01
    }
    bias_filler {
      type: "constant"
      value: 1
    }
  }
}
layer {
  name: "relu2"
  type: "ReLU"
  bottom: "conv2_changed"
  top: "conv2_changed"
}
layer {
  name: "pool2"
  type: "Pooling"
  bottom: "conv2_changed"
  top: "pool2"
  pooling_param {
    pool: MAX
    kernel_size: 3
    stride: 2
  }
}
layer {
  name: "norm2"
  type: "LRN"
  bottom: "pool2"
  top: "norm2"
  lrn_param {
    local_size: 5
    alpha: 0.0001
    beta: 0.75
  }
}
layer {
  name: "conv3_changed"
  type: "Convolution"
  bottom: "norm2"
  top: "conv3_changed"
  param {
    lr_mult: 1
    decay_mult: 1
  }
  param {
    lr_mult: 2
    decay_mult: 0
  }
  convolution_param {
    num_output: 384
    pad: 1
    kernel_size: 3
    weight_filler {
      type: "gaussian"
      std: 0.01
    }
    bias_filler {
      type: "constant"
      value: 0
    }
  }
}
layer {
  name: "relu3"
  type: "ReLU"
  bottom: "conv3_changed"
  top: "conv3_changed"
}
layer {
  name: "conv4"
  type: "Convolution"
  bottom: "conv3_changed"
  top: "conv4"
  param {
    lr_mult: 1
    decay_mult: 1
  }
  param {
    lr_mult: 2
    decay_mult: 0
  }
  convolution_param {
    num_output: 384
    pad: 1
    kernel_size: 3
    group: 2
    weight_filler {
      type: "gaussian"
      std: 0.01
    }
    bias_filler {
      type: "constant"
      value: 1
    }
  }
}
layer {
  name: "relu4"
  type: "ReLU"
  bottom: "conv4"
  top: "conv4"
}
layer {
  name: "conv5"
  type: "Convolution"
  bottom: "conv4"
  top: "conv5"
  param {
    lr_mult: 1
    decay_mult: 1
  }
  param {
    lr_mult: 2
    decay_mult: 0
  }
  convolution_param {
    num_output: 256
    pad: 1
    kernel_size: 3
    group: 2
    weight_filler {
      type: "gaussian"
      std: 0.01
    }
    bias_filler {
      type: "constant"
      value: 1
    }
  }
}
layer {
  name: "relu5"
  type: "ReLU"
  bottom: "conv5"
  top: "conv5"
}
layer {
  name: "pool5"
  type: "Pooling"
  bottom: "conv5"
  top: "pool5"
  pooling_param {
    pool: MAX
    kernel_size: 3
    stride: 2
  }
}
layer {
  name: "fc6"
  type: "InnerProduct"
  bottom: "pool5"
  top: "fc6"
  param {
    lr_mult: 1
    decay_mult: 1
  }
  param {
    lr_mult: 2
    decay_mult: 0
  }
  inner_product_param {
    num_output: 4096
    weight_filler {
      type: "gaussian"
      std: 0.005
    }
    bias_filler {
      type: "constant"
      value: 1
    }
  }
}
layer {
  name: "relu6"
  type: "ReLU"
  bottom: "fc6"
  top: "fc6"
}
layer {
  name: "drop6"
  type: "Dropout"
  bottom: "fc6"
  top: "fc6"
  dropout_param {
    dropout_ratio: 0.5
  }
}
layer {
  name: "fc7"
  type: "InnerProduct"
  bottom: "fc6"
  top: "fc7"
  param {
    lr_mult: 1
    decay_mult: 1
  }
  param {
    lr_mult: 2
    decay_mult: 0
  }
  inner_product_param {
    num_output: 4096
    weight_filler {
      type: "gaussian"
      std: 0.005
    }
    bias_filler {
      type: "constant"
      value: 1
    }
  }
}
layer {
  name: "relu7"
  type: "ReLU"
  bottom: "fc7"
  top: "fc7"
}
layer {
  name: "drop7"
  type: "Dropout"
  bottom: "fc7"
  top: "fc7"
  dropout_param {
    dropout_ratio: 0.5
  }
}
layer {
  name: "fc8_neutrino"
  type: "InnerProduct"
  bottom: "fc7"
  top: "fc8_neutrino"
  param {
    lr_mult: 1
    decay_mult: 1
  }
  param {
    lr_mult: 2
    decay_mult: 0
  }
  inner_product_param {
    num_output: 2
    weight_filler {
      type: "gaussian"
      std: 0.01
    }
    bias_filler {
      type: "constant"
      value: 0
    }
  }
}
layer {
  name: "accuracy"
  type: "Accuracy"
  bottom: "fc8_neutrino"
  bottom: "label"
  top: "accuracy"
  include {
    phase: TRAIN
  }
}
layer {
  name: "loss"
  type: "SoftmaxWithLoss"
  bottom: "fc8_neutrino"
  bottom: "label"
  top: "loss"
}
I0830 11:19:08.878301 24139 layer_factory.hpp:77] Creating layer data
I0830 11:19:08.879225 24139 net.cpp:91] Creating Layer data
I0830 11:19:08.879251 24139 net.cpp:399] data -> data
I0830 11:19:08.879307 24139 net.cpp:399] data -> label
I0830 11:19:08.879354 24139 data_transformer.cpp:25] Loading mean file from: /home/jessi12/CNN_local/caffe/data/mupi_mcc7/imagenet_mean.binaryproto
I0830 11:19:08.879618 24140 db_lmdb.cpp:35] Opened lmdb /home/jessi12/CNN_local/caffe/examples/imagenet/mupi_mcc7_train_lmdb
I0830 11:19:08.880540 24139 data_layer.cpp:41] output data size: 100,1,224,224
I0830 11:19:08.910537 24139 net.cpp:141] Setting up data
I0830 11:19:08.910567 24139 net.cpp:148] Top shape: 100 1 224 224 (5017600)
I0830 11:19:08.910583 24139 net.cpp:148] Top shape: 100 (100)
I0830 11:19:08.910594 24139 net.cpp:156] Memory required for data: 20070800
I0830 11:19:08.910614 24139 layer_factory.hpp:77] Creating layer label_data_1_split
I0830 11:19:08.910631 24139 net.cpp:91] Creating Layer label_data_1_split
I0830 11:19:08.910646 24139 net.cpp:425] label_data_1_split <- label
I0830 11:19:08.910670 24139 net.cpp:399] label_data_1_split -> label_data_1_split_0
I0830 11:19:08.910692 24139 net.cpp:399] label_data_1_split -> label_data_1_split_1
I0830 11:19:08.910719 24139 net.cpp:141] Setting up label_data_1_split
I0830 11:19:08.910734 24139 net.cpp:148] Top shape: 100 (100)
I0830 11:19:08.910748 24139 net.cpp:148] Top shape: 100 (100)
I0830 11:19:08.910758 24139 net.cpp:156] Memory required for data: 20071600
I0830 11:19:08.910769 24139 layer_factory.hpp:77] Creating layer conv1
I0830 11:19:08.910794 24139 net.cpp:91] Creating Layer conv1
I0830 11:19:08.910809 24139 net.cpp:425] conv1 <- data
I0830 11:19:08.910826 24139 net.cpp:399] conv1 -> conv1
I0830 11:19:08.911103 24139 net.cpp:141] Setting up conv1
I0830 11:19:08.911124 24139 net.cpp:148] Top shape: 100 96 54 54 (27993600)
I0830 11:19:08.911137 24139 net.cpp:156] Memory required for data: 132046000
I0830 11:19:08.911175 24139 layer_factory.hpp:77] Creating layer relu1
I0830 11:19:08.911206 24139 net.cpp:91] Creating Layer relu1
I0830 11:19:08.911218 24139 net.cpp:425] relu1 <- conv1
I0830 11:19:08.911232 24139 net.cpp:386] relu1 -> conv1 (in-place)
I0830 11:19:08.911248 24139 net.cpp:141] Setting up relu1
I0830 11:19:08.911265 24139 net.cpp:148] Top shape: 100 96 54 54 (27993600)
I0830 11:19:08.911275 24139 net.cpp:156] Memory required for data: 244020400
I0830 11:19:08.911288 24139 layer_factory.hpp:77] Creating layer pool1
I0830 11:19:08.911303 24139 net.cpp:91] Creating Layer pool1
I0830 11:19:08.911334 24139 net.cpp:425] pool1 <- conv1
I0830 11:19:08.911351 24139 net.cpp:399] pool1 -> pool1
I0830 11:19:08.911384 24139 net.cpp:141] Setting up pool1
I0830 11:19:08.911402 24139 net.cpp:148] Top shape: 100 96 27 27 (6998400)
I0830 11:19:08.911413 24139 net.cpp:156] Memory required for data: 272014000
I0830 11:19:08.911424 24139 layer_factory.hpp:77] Creating layer norm1
I0830 11:19:08.911439 24139 net.cpp:91] Creating Layer norm1
I0830 11:19:08.911451 24139 net.cpp:425] norm1 <- pool1
I0830 11:19:08.911465 24139 net.cpp:399] norm1 -> norm1
I0830 11:19:08.911491 24139 net.cpp:141] Setting up norm1
I0830 11:19:08.911507 24139 net.cpp:148] Top shape: 100 96 27 27 (6998400)
I0830 11:19:08.911517 24139 net.cpp:156] Memory required for data: 300007600
I0830 11:19:08.911528 24139 layer_factory.hpp:77] Creating layer conv2_changed
I0830 11:19:08.911545 24139 net.cpp:91] Creating Layer conv2_changed
I0830 11:19:08.911556 24139 net.cpp:425] conv2_changed <- norm1
I0830 11:19:08.911571 24139 net.cpp:399] conv2_changed -> conv2_changed
I0830 11:19:08.917353 24139 net.cpp:141] Setting up conv2_changed
I0830 11:19:08.917381 24139 net.cpp:148] Top shape: 100 256 27 27 (18662400)
I0830 11:19:08.917392 24139 net.cpp:156] Memory required for data: 374657200
I0830 11:19:08.917409 24139 layer_factory.hpp:77] Creating layer relu2
I0830 11:19:08.917428 24139 net.cpp:91] Creating Layer relu2
I0830 11:19:08.917439 24139 net.cpp:425] relu2 <- conv2_changed
I0830 11:19:08.917454 24139 net.cpp:386] relu2 -> conv2_changed (in-place)
I0830 11:19:08.917470 24139 net.cpp:141] Setting up relu2
I0830 11:19:08.917484 24139 net.cpp:148] Top shape: 100 256 27 27 (18662400)
I0830 11:19:08.917495 24139 net.cpp:156] Memory required for data: 449306800
I0830 11:19:08.917505 24139 layer_factory.hpp:77] Creating layer pool2
I0830 11:19:08.917523 24139 net.cpp:91] Creating Layer pool2
I0830 11:19:08.917536 24139 net.cpp:425] pool2 <- conv2_changed
I0830 11:19:08.917551 24139 net.cpp:399] pool2 -> pool2
I0830 11:19:08.917572 24139 net.cpp:141] Setting up pool2
I0830 11:19:08.917587 24139 net.cpp:148] Top shape: 100 256 13 13 (4326400)
I0830 11:19:08.917598 24139 net.cpp:156] Memory required for data: 466612400
I0830 11:19:08.917608 24139 layer_factory.hpp:77] Creating layer norm2
I0830 11:19:08.917623 24139 net.cpp:91] Creating Layer norm2
I0830 11:19:08.917636 24139 net.cpp:425] norm2 <- pool2
I0830 11:19:08.917652 24139 net.cpp:399] norm2 -> norm2
I0830 11:19:08.917670 24139 net.cpp:141] Setting up norm2
I0830 11:19:08.917683 24139 net.cpp:148] Top shape: 100 256 13 13 (4326400)
I0830 11:19:08.917695 24139 net.cpp:156] Memory required for data: 483918000
I0830 11:19:08.917706 24139 layer_factory.hpp:77] Creating layer conv3_changed
I0830 11:19:08.917724 24139 net.cpp:91] Creating Layer conv3_changed
I0830 11:19:08.917735 24139 net.cpp:425] conv3_changed <- norm2
I0830 11:19:08.917754 24139 net.cpp:399] conv3_changed -> conv3_changed
I0830 11:19:08.935328 24139 net.cpp:141] Setting up conv3_changed
I0830 11:19:08.935397 24139 net.cpp:148] Top shape: 100 384 13 13 (6489600)
I0830 11:19:08.935410 24139 net.cpp:156] Memory required for data: 509876400
I0830 11:19:08.935433 24139 layer_factory.hpp:77] Creating layer relu3
I0830 11:19:08.935454 24139 net.cpp:91] Creating Layer relu3
I0830 11:19:08.935467 24139 net.cpp:425] relu3 <- conv3_changed
I0830 11:19:08.935484 24139 net.cpp:386] relu3 -> conv3_changed (in-place)
I0830 11:19:08.935519 24139 net.cpp:141] Setting up relu3
I0830 11:19:08.935550 24139 net.cpp:148] Top shape: 100 384 13 13 (6489600)
I0830 11:19:08.935561 24139 net.cpp:156] Memory required for data: 535834800
I0830 11:19:08.935572 24139 layer_factory.hpp:77] Creating layer conv4
I0830 11:19:08.935593 24139 net.cpp:91] Creating Layer conv4
I0830 11:19:08.935606 24139 net.cpp:425] conv4 <- conv3_changed
I0830 11:19:08.935621 24139 net.cpp:399] conv4 -> conv4
I0830 11:19:08.947345 24139 net.cpp:141] Setting up conv4
I0830 11:19:08.947374 24139 net.cpp:148] Top shape: 100 384 13 13 (6489600)
I0830 11:19:08.947386 24139 net.cpp:156] Memory required for data: 561793200
I0830 11:19:08.947402 24139 layer_factory.hpp:77] Creating layer relu4
I0830 11:19:08.947418 24139 net.cpp:91] Creating Layer relu4
I0830 11:19:08.947429 24139 net.cpp:425] relu4 <- conv4
I0830 11:19:08.947444 24139 net.cpp:386] relu4 -> conv4 (in-place)
I0830 11:19:08.947461 24139 net.cpp:141] Setting up relu4
I0830 11:19:08.947475 24139 net.cpp:148] Top shape: 100 384 13 13 (6489600)
I0830 11:19:08.947485 24139 net.cpp:156] Memory required for data: 587751600
I0830 11:19:08.947496 24139 layer_factory.hpp:77] Creating layer conv5
I0830 11:19:08.947515 24139 net.cpp:91] Creating Layer conv5
I0830 11:19:08.947527 24139 net.cpp:425] conv5 <- conv4
I0830 11:19:08.947556 24139 net.cpp:399] conv5 -> conv5
I0830 11:19:08.955991 24139 net.cpp:141] Setting up conv5
I0830 11:19:08.956018 24139 net.cpp:148] Top shape: 100 256 13 13 (4326400)
I0830 11:19:08.956030 24139 net.cpp:156] Memory required for data: 605057200
I0830 11:19:08.956053 24139 layer_factory.hpp:77] Creating layer relu5
I0830 11:19:08.956069 24139 net.cpp:91] Creating Layer relu5
I0830 11:19:08.956080 24139 net.cpp:425] relu5 <- conv5
I0830 11:19:08.956099 24139 net.cpp:386] relu5 -> conv5 (in-place)
I0830 11:19:08.956116 24139 net.cpp:141] Setting up relu5
I0830 11:19:08.956130 24139 net.cpp:148] Top shape: 100 256 13 13 (4326400)
I0830 11:19:08.956141 24139 net.cpp:156] Memory required for data: 622362800
I0830 11:19:08.956152 24139 layer_factory.hpp:77] Creating layer pool5
I0830 11:19:08.956171 24139 net.cpp:91] Creating Layer pool5
I0830 11:19:08.956183 24139 net.cpp:425] pool5 <- conv5
I0830 11:19:08.956198 24139 net.cpp:399] pool5 -> pool5
I0830 11:19:08.956220 24139 net.cpp:141] Setting up pool5
I0830 11:19:08.956235 24139 net.cpp:148] Top shape: 100 256 6 6 (921600)
I0830 11:19:08.956245 24139 net.cpp:156] Memory required for data: 626049200
I0830 11:19:08.956256 24139 layer_factory.hpp:77] Creating layer fc6
I0830 11:19:08.956277 24139 net.cpp:91] Creating Layer fc6
I0830 11:19:08.956290 24139 net.cpp:425] fc6 <- pool5
I0830 11:19:08.956310 24139 net.cpp:399] fc6 -> fc6
I0830 11:19:09.493468 24139 net.cpp:141] Setting up fc6
I0830 11:19:09.493553 24139 net.cpp:148] Top shape: 100 4096 (409600)
I0830 11:19:09.493563 24139 net.cpp:156] Memory required for data: 627687600
I0830 11:19:09.493582 24139 layer_factory.hpp:77] Creating layer relu6
I0830 11:19:09.493600 24139 net.cpp:91] Creating Layer relu6
I0830 11:19:09.493612 24139 net.cpp:425] relu6 <- fc6
I0830 11:19:09.493630 24139 net.cpp:386] relu6 -> fc6 (in-place)
I0830 11:19:09.493650 24139 net.cpp:141] Setting up relu6
I0830 11:19:09.493662 24139 net.cpp:148] Top shape: 100 4096 (409600)
I0830 11:19:09.493671 24139 net.cpp:156] Memory required for data: 629326000
I0830 11:19:09.493680 24139 layer_factory.hpp:77] Creating layer drop6
I0830 11:19:09.493695 24139 net.cpp:91] Creating Layer drop6
I0830 11:19:09.493705 24139 net.cpp:425] drop6 <- fc6
I0830 11:19:09.493716 24139 net.cpp:386] drop6 -> fc6 (in-place)
I0830 11:19:09.493743 24139 net.cpp:141] Setting up drop6
I0830 11:19:09.493757 24139 net.cpp:148] Top shape: 100 4096 (409600)
I0830 11:19:09.493765 24139 net.cpp:156] Memory required for data: 630964400
I0830 11:19:09.493774 24139 layer_factory.hpp:77] Creating layer fc7
I0830 11:19:09.493790 24139 net.cpp:91] Creating Layer fc7
I0830 11:19:09.493800 24139 net.cpp:425] fc7 <- fc6
I0830 11:19:09.493816 24139 net.cpp:399] fc7 -> fc7
I0830 11:19:09.729287 24139 net.cpp:141] Setting up fc7
I0830 11:19:09.729403 24139 net.cpp:148] Top shape: 100 4096 (409600)
I0830 11:19:09.729414 24139 net.cpp:156] Memory required for data: 632602800
I0830 11:19:09.729431 24139 layer_factory.hpp:77] Creating layer relu7
I0830 11:19:09.729449 24139 net.cpp:91] Creating Layer relu7
I0830 11:19:09.729460 24139 net.cpp:425] relu7 <- fc7
I0830 11:19:09.729475 24139 net.cpp:386] relu7 -> fc7 (in-place)
I0830 11:19:09.729495 24139 net.cpp:141] Setting up relu7
I0830 11:19:09.729506 24139 net.cpp:148] Top shape: 100 4096 (409600)
I0830 11:19:09.729514 24139 net.cpp:156] Memory required for data: 634241200
I0830 11:19:09.729523 24139 layer_factory.hpp:77] Creating layer drop7
I0830 11:19:09.729537 24139 net.cpp:91] Creating Layer drop7
I0830 11:19:09.729547 24139 net.cpp:425] drop7 <- fc7
I0830 11:19:09.729560 24139 net.cpp:386] drop7 -> fc7 (in-place)
I0830 11:19:09.729576 24139 net.cpp:141] Setting up drop7
I0830 11:19:09.729588 24139 net.cpp:148] Top shape: 100 4096 (409600)
I0830 11:19:09.729596 24139 net.cpp:156] Memory required for data: 635879600
I0830 11:19:09.729605 24139 layer_factory.hpp:77] Creating layer fc8_neutrino
I0830 11:19:09.729620 24139 net.cpp:91] Creating Layer fc8_neutrino
I0830 11:19:09.729630 24139 net.cpp:425] fc8_neutrino <- fc7
I0830 11:19:09.729642 24139 net.cpp:399] fc8_neutrino -> fc8_neutrino
I0830 11:19:09.729786 24139 net.cpp:141] Setting up fc8_neutrino
I0830 11:19:09.729802 24139 net.cpp:148] Top shape: 100 2 (200)
I0830 11:19:09.729811 24139 net.cpp:156] Memory required for data: 635880400
I0830 11:19:09.729825 24139 layer_factory.hpp:77] Creating layer fc8_neutrino_fc8_neutrino_0_split
I0830 11:19:09.729840 24139 net.cpp:91] Creating Layer fc8_neutrino_fc8_neutrino_0_split
I0830 11:19:09.729849 24139 net.cpp:425] fc8_neutrino_fc8_neutrino_0_split <- fc8_neutrino
I0830 11:19:09.729861 24139 net.cpp:399] fc8_neutrino_fc8_neutrino_0_split -> fc8_neutrino_fc8_neutrino_0_split_0
I0830 11:19:09.729876 24139 net.cpp:399] fc8_neutrino_fc8_neutrino_0_split -> fc8_neutrino_fc8_neutrino_0_split_1
I0830 11:19:09.729890 24139 net.cpp:141] Setting up fc8_neutrino_fc8_neutrino_0_split
I0830 11:19:09.729902 24139 net.cpp:148] Top shape: 100 2 (200)
I0830 11:19:09.729912 24139 net.cpp:148] Top shape: 100 2 (200)
I0830 11:19:09.729920 24139 net.cpp:156] Memory required for data: 635882000
I0830 11:19:09.729929 24139 layer_factory.hpp:77] Creating layer accuracy
I0830 11:19:09.729954 24139 net.cpp:91] Creating Layer accuracy
I0830 11:19:09.729965 24139 net.cpp:425] accuracy <- fc8_neutrino_fc8_neutrino_0_split_0
I0830 11:19:09.729976 24139 net.cpp:425] accuracy <- label_data_1_split_0
I0830 11:19:09.729991 24139 net.cpp:399] accuracy -> accuracy
…
