…
I0826 15:03:19.357457 11333 net.cpp:313] The NetState phase (0) differed from the phase (1) specified by a rule in layer accuracy
I0826 15:03:19.357707 11333 net.cpp:49] Initializing net from parameters: 
name: "CaffeNet"
state {
  phase: TRAIN
}
layer {
  name: "data"
  type: "Data"
  top: "data"
  top: "label"
  include {
    phase: TRAIN
  }
  transform_param {
    mirror: true
    crop_size: 224
    mean_file: "/home/jessi12/CNN_local/caffe/data/mupi_mcc7/imagenet_mean.binaryproto"
  }
  data_param {
    source: "/home/jessi12/CNN_local/caffe/examples/imagenet/mupi_mcc7_train_lmdb"
    batch_size: 100
    backend: LMDB
  }
}
layer {
  name: "conv1"
  type: "Convolution"
  bottom: "data"
  top: "conv1"
  param {
    lr_mult: 1
    decay_mult: 1
  }
  param {
    lr_mult: 2
    decay_mult: 0
  }
  convolution_param {
    num_output: 96
    kernel_size: 11
    stride: 4
    weight_filler {
      type: "gaussian"
      std: 0.01
    }
    bias_filler {
      type: "constant"
      value: 0
    }
  }
}
layer {
  name: "relu1"
  type: "ReLU"
  bottom: "conv1"
  top: "conv1"
}
layer {
  name: "pool1"
  type: "Pooling"
  bottom: "conv1"
  top: "pool1"
  pooling_param {
    pool: MAX
    kernel_size: 3
    stride: 2
  }
}
layer {
  name: "norm1"
  type: "LRN"
  bottom: "pool1"
  top: "norm1"
  lrn_param {
    local_size: 5
    alpha: 0.0001
    beta: 0.75
  }
}
layer {
  name: "conv2_changed"
  type: "Convolution"
  bottom: "norm1"
  top: "conv2_changed"
  param {
    lr_mult: 1
    decay_mult: 1
  }
  param {
    lr_mult: 2
    decay_mult: 0
  }
  convolution_param {
    num_output: 256
    pad: 2
    kernel_size: 5
    group: 2
    weight_filler {
      type: "gaussian"
      std: 0.01
    }
    bias_filler {
      type: "constant"
      value: 1
    }
  }
}
layer {
  name: "relu2"
  type: "ReLU"
  bottom: "conv2_changed"
  top: "conv2_changed"
}
layer {
  name: "pool2"
  type: "Pooling"
  bottom: "conv2_changed"
  top: "pool2"
  pooling_param {
    pool: MAX
    kernel_size: 3
    stride: 2
  }
}
layer {
  name: "norm2"
  type: "LRN"
  bottom: "pool2"
  top: "norm2"
  lrn_param {
    local_size: 5
    alpha: 0.0001
    beta: 0.75
  }
}
layer {
  name: "conv3_changed"
  type: "Convolution"
  bottom: "norm2"
  top: "conv3_changed"
  param {
    lr_mult: 1
    decay_mult: 1
  }
  param {
    lr_mult: 2
    decay_mult: 0
  }
  convolution_param {
    num_output: 384
    pad: 1
    kernel_size: 3
    weight_filler {
      type: "gaussian"
      std: 0.01
    }
    bias_filler {
      type: "constant"
      value: 0
    }
  }
}
layer {
  name: "relu3"
  type: "ReLU"
  bottom: "conv3_changed"
  top: "conv3_changed"
}
layer {
  name: "conv4"
  type: "Convolution"
  bottom: "conv3_changed"
  top: "conv4"
  param {
    lr_mult: 1
    decay_mult: 1
  }
  param {
    lr_mult: 2
    decay_mult: 0
  }
  convolution_param {
    num_output: 384
    pad: 1
    kernel_size: 3
    group: 2
    weight_filler {
      type: "gaussian"
      std: 0.01
    }
    bias_filler {
      type: "constant"
      value: 1
    }
  }
}
layer {
  name: "relu4"
  type: "ReLU"
  bottom: "conv4"
  top: "conv4"
}
layer {
  name: "conv5"
  type: "Convolution"
  bottom: "conv4"
  top: "conv5"
  param {
    lr_mult: 1
    decay_mult: 1
  }
  param {
    lr_mult: 2
    decay_mult: 0
  }
  convolution_param {
    num_output: 256
    pad: 1
    kernel_size: 3
    group: 2
    weight_filler {
      type: "gaussian"
      std: 0.01
    }
    bias_filler {
      type: "constant"
      value: 1
    }
  }
}
layer {
  name: "relu5"
  type: "ReLU"
  bottom: "conv5"
  top: "conv5"
}
layer {
  name: "pool5"
  type: "Pooling"
  bottom: "conv5"
  top: "pool5"
  pooling_param {
    pool: MAX
    kernel_size: 3
    stride: 2
  }
}
layer {
  name: "fc6"
  type: "InnerProduct"
  bottom: "pool5"
  top: "fc6"
  param {
    lr_mult: 1
    decay_mult: 1
  }
  param {
    lr_mult: 2
    decay_mult: 0
  }
  inner_product_param {
    num_output: 4096
    weight_filler {
      type: "gaussian"
      std: 0.005
    }
    bias_filler {
      type: "constant"
      value: 1
    }
  }
}
layer {
  name: "relu6"
  type: "ReLU"
  bottom: "fc6"
  top: "fc6"
}
layer {
  name: "drop6_changed"
  type: "Dropout"
  bottom: "fc6"
  top: "fc6"
  dropout_param {
    dropout_ratio: 0.5
  }
}
layer {
  name: "fc7"
  type: "InnerProduct"
  bottom: "fc6"
  top: "fc7"
  param {
    lr_mult: 1
    decay_mult: 1
  }
  param {
    lr_mult: 2
    decay_mult: 0
  }
  inner_product_param {
    num_output: 4096
    weight_filler {
      type: "gaussian"
      std: 0.005
    }
    bias_filler {
      type: "constant"
      value: 1
    }
  }
}
layer {
  name: "relu7"
  type: "ReLU"
  bottom: "fc7"
  top: "fc7"
}
layer {
  name: "drop7_changed"
  type: "Dropout"
  bottom: "fc7"
  top: "fc7"
  dropout_param {
    dropout_ratio: 0.5
  }
}
layer {
  name: "fc8_neutrino"
  type: "InnerProduct"
  bottom: "fc7"
  top: "fc8_neutrino"
  param {
    lr_mult: 1
    decay_mult: 1
  }
  param {
    lr_mult: 2
    decay_mult: 0
  }
  inner_product_param {
    num_output: 2
    weight_filler {
      type: "gaussian"
      std: 0.01
    }
    bias_filler {
      type: "constant"
      value: 0
    }
  }
}
layer {
  name: "accuracy"
  type: "Accuracy"
  bottom: "fc8_neutrino"
  bottom: "label"
  top: "accuracy"
  include {
    phase: TRAIN
  }
}
layer {
  name: "loss"
  type: "SoftmaxWithLoss"
  bottom: "fc8_neutrino"
  bottom: "label"
  top: "loss"
}
I0826 15:03:19.357926 11333 layer_factory.hpp:77] Creating layer data
I0826 15:03:19.358815 11333 net.cpp:91] Creating Layer data
I0826 15:03:19.358842 11333 net.cpp:399] data -> data
I0826 15:03:19.358906 11333 net.cpp:399] data -> label
I0826 15:03:19.358942 11333 data_transformer.cpp:25] Loading mean file from: /home/jessi12/CNN_local/caffe/data/mupi_mcc7/imagenet_mean.binaryproto
I0826 15:03:19.359228 11335 db_lmdb.cpp:35] Opened lmdb /home/jessi12/CNN_local/caffe/examples/imagenet/mupi_mcc7_train_lmdb
I0826 15:03:19.360111 11333 data_layer.cpp:41] output data size: 100,1,224,224
I0826 15:03:19.390254 11333 net.cpp:141] Setting up data
I0826 15:03:19.390286 11333 net.cpp:148] Top shape: 100 1 224 224 (5017600)
I0826 15:03:19.390302 11333 net.cpp:148] Top shape: 100 (100)
I0826 15:03:19.390313 11333 net.cpp:156] Memory required for data: 20070800
I0826 15:03:19.390334 11333 layer_factory.hpp:77] Creating layer label_data_1_split
I0826 15:03:19.390352 11333 net.cpp:91] Creating Layer label_data_1_split
I0826 15:03:19.390365 11333 net.cpp:425] label_data_1_split <- label
I0826 15:03:19.390388 11333 net.cpp:399] label_data_1_split -> label_data_1_split_0
I0826 15:03:19.390413 11333 net.cpp:399] label_data_1_split -> label_data_1_split_1
I0826 15:03:19.390435 11333 net.cpp:141] Setting up label_data_1_split
I0826 15:03:19.390450 11333 net.cpp:148] Top shape: 100 (100)
I0826 15:03:19.390463 11333 net.cpp:148] Top shape: 100 (100)
I0826 15:03:19.390473 11333 net.cpp:156] Memory required for data: 20071600
I0826 15:03:19.390483 11333 layer_factory.hpp:77] Creating layer conv1
I0826 15:03:19.390509 11333 net.cpp:91] Creating Layer conv1
I0826 15:03:19.390525 11333 net.cpp:425] conv1 <- data
I0826 15:03:19.390540 11333 net.cpp:399] conv1 -> conv1
I0826 15:03:19.390831 11333 net.cpp:141] Setting up conv1
I0826 15:03:19.390854 11333 net.cpp:148] Top shape: 100 96 54 54 (27993600)
I0826 15:03:19.390867 11333 net.cpp:156] Memory required for data: 132046000
I0826 15:03:19.390914 11333 layer_factory.hpp:77] Creating layer relu1
I0826 15:03:19.390930 11333 net.cpp:91] Creating Layer relu1
I0826 15:03:19.390941 11333 net.cpp:425] relu1 <- conv1
I0826 15:03:19.390955 11333 net.cpp:386] relu1 -> conv1 (in-place)
I0826 15:03:19.390974 11333 net.cpp:141] Setting up relu1
I0826 15:03:19.390988 11333 net.cpp:148] Top shape: 100 96 54 54 (27993600)
I0826 15:03:19.390998 11333 net.cpp:156] Memory required for data: 244020400
I0826 15:03:19.391008 11333 layer_factory.hpp:77] Creating layer pool1
I0826 15:03:19.391023 11333 net.cpp:91] Creating Layer pool1
I0826 15:03:19.391034 11333 net.cpp:425] pool1 <- conv1
I0826 15:03:19.391047 11333 net.cpp:399] pool1 -> pool1
I0826 15:03:19.391079 11333 net.cpp:141] Setting up pool1
I0826 15:03:19.391096 11333 net.cpp:148] Top shape: 100 96 27 27 (6998400)
I0826 15:03:19.391108 11333 net.cpp:156] Memory required for data: 272014000
I0826 15:03:19.391118 11333 layer_factory.hpp:77] Creating layer norm1
I0826 15:03:19.391132 11333 net.cpp:91] Creating Layer norm1
I0826 15:03:19.391144 11333 net.cpp:425] norm1 <- pool1
I0826 15:03:19.391156 11333 net.cpp:399] norm1 -> norm1
I0826 15:03:19.391182 11333 net.cpp:141] Setting up norm1
I0826 15:03:19.391208 11333 net.cpp:148] Top shape: 100 96 27 27 (6998400)
I0826 15:03:19.391219 11333 net.cpp:156] Memory required for data: 300007600
I0826 15:03:19.391229 11333 layer_factory.hpp:77] Creating layer conv2_changed
I0826 15:03:19.391245 11333 net.cpp:91] Creating Layer conv2_changed
I0826 15:03:19.391258 11333 net.cpp:425] conv2_changed <- norm1
I0826 15:03:19.391271 11333 net.cpp:399] conv2_changed -> conv2_changed
I0826 15:03:19.397099 11333 net.cpp:141] Setting up conv2_changed
I0826 15:03:19.397125 11333 net.cpp:148] Top shape: 100 256 27 27 (18662400)
I0826 15:03:19.397135 11333 net.cpp:156] Memory required for data: 374657200
I0826 15:03:19.397157 11333 layer_factory.hpp:77] Creating layer relu2
I0826 15:03:19.397172 11333 net.cpp:91] Creating Layer relu2
I0826 15:03:19.397183 11333 net.cpp:425] relu2 <- conv2_changed
I0826 15:03:19.397204 11333 net.cpp:386] relu2 -> conv2_changed (in-place)
I0826 15:03:19.397220 11333 net.cpp:141] Setting up relu2
I0826 15:03:19.397234 11333 net.cpp:148] Top shape: 100 256 27 27 (18662400)
I0826 15:03:19.397244 11333 net.cpp:156] Memory required for data: 449306800
I0826 15:03:19.397258 11333 layer_factory.hpp:77] Creating layer pool2
I0826 15:03:19.397274 11333 net.cpp:91] Creating Layer pool2
I0826 15:03:19.397286 11333 net.cpp:425] pool2 <- conv2_changed
I0826 15:03:19.397300 11333 net.cpp:399] pool2 -> pool2
I0826 15:03:19.397320 11333 net.cpp:141] Setting up pool2
I0826 15:03:19.397336 11333 net.cpp:148] Top shape: 100 256 13 13 (4326400)
I0826 15:03:19.397346 11333 net.cpp:156] Memory required for data: 466612400
I0826 15:03:19.397356 11333 layer_factory.hpp:77] Creating layer norm2
I0826 15:03:19.397370 11333 net.cpp:91] Creating Layer norm2
I0826 15:03:19.397384 11333 net.cpp:425] norm2 <- pool2
I0826 15:03:19.397398 11333 net.cpp:399] norm2 -> norm2
I0826 15:03:19.397416 11333 net.cpp:141] Setting up norm2
I0826 15:03:19.397430 11333 net.cpp:148] Top shape: 100 256 13 13 (4326400)
I0826 15:03:19.397440 11333 net.cpp:156] Memory required for data: 483918000
I0826 15:03:19.397450 11333 layer_factory.hpp:77] Creating layer conv3_changed
I0826 15:03:19.397467 11333 net.cpp:91] Creating Layer conv3_changed
I0826 15:03:19.397478 11333 net.cpp:425] conv3_changed <- norm2
I0826 15:03:19.397496 11333 net.cpp:399] conv3_changed -> conv3_changed
I0826 15:03:19.414995 11333 net.cpp:141] Setting up conv3_changed
I0826 15:03:19.415055 11333 net.cpp:148] Top shape: 100 384 13 13 (6489600)
I0826 15:03:19.415066 11333 net.cpp:156] Memory required for data: 509876400
I0826 15:03:19.415091 11333 layer_factory.hpp:77] Creating layer relu3
I0826 15:03:19.415112 11333 net.cpp:91] Creating Layer relu3
I0826 15:03:19.415123 11333 net.cpp:425] relu3 <- conv3_changed
I0826 15:03:19.415141 11333 net.cpp:386] relu3 -> conv3_changed (in-place)
I0826 15:03:19.415176 11333 net.cpp:141] Setting up relu3
I0826 15:03:19.415215 11333 net.cpp:148] Top shape: 100 384 13 13 (6489600)
I0826 15:03:19.415226 11333 net.cpp:156] Memory required for data: 535834800
I0826 15:03:19.415237 11333 layer_factory.hpp:77] Creating layer conv4
I0826 15:03:19.415258 11333 net.cpp:91] Creating Layer conv4
I0826 15:03:19.415269 11333 net.cpp:425] conv4 <- conv3_changed
I0826 15:03:19.415285 11333 net.cpp:399] conv4 -> conv4
I0826 15:03:19.427057 11333 net.cpp:141] Setting up conv4
I0826 15:03:19.427099 11333 net.cpp:148] Top shape: 100 384 13 13 (6489600)
I0826 15:03:19.427109 11333 net.cpp:156] Memory required for data: 561793200
I0826 15:03:19.427125 11333 layer_factory.hpp:77] Creating layer relu4
I0826 15:03:19.427141 11333 net.cpp:91] Creating Layer relu4
I0826 15:03:19.427152 11333 net.cpp:425] relu4 <- conv4
I0826 15:03:19.427166 11333 net.cpp:386] relu4 -> conv4 (in-place)
I0826 15:03:19.427183 11333 net.cpp:141] Setting up relu4
I0826 15:03:19.427204 11333 net.cpp:148] Top shape: 100 384 13 13 (6489600)
I0826 15:03:19.427215 11333 net.cpp:156] Memory required for data: 587751600
I0826 15:03:19.427225 11333 layer_factory.hpp:77] Creating layer conv5
I0826 15:03:19.427243 11333 net.cpp:91] Creating Layer conv5
I0826 15:03:19.427255 11333 net.cpp:425] conv5 <- conv4
I0826 15:03:19.427275 11333 net.cpp:399] conv5 -> conv5
I0826 15:03:19.435722 11333 net.cpp:141] Setting up conv5
I0826 15:03:19.435750 11333 net.cpp:148] Top shape: 100 256 13 13 (4326400)
I0826 15:03:19.435760 11333 net.cpp:156] Memory required for data: 605057200
I0826 15:03:19.435783 11333 layer_factory.hpp:77] Creating layer relu5
I0826 15:03:19.435798 11333 net.cpp:91] Creating Layer relu5
I0826 15:03:19.435809 11333 net.cpp:425] relu5 <- conv5
I0826 15:03:19.435827 11333 net.cpp:386] relu5 -> conv5 (in-place)
I0826 15:03:19.435843 11333 net.cpp:141] Setting up relu5
I0826 15:03:19.435858 11333 net.cpp:148] Top shape: 100 256 13 13 (4326400)
I0826 15:03:19.435868 11333 net.cpp:156] Memory required for data: 622362800
I0826 15:03:19.435878 11333 layer_factory.hpp:77] Creating layer pool5
I0826 15:03:19.435899 11333 net.cpp:91] Creating Layer pool5
I0826 15:03:19.435909 11333 net.cpp:425] pool5 <- conv5
I0826 15:03:19.435923 11333 net.cpp:399] pool5 -> pool5
I0826 15:03:19.435947 11333 net.cpp:141] Setting up pool5
I0826 15:03:19.435961 11333 net.cpp:148] Top shape: 100 256 6 6 (921600)
I0826 15:03:19.435971 11333 net.cpp:156] Memory required for data: 626049200
I0826 15:03:19.435982 11333 layer_factory.hpp:77] Creating layer fc6
I0826 15:03:19.436005 11333 net.cpp:91] Creating Layer fc6
I0826 15:03:19.436017 11333 net.cpp:425] fc6 <- pool5
I0826 15:03:19.436036 11333 net.cpp:399] fc6 -> fc6
I0826 15:03:19.985815 11333 net.cpp:141] Setting up fc6
I0826 15:03:19.985887 11333 net.cpp:148] Top shape: 100 4096 (409600)
I0826 15:03:19.985896 11333 net.cpp:156] Memory required for data: 627687600
I0826 15:03:19.985915 11333 layer_factory.hpp:77] Creating layer relu6
I0826 15:03:19.985936 11333 net.cpp:91] Creating Layer relu6
I0826 15:03:19.985949 11333 net.cpp:425] relu6 <- fc6
I0826 15:03:19.985967 11333 net.cpp:386] relu6 -> fc6 (in-place)
I0826 15:03:19.985991 11333 net.cpp:141] Setting up relu6
I0826 15:03:19.986001 11333 net.cpp:148] Top shape: 100 4096 (409600)
I0826 15:03:19.986011 11333 net.cpp:156] Memory required for data: 629326000
I0826 15:03:19.986019 11333 layer_factory.hpp:77] Creating layer drop6_changed
I0826 15:03:19.986033 11333 net.cpp:91] Creating Layer drop6_changed
I0826 15:03:19.986042 11333 net.cpp:425] drop6_changed <- fc6
I0826 15:03:19.986054 11333 net.cpp:386] drop6_changed -> fc6 (in-place)
I0826 15:03:19.986086 11333 net.cpp:141] Setting up drop6_changed
I0826 15:03:19.986099 11333 net.cpp:148] Top shape: 100 4096 (409600)
I0826 15:03:19.986106 11333 net.cpp:156] Memory required for data: 630964400
I0826 15:03:19.986115 11333 layer_factory.hpp:77] Creating layer fc7
I0826 15:03:19.986131 11333 net.cpp:91] Creating Layer fc7
I0826 15:03:19.986140 11333 net.cpp:425] fc7 <- fc6
I0826 15:03:19.986166 11333 net.cpp:399] fc7 -> fc7
I0826 15:03:20.236686 11333 net.cpp:141] Setting up fc7
I0826 15:03:20.236753 11333 net.cpp:148] Top shape: 100 4096 (409600)
I0826 15:03:20.236763 11333 net.cpp:156] Memory required for data: 632602800
I0826 15:03:20.236783 11333 layer_factory.hpp:77] Creating layer relu7
I0826 15:03:20.236802 11333 net.cpp:91] Creating Layer relu7
I0826 15:03:20.236814 11333 net.cpp:425] relu7 <- fc7
I0826 15:03:20.236829 11333 net.cpp:386] relu7 -> fc7 (in-place)
I0826 15:03:20.236850 11333 net.cpp:141] Setting up relu7
I0826 15:03:20.236861 11333 net.cpp:148] Top shape: 100 4096 (409600)
I0826 15:03:20.236871 11333 net.cpp:156] Memory required for data: 634241200
I0826 15:03:20.236881 11333 layer_factory.hpp:77] Creating layer drop7_changed
I0826 15:03:20.236894 11333 net.cpp:91] Creating Layer drop7_changed
I0826 15:03:20.236903 11333 net.cpp:425] drop7_changed <- fc7
I0826 15:03:20.236917 11333 net.cpp:386] drop7_changed -> fc7 (in-place)
I0826 15:03:20.236933 11333 net.cpp:141] Setting up drop7_changed
I0826 15:03:20.236945 11333 net.cpp:148] Top shape: 100 4096 (409600)
I0826 15:03:20.236953 11333 net.cpp:156] Memory required for data: 635879600
I0826 15:03:20.236961 11333 layer_factory.hpp:77] Creating layer fc8_neutrino
I0826 15:03:20.236979 11333 net.cpp:91] Creating Layer fc8_neutrino
I0826 15:03:20.236987 11333 net.cpp:425] fc8_neutrino <- fc7
I0826 15:03:20.236999 11333 net.cpp:399] fc8_neutrino -> fc8_neutrino
I0826 15:03:20.237144 11333 net.cpp:141] Setting up fc8_neutrino
I0826 15:03:20.237159 11333 net.cpp:148] Top shape: 100 2 (200)
I0826 15:03:20.237169 11333 net.cpp:156] Memory required for data: 635880400
I0826 15:03:20.237180 11333 layer_factory.hpp:77] Creating layer fc8_neutrino_fc8_neutrino_0_split
I0826 15:03:20.237203 11333 net.cpp:91] Creating Layer fc8_neutrino_fc8_neutrino_0_split
I0826 15:03:20.237213 11333 net.cpp:425] fc8_neutrino_fc8_neutrino_0_split <- fc8_neutrino
I0826 15:03:20.237224 11333 net.cpp:399] fc8_neutrino_fc8_neutrino_0_split -> fc8_neutrino_fc8_neutrino_0_split_0
I0826 15:03:20.237238 11333 net.cpp:399] fc8_neutrino_fc8_neutrino_0_split -> fc8_neutrino_fc8_neutrino_0_split_1
I0826 15:03:20.237253 11333 net.cpp:141] Setting up fc8_neutrino_fc8_neutrino_0_split
I0826 15:03:20.237264 11333 net.cpp:148] Top shape: 100 2 (200)
I0826 15:03:20.237274 11333 net.cpp:148] Top shape: 100 2 (200)
I0826 15:03:20.237282 11333 net.cpp:156] Memory required for data: 635882000
I0826 15:03:20.237292 11333 layer_factory.hpp:77] Creating layer accuracy
I0826 15:03:20.237316 11333 net.cpp:91] Creating Layer accuracy
I0826 15:03:20.237326 11333 net.cpp:425] accuracy <- fc8_neutrino_fc8_neutrino_0_split_0
I0826 15:03:20.237336 11333 net.cpp:425] accuracy <- label_data_1_split_0
I0826 15:03:20.237351 11333 net.cpp:399] accuracy -> accuracy
…
