…
I0829 17:10:05.465324 15180 net.cpp:313] The NetState phase (0) differed from the phase (1) specified by a rule in layer accuracy
I0829 17:10:05.465575 15180 net.cpp:49] Initializing net from parameters: 
name: "CaffeNet"
state {
  phase: TRAIN
}
layer {
  name: "data"
  type: "Data"
  top: "data"
  top: "label"
  include {
    phase: TRAIN
  }
  transform_param {
    mirror: true
    crop_size: 224
    mean_file: "/home/jessi12/CNN_local/caffe/data/mupi_mcc7/imagenet_mean.binaryproto"
  }
  data_param {
    source: "/home/jessi12/CNN_local/caffe/examples/imagenet/mupi_mcc7_train_lmdb"
    batch_size: 100
    backend: LMDB
  }
}
layer {
  name: "conv1"
  type: "Convolution"
  bottom: "data"
  top: "conv1"
  param {
    lr_mult: 1
    decay_mult: 1
  }
  param {
    lr_mult: 2
    decay_mult: 0
  }
  convolution_param {
    num_output: 96
    kernel_size: 11
    stride: 4
    weight_filler {
      type: "gaussian"
      std: 0.01
    }
    bias_filler {
      type: "constant"
      value: 0
    }
  }
}
layer {
  name: "relu1"
  type: "ReLU"
  bottom: "conv1"
  top: "conv1"
}
layer {
  name: "pool1"
  type: "Pooling"
  bottom: "conv1"
  top: "pool1"
  pooling_param {
    pool: MAX
    kernel_size: 3
    stride: 2
  }
}
layer {
  name: "norm1"
  type: "LRN"
  bottom: "pool1"
  top: "norm1"
  lrn_param {
    local_size: 5
    alpha: 0.0001
    beta: 0.75
  }
}
layer {
  name: "conv2"
  type: "Convolution"
  bottom: "norm1"
  top: "conv2"
  param {
    lr_mult: 1
    decay_mult: 1
  }
  param {
    lr_mult: 2
    decay_mult: 0
  }
  convolution_param {
    num_output: 256
    pad: 2
    kernel_size: 5
    group: 2
    weight_filler {
      type: "gaussian"
      std: 0.01
    }
    bias_filler {
      type: "constant"
      value: 1
    }
  }
}
layer {
  name: "relu2"
  type: "ReLU"
  bottom: "conv2"
  top: "conv2"
}
layer {
  name: "pool2"
  type: "Pooling"
  bottom: "conv2"
  top: "pool2"
  pooling_param {
    pool: MAX
    kernel_size: 3
    stride: 2
  }
}
layer {
  name: "norm2"
  type: "LRN"
  bottom: "pool2"
  top: "norm2"
  lrn_param {
    local_size: 5
    alpha: 0.0001
    beta: 0.75
  }
}
layer {
  name: "conv3"
  type: "Convolution"
  bottom: "norm2"
  top: "conv3"
  param {
    lr_mult: 1
    decay_mult: 1
  }
  param {
    lr_mult: 2
    decay_mult: 0
  }
  convolution_param {
    num_output: 384
    pad: 1
    kernel_size: 3
    weight_filler {
      type: "gaussian"
      std: 0.01
    }
    bias_filler {
      type: "constant"
      value: 0
    }
  }
}
layer {
  name: "relu3"
  type: "ReLU"
  bottom: "conv3"
  top: "conv3"
}
layer {
  name: "conv4"
  type: "Convolution"
  bottom: "conv3"
  top: "conv4"
  param {
    lr_mult: 1
    decay_mult: 1
  }
  param {
    lr_mult: 2
    decay_mult: 0
  }
  convolution_param {
    num_output: 384
    pad: 1
    kernel_size: 3
    group: 2
    weight_filler {
      type: "gaussian"
      std: 0.01
    }
    bias_filler {
      type: "constant"
      value: 1
    }
  }
}
layer {
  name: "relu4"
  type: "ReLU"
  bottom: "conv4"
  top: "conv4"
}
layer {
  name: "conv5"
  type: "Convolution"
  bottom: "conv4"
  top: "conv5"
  param {
    lr_mult: 1
    decay_mult: 1
  }
  param {
    lr_mult: 2
    decay_mult: 0
  }
  convolution_param {
    num_output: 256
    pad: 1
    kernel_size: 3
    group: 2
    weight_filler {
      type: "gaussian"
      std: 0.01
    }
    bias_filler {
      type: "constant"
      value: 1
    }
  }
}
layer {
  name: "relu5"
  type: "ReLU"
  bottom: "conv5"
  top: "conv5"
}
layer {
  name: "pool5"
  type: "Pooling"
  bottom: "conv5"
  top: "pool5"
  pooling_param {
    pool: MAX
    kernel_size: 3
    stride: 2
  }
}
layer {
  name: "fc6"
  type: "InnerProduct"
  bottom: "pool5"
  top: "fc6"
  param {
    lr_mult: 1
    decay_mult: 1
  }
  param {
    lr_mult: 2
    decay_mult: 0
  }
  inner_product_param {
    num_output: 4096
    weight_filler {
      type: "gaussian"
      std: 0.005
    }
    bias_filler {
      type: "constant"
      value: 1
    }
  }
}
layer {
  name: "relu6"
  type: "ReLU"
  bottom: "fc6"
  top: "fc6"
}
layer {
  name: "drop6"
  type: "Dropout"
  bottom: "fc6"
  top: "fc6"
  dropout_param {
    dropout_ratio: 0.5
  }
}
layer {
  name: "fc7"
  type: "InnerProduct"
  bottom: "fc6"
  top: "fc7"
  param {
    lr_mult: 1
    decay_mult: 1
  }
  param {
    lr_mult: 2
    decay_mult: 0
  }
  inner_product_param {
    num_output: 4096
    weight_filler {
      type: "gaussian"
      std: 0.005
    }
    bias_filler {
      type: "constant"
      value: 1
    }
  }
}
layer {
  name: "relu7"
  type: "ReLU"
  bottom: "fc7"
  top: "fc7"
}
layer {
  name: "drop7"
  type: "Dropout"
  bottom: "fc7"
  top: "fc7"
  dropout_param {
    dropout_ratio: 0.5
  }
}
layer {
  name: "fc8_neutrino"
  type: "InnerProduct"
  bottom: "fc7"
  top: "fc8_neutrino"
  param {
    lr_mult: 1
    decay_mult: 1
  }
  param {
    lr_mult: 2
    decay_mult: 0
  }
  inner_product_param {
    num_output: 2
    weight_filler {
      type: "gaussian"
      std: 0.01
    }
    bias_filler {
      type: "constant"
      value: 0
    }
  }
}
layer {
  name: "accuracy"
  type: "Accuracy"
  bottom: "fc8_neutrino"
  bottom: "label"
  top: "accuracy"
  include {
    phase: TRAIN
  }
}
layer {
  name: "loss"
  type: "SoftmaxWithLoss"
  bottom: "fc8_neutrino"
  bottom: "label"
  top: "loss"
}
I0829 17:10:05.465791 15180 layer_factory.hpp:77] Creating layer data
I0829 17:10:05.466678 15180 net.cpp:91] Creating Layer data
I0829 17:10:05.466706 15180 net.cpp:399] data -> data
I0829 17:10:05.466768 15180 net.cpp:399] data -> label
I0829 17:10:05.466806 15180 data_transformer.cpp:25] Loading mean file from: /home/jessi12/CNN_local/caffe/data/mupi_mcc7/imagenet_mean.binaryproto
I0829 17:10:05.467082 15181 db_lmdb.cpp:35] Opened lmdb /home/jessi12/CNN_local/caffe/examples/imagenet/mupi_mcc7_train_lmdb
I0829 17:10:05.467988 15180 data_layer.cpp:41] output data size: 100,1,224,224
I0829 17:10:05.498250 15180 net.cpp:141] Setting up data
I0829 17:10:05.498287 15180 net.cpp:148] Top shape: 100 1 224 224 (5017600)
I0829 17:10:05.498306 15180 net.cpp:148] Top shape: 100 (100)
I0829 17:10:05.498317 15180 net.cpp:156] Memory required for data: 20070800
I0829 17:10:05.498337 15180 layer_factory.hpp:77] Creating layer label_data_1_split
I0829 17:10:05.498354 15180 net.cpp:91] Creating Layer label_data_1_split
I0829 17:10:05.498366 15180 net.cpp:425] label_data_1_split <- label
I0829 17:10:05.498390 15180 net.cpp:399] label_data_1_split -> label_data_1_split_0
I0829 17:10:05.498411 15180 net.cpp:399] label_data_1_split -> label_data_1_split_1
I0829 17:10:05.498435 15180 net.cpp:141] Setting up label_data_1_split
I0829 17:10:05.498450 15180 net.cpp:148] Top shape: 100 (100)
I0829 17:10:05.498461 15180 net.cpp:148] Top shape: 100 (100)
I0829 17:10:05.498471 15180 net.cpp:156] Memory required for data: 20071600
I0829 17:10:05.498481 15180 layer_factory.hpp:77] Creating layer conv1
I0829 17:10:05.498509 15180 net.cpp:91] Creating Layer conv1
I0829 17:10:05.498522 15180 net.cpp:425] conv1 <- data
I0829 17:10:05.498538 15180 net.cpp:399] conv1 -> conv1
I0829 17:10:05.498827 15180 net.cpp:141] Setting up conv1
I0829 17:10:05.498852 15180 net.cpp:148] Top shape: 100 96 54 54 (27993600)
I0829 17:10:05.498862 15180 net.cpp:156] Memory required for data: 132046000
I0829 17:10:05.498891 15180 layer_factory.hpp:77] Creating layer relu1
I0829 17:10:05.498914 15180 net.cpp:91] Creating Layer relu1
I0829 17:10:05.498936 15180 net.cpp:425] relu1 <- conv1
I0829 17:10:05.498953 15180 net.cpp:386] relu1 -> conv1 (in-place)
I0829 17:10:05.498970 15180 net.cpp:141] Setting up relu1
I0829 17:10:05.498982 15180 net.cpp:148] Top shape: 100 96 54 54 (27993600)
I0829 17:10:05.498992 15180 net.cpp:156] Memory required for data: 244020400
I0829 17:10:05.499002 15180 layer_factory.hpp:77] Creating layer pool1
I0829 17:10:05.499017 15180 net.cpp:91] Creating Layer pool1
I0829 17:10:05.499027 15180 net.cpp:425] pool1 <- conv1
I0829 17:10:05.499040 15180 net.cpp:399] pool1 -> pool1
I0829 17:10:05.499074 15180 net.cpp:141] Setting up pool1
I0829 17:10:05.499091 15180 net.cpp:148] Top shape: 100 96 27 27 (6998400)
I0829 17:10:05.499101 15180 net.cpp:156] Memory required for data: 272014000
I0829 17:10:05.499111 15180 layer_factory.hpp:77] Creating layer norm1
I0829 17:10:05.499126 15180 net.cpp:91] Creating Layer norm1
I0829 17:10:05.499137 15180 net.cpp:425] norm1 <- pool1
I0829 17:10:05.499150 15180 net.cpp:399] norm1 -> norm1
I0829 17:10:05.499177 15180 net.cpp:141] Setting up norm1
I0829 17:10:05.499202 15180 net.cpp:148] Top shape: 100 96 27 27 (6998400)
I0829 17:10:05.499213 15180 net.cpp:156] Memory required for data: 300007600
I0829 17:10:05.499224 15180 layer_factory.hpp:77] Creating layer conv2
I0829 17:10:05.499240 15180 net.cpp:91] Creating Layer conv2
I0829 17:10:05.499251 15180 net.cpp:425] conv2 <- norm1
I0829 17:10:05.499265 15180 net.cpp:399] conv2 -> conv2
I0829 17:10:05.505107 15180 net.cpp:141] Setting up conv2
I0829 17:10:05.505131 15180 net.cpp:148] Top shape: 100 256 27 27 (18662400)
I0829 17:10:05.505146 15180 net.cpp:156] Memory required for data: 374657200
I0829 17:10:05.505164 15180 layer_factory.hpp:77] Creating layer relu2
I0829 17:10:05.505178 15180 net.cpp:91] Creating Layer relu2
I0829 17:10:05.505197 15180 net.cpp:425] relu2 <- conv2
I0829 17:10:05.505210 15180 net.cpp:386] relu2 -> conv2 (in-place)
I0829 17:10:05.505228 15180 net.cpp:141] Setting up relu2
I0829 17:10:05.505244 15180 net.cpp:148] Top shape: 100 256 27 27 (18662400)
I0829 17:10:05.505254 15180 net.cpp:156] Memory required for data: 449306800
I0829 17:10:05.505264 15180 layer_factory.hpp:77] Creating layer pool2
I0829 17:10:05.505280 15180 net.cpp:91] Creating Layer pool2
I0829 17:10:05.505290 15180 net.cpp:425] pool2 <- conv2
I0829 17:10:05.505303 15180 net.cpp:399] pool2 -> pool2
I0829 17:10:05.505324 15180 net.cpp:141] Setting up pool2
I0829 17:10:05.505340 15180 net.cpp:148] Top shape: 100 256 13 13 (4326400)
I0829 17:10:05.505350 15180 net.cpp:156] Memory required for data: 466612400
I0829 17:10:05.505360 15180 layer_factory.hpp:77] Creating layer norm2
I0829 17:10:05.505378 15180 net.cpp:91] Creating Layer norm2
I0829 17:10:05.505388 15180 net.cpp:425] norm2 <- pool2
I0829 17:10:05.505401 15180 net.cpp:399] norm2 -> norm2
I0829 17:10:05.505419 15180 net.cpp:141] Setting up norm2
I0829 17:10:05.505434 15180 net.cpp:148] Top shape: 100 256 13 13 (4326400)
I0829 17:10:05.505444 15180 net.cpp:156] Memory required for data: 483918000
I0829 17:10:05.505453 15180 layer_factory.hpp:77] Creating layer conv3
I0829 17:10:05.505472 15180 net.cpp:91] Creating Layer conv3
I0829 17:10:05.505484 15180 net.cpp:425] conv3 <- norm2
I0829 17:10:05.505499 15180 net.cpp:399] conv3 -> conv3
I0829 17:10:05.523267 15180 net.cpp:141] Setting up conv3
I0829 17:10:05.523329 15180 net.cpp:148] Top shape: 100 384 13 13 (6489600)
I0829 17:10:05.523339 15180 net.cpp:156] Memory required for data: 509876400
I0829 17:10:05.523365 15180 layer_factory.hpp:77] Creating layer relu3
I0829 17:10:05.523386 15180 net.cpp:91] Creating Layer relu3
I0829 17:10:05.523398 15180 net.cpp:425] relu3 <- conv3
I0829 17:10:05.523416 15180 net.cpp:386] relu3 -> conv3 (in-place)
I0829 17:10:05.523438 15180 net.cpp:141] Setting up relu3
I0829 17:10:05.523452 15180 net.cpp:148] Top shape: 100 384 13 13 (6489600)
I0829 17:10:05.523461 15180 net.cpp:156] Memory required for data: 535834800
I0829 17:10:05.523471 15180 layer_factory.hpp:77] Creating layer conv4
I0829 17:10:05.523519 15180 net.cpp:91] Creating Layer conv4
I0829 17:10:05.523530 15180 net.cpp:425] conv4 <- conv3
I0829 17:10:05.523545 15180 net.cpp:399] conv4 -> conv4
I0829 17:10:05.535261 15180 net.cpp:141] Setting up conv4
I0829 17:10:05.535298 15180 net.cpp:148] Top shape: 100 384 13 13 (6489600)
I0829 17:10:05.535308 15180 net.cpp:156] Memory required for data: 561793200
I0829 17:10:05.535323 15180 layer_factory.hpp:77] Creating layer relu4
I0829 17:10:05.535338 15180 net.cpp:91] Creating Layer relu4
I0829 17:10:05.535349 15180 net.cpp:425] relu4 <- conv4
I0829 17:10:05.535363 15180 net.cpp:386] relu4 -> conv4 (in-place)
I0829 17:10:05.535379 15180 net.cpp:141] Setting up relu4
I0829 17:10:05.535393 15180 net.cpp:148] Top shape: 100 384 13 13 (6489600)
I0829 17:10:05.535403 15180 net.cpp:156] Memory required for data: 587751600
I0829 17:10:05.535413 15180 layer_factory.hpp:77] Creating layer conv5
I0829 17:10:05.535430 15180 net.cpp:91] Creating Layer conv5
I0829 17:10:05.535441 15180 net.cpp:425] conv5 <- conv4
I0829 17:10:05.535459 15180 net.cpp:399] conv5 -> conv5
I0829 17:10:05.543929 15180 net.cpp:141] Setting up conv5
I0829 17:10:05.543957 15180 net.cpp:148] Top shape: 100 256 13 13 (4326400)
I0829 17:10:05.543968 15180 net.cpp:156] Memory required for data: 605057200
I0829 17:10:05.543990 15180 layer_factory.hpp:77] Creating layer relu5
I0829 17:10:05.544005 15180 net.cpp:91] Creating Layer relu5
I0829 17:10:05.544016 15180 net.cpp:425] relu5 <- conv5
I0829 17:10:05.544034 15180 net.cpp:386] relu5 -> conv5 (in-place)
I0829 17:10:05.544050 15180 net.cpp:141] Setting up relu5
I0829 17:10:05.544064 15180 net.cpp:148] Top shape: 100 256 13 13 (4326400)
I0829 17:10:05.544075 15180 net.cpp:156] Memory required for data: 622362800
I0829 17:10:05.544085 15180 layer_factory.hpp:77] Creating layer pool5
I0829 17:10:05.544103 15180 net.cpp:91] Creating Layer pool5
I0829 17:10:05.544114 15180 net.cpp:425] pool5 <- conv5
I0829 17:10:05.544128 15180 net.cpp:399] pool5 -> pool5
I0829 17:10:05.544152 15180 net.cpp:141] Setting up pool5
I0829 17:10:05.544164 15180 net.cpp:148] Top shape: 100 256 6 6 (921600)
I0829 17:10:05.544174 15180 net.cpp:156] Memory required for data: 626049200
I0829 17:10:05.544191 15180 layer_factory.hpp:77] Creating layer fc6
I0829 17:10:05.544214 15180 net.cpp:91] Creating Layer fc6
I0829 17:10:05.544227 15180 net.cpp:425] fc6 <- pool5
I0829 17:10:05.544246 15180 net.cpp:399] fc6 -> fc6
I0829 17:10:06.083825 15180 net.cpp:141] Setting up fc6
I0829 17:10:06.083894 15180 net.cpp:148] Top shape: 100 4096 (409600)
I0829 17:10:06.083904 15180 net.cpp:156] Memory required for data: 627687600
I0829 17:10:06.083925 15180 layer_factory.hpp:77] Creating layer relu6
I0829 17:10:06.083945 15180 net.cpp:91] Creating Layer relu6
I0829 17:10:06.083956 15180 net.cpp:425] relu6 <- fc6
I0829 17:10:06.083976 15180 net.cpp:386] relu6 -> fc6 (in-place)
I0829 17:10:06.083997 15180 net.cpp:141] Setting up relu6
I0829 17:10:06.084008 15180 net.cpp:148] Top shape: 100 4096 (409600)
I0829 17:10:06.084017 15180 net.cpp:156] Memory required for data: 629326000
I0829 17:10:06.084025 15180 layer_factory.hpp:77] Creating layer drop6
I0829 17:10:06.084040 15180 net.cpp:91] Creating Layer drop6
I0829 17:10:06.084049 15180 net.cpp:425] drop6 <- fc6
I0829 17:10:06.084060 15180 net.cpp:386] drop6 -> fc6 (in-place)
I0829 17:10:06.084090 15180 net.cpp:141] Setting up drop6
I0829 17:10:06.084102 15180 net.cpp:148] Top shape: 100 4096 (409600)
I0829 17:10:06.084111 15180 net.cpp:156] Memory required for data: 630964400
I0829 17:10:06.084120 15180 layer_factory.hpp:77] Creating layer fc7
I0829 17:10:06.084136 15180 net.cpp:91] Creating Layer fc7
I0829 17:10:06.084146 15180 net.cpp:425] fc7 <- fc6
I0829 17:10:06.084161 15180 net.cpp:399] fc7 -> fc7
I0829 17:10:06.319914 15180 net.cpp:141] Setting up fc7
I0829 17:10:06.319982 15180 net.cpp:148] Top shape: 100 4096 (409600)
I0829 17:10:06.319991 15180 net.cpp:156] Memory required for data: 632602800
I0829 17:10:06.320010 15180 layer_factory.hpp:77] Creating layer relu7
I0829 17:10:06.320045 15180 net.cpp:91] Creating Layer relu7
I0829 17:10:06.320070 15180 net.cpp:425] relu7 <- fc7
I0829 17:10:06.320086 15180 net.cpp:386] relu7 -> fc7 (in-place)
I0829 17:10:06.320107 15180 net.cpp:141] Setting up relu7
I0829 17:10:06.320118 15180 net.cpp:148] Top shape: 100 4096 (409600)
I0829 17:10:06.320127 15180 net.cpp:156] Memory required for data: 634241200
I0829 17:10:06.320135 15180 layer_factory.hpp:77] Creating layer drop7
I0829 17:10:06.320148 15180 net.cpp:91] Creating Layer drop7
I0829 17:10:06.320158 15180 net.cpp:425] drop7 <- fc7
I0829 17:10:06.320171 15180 net.cpp:386] drop7 -> fc7 (in-place)
I0829 17:10:06.320204 15180 net.cpp:141] Setting up drop7
I0829 17:10:06.320217 15180 net.cpp:148] Top shape: 100 4096 (409600)
I0829 17:10:06.320226 15180 net.cpp:156] Memory required for data: 635879600
I0829 17:10:06.320235 15180 layer_factory.hpp:77] Creating layer fc8_neutrino
I0829 17:10:06.320250 15180 net.cpp:91] Creating Layer fc8_neutrino
I0829 17:10:06.320260 15180 net.cpp:425] fc8_neutrino <- fc7
I0829 17:10:06.320272 15180 net.cpp:399] fc8_neutrino -> fc8_neutrino
I0829 17:10:06.320420 15180 net.cpp:141] Setting up fc8_neutrino
I0829 17:10:06.320436 15180 net.cpp:148] Top shape: 100 2 (200)
I0829 17:10:06.320444 15180 net.cpp:156] Memory required for data: 635880400
I0829 17:10:06.320456 15180 layer_factory.hpp:77] Creating layer fc8_neutrino_fc8_neutrino_0_split
I0829 17:10:06.320471 15180 net.cpp:91] Creating Layer fc8_neutrino_fc8_neutrino_0_split
I0829 17:10:06.320479 15180 net.cpp:425] fc8_neutrino_fc8_neutrino_0_split <- fc8_neutrino
I0829 17:10:06.320492 15180 net.cpp:399] fc8_neutrino_fc8_neutrino_0_split -> fc8_neutrino_fc8_neutrino_0_split_0
I0829 17:10:06.320504 15180 net.cpp:399] fc8_neutrino_fc8_neutrino_0_split -> fc8_neutrino_fc8_neutrino_0_split_1
I0829 17:10:06.320518 15180 net.cpp:141] Setting up fc8_neutrino_fc8_neutrino_0_split
I0829 17:10:06.320529 15180 net.cpp:148] Top shape: 100 2 (200)
I0829 17:10:06.320539 15180 net.cpp:148] Top shape: 100 2 (200)
I0829 17:10:06.320547 15180 net.cpp:156] Memory required for data: 635882000
I0829 17:10:06.320555 15180 layer_factory.hpp:77] Creating layer accuracy
I0829 17:10:06.320580 15180 net.cpp:91] Creating Layer accuracy
I0829 17:10:06.320590 15180 net.cpp:425] accuracy <- fc8_neutrino_fc8_neutrino_0_split_0
I0829 17:10:06.320600 15180 net.cpp:425] accuracy <- label_data_1_split_0
I0829 17:10:06.320613 15180 net.cpp:399] accuracy -> accuracy
…
