…
I0528 09:45:21.870524 20954 net.cpp:313] The NetState phase (0) differed from the phase (1) specified by a rule in layer accuracy
I0528 09:45:21.870766 20954 net.cpp:49] Initializing net from parameters: 
name: "CaffeNet"
state {
  phase: TRAIN
}
layer {
  name: "data"
  type: "Data"
  top: "data"
  top: "label"
  include {
    phase: TRAIN
  }
  transform_param {
    mirror: true
    crop_size: 224
    mean_file: "/home/jessi12/CNN_local/caffe/data/neutrinodata/imagenet_mean.binaryproto"
  }
  data_param {
    source: "/home/jessi12/CNN_local/caffe/examples/imagenet/neutrinodata_train_lmdb"
    batch_size: 50
    backend: LMDB
  }
}
layer {
  name: "conv1"
  type: "Convolution"
  bottom: "data"
  top: "conv1"
  param {
    lr_mult: 1
    decay_mult: 1
  }
  param {
    lr_mult: 2
    decay_mult: 0
  }
  convolution_param {
    num_output: 96
    kernel_size: 11
    stride: 4
    weight_filler {
      type: "gaussian"
      std: 0.01
    }
    bias_filler {
      type: "constant"
      value: 0
    }
  }
}
layer {
  name: "relu1"
  type: "ReLU"
  bottom: "conv1"
  top: "conv1"
}
layer {
  name: "pool1"
  type: "Pooling"
  bottom: "conv1"
  top: "pool1"
  pooling_param {
    pool: MAX
    kernel_size: 3
    stride: 2
  }
}
layer {
  name: "norm1"
  type: "LRN"
  bottom: "pool1"
  top: "norm1"
  lrn_param {
    local_size: 5
    alpha: 0.0001
    beta: 0.75
  }
}
layer {
  name: "conv2_changed"
  type: "Convolution"
  bottom: "norm1"
  top: "conv2_changed"
  param {
    lr_mult: 1
    decay_mult: 1
  }
  param {
    lr_mult: 2
    decay_mult: 0
  }
  convolution_param {
    num_output: 256
    pad: 2
    kernel_size: 5
    group: 2
    weight_filler {
      type: "gaussian"
      std: 0.01
    }
    bias_filler {
      type: "constant"
      value: 1
    }
  }
}
layer {
  name: "relu2"
  type: "ReLU"
  bottom: "conv2_changed"
  top: "conv2_changed"
}
layer {
  name: "pool2"
  type: "Pooling"
  bottom: "conv2_changed"
  top: "pool2"
  pooling_param {
    pool: MAX
    kernel_size: 3
    stride: 2
  }
}
layer {
  name: "norm2"
  type: "LRN"
  bottom: "pool2"
  top: "norm2"
  lrn_param {
    local_size: 5
    alpha: 0.0001
    beta: 0.75
  }
}
layer {
  name: "conv3_changed"
  type: "Convolution"
  bottom: "norm2"
  top: "conv3_changed"
  param {
    lr_mult: 1
    decay_mult: 1
  }
  param {
    lr_mult: 2
    decay_mult: 0
  }
  convolution_param {
    num_output: 384
    pad: 1
    kernel_size: 3
    weight_filler {
      type: "gaussian"
      std: 0.01
    }
    bias_filler {
      type: "constant"
      value: 0
    }
  }
}
layer {
  name: "relu3"
  type: "ReLU"
  bottom: "conv3_changed"
  top: "conv3_changed"
}
layer {
  name: "conv4"
  type: "Convolution"
  bottom: "conv3_changed"
  top: "conv4"
  param {
    lr_mult: 1
    decay_mult: 1
  }
  param {
    lr_mult: 2
    decay_mult: 0
  }
  convolution_param {
    num_output: 384
    pad: 1
    kernel_size: 3
    group: 2
    weight_filler {
      type: "gaussian"
      std: 0.01
    }
    bias_filler {
      type: "constant"
      value: 1
    }
  }
}
layer {
  name: "relu4"
  type: "ReLU"
  bottom: "conv4"
  top: "conv4"
}
layer {
  name: "conv5"
  type: "Convolution"
  bottom: "conv4"
  top: "conv5"
  param {
    lr_mult: 1
    decay_mult: 1
  }
  param {
    lr_mult: 2
    decay_mult: 0
  }
  convolution_param {
    num_output: 256
    pad: 1
    kernel_size: 3
    group: 2
    weight_filler {
      type: "gaussian"
      std: 0.01
    }
    bias_filler {
      type: "constant"
      value: 1
    }
  }
}
layer {
  name: "relu5"
  type: "ReLU"
  bottom: "conv5"
  top: "conv5"
}
layer {
  name: "pool5"
  type: "Pooling"
  bottom: "conv5"
  top: "pool5"
  pooling_param {
    pool: MAX
    kernel_size: 3
    stride: 2
  }
}
layer {
  name: "fc6"
  type: "InnerProduct"
  bottom: "pool5"
  top: "fc6"
  param {
    lr_mult: 1
    decay_mult: 1
  }
  param {
    lr_mult: 2
    decay_mult: 0
  }
  inner_product_param {
    num_output: 4096
    weight_filler {
      type: "gaussian"
      std: 0.005
    }
    bias_filler {
      type: "constant"
      value: 1
    }
  }
}
layer {
  name: "relu6"
  type: "ReLU"
  bottom: "fc6"
  top: "fc6"
}
layer {
  name: "drop6"
  type: "Dropout"
  bottom: "fc6"
  top: "fc6"
  dropout_param {
    dropout_ratio: 0.5
  }
}
layer {
  name: "fc7"
  type: "InnerProduct"
  bottom: "fc6"
  top: "fc7"
  param {
    lr_mult: 1
    decay_mult: 1
  }
  param {
    lr_mult: 2
    decay_mult: 0
  }
  inner_product_param {
    num_output: 4096
    weight_filler {
      type: "gaussian"
      std: 0.005
    }
    bias_filler {
      type: "constant"
      value: 1
    }
  }
}
layer {
  name: "relu7"
  type: "ReLU"
  bottom: "fc7"
  top: "fc7"
}
layer {
  name: "drop7"
  type: "Dropout"
  bottom: "fc7"
  top: "fc7"
  dropout_param {
    dropout_ratio: 0.5
  }
}
layer {
  name: "fc8_neutrino"
  type: "InnerProduct"
  bottom: "fc7"
  top: "fc8_neutrino"
  param {
    lr_mult: 1
    decay_mult: 1
  }
  param {
    lr_mult: 2
    decay_mult: 0
  }
  inner_product_param {
    num_output: 2
    weight_filler {
      type: "gaussian"
      std: 0.01
    }
    bias_filler {
      type: "constant"
      value: 0
    }
  }
}
layer {
  name: "loss"
  type: "SoftmaxWithLoss"
  bottom: "fc8_neutrino"
  bottom: "label"
  top: "loss"
}
I0528 09:45:21.870928 20954 layer_factory.hpp:77] Creating layer data
I0528 09:45:21.871762 20954 net.cpp:91] Creating Layer data
I0528 09:45:21.871788 20954 net.cpp:399] data -> data
I0528 09:45:21.871850 20954 net.cpp:399] data -> label
I0528 09:45:21.871904 20954 data_transformer.cpp:25] Loading mean file from: /home/jessi12/CNN_local/caffe/data/neutrinodata/imagenet_mean.binaryproto
I0528 09:45:21.872164 20955 db_lmdb.cpp:35] Opened lmdb /home/jessi12/CNN_local/caffe/examples/imagenet/neutrinodata_train_lmdb
I0528 09:45:21.873227 20954 data_layer.cpp:41] output data size: 50,1,224,224
I0528 09:45:21.890974 20954 net.cpp:141] Setting up data
I0528 09:45:21.891005 20954 net.cpp:148] Top shape: 50 1 224 224 (2508800)
I0528 09:45:21.891019 20954 net.cpp:148] Top shape: 50 (50)
I0528 09:45:21.891028 20954 net.cpp:156] Memory required for data: 10035400
I0528 09:45:21.891044 20954 layer_factory.hpp:77] Creating layer conv1
I0528 09:45:21.891068 20954 net.cpp:91] Creating Layer conv1
I0528 09:45:21.891082 20954 net.cpp:425] conv1 <- data
I0528 09:45:21.891100 20954 net.cpp:399] conv1 -> conv1
I0528 09:45:21.891405 20954 net.cpp:141] Setting up conv1
I0528 09:45:21.891425 20954 net.cpp:148] Top shape: 50 96 54 54 (13996800)
I0528 09:45:21.891434 20954 net.cpp:156] Memory required for data: 66022600
I0528 09:45:21.891459 20954 layer_factory.hpp:77] Creating layer relu1
I0528 09:45:21.891475 20954 net.cpp:91] Creating Layer relu1
I0528 09:45:21.891489 20954 net.cpp:425] relu1 <- conv1
I0528 09:45:21.891500 20954 net.cpp:386] relu1 -> conv1 (in-place)
I0528 09:45:21.891515 20954 net.cpp:141] Setting up relu1
I0528 09:45:21.891527 20954 net.cpp:148] Top shape: 50 96 54 54 (13996800)
I0528 09:45:21.891536 20954 net.cpp:156] Memory required for data: 122009800
I0528 09:45:21.891546 20954 layer_factory.hpp:77] Creating layer pool1
I0528 09:45:21.891557 20954 net.cpp:91] Creating Layer pool1
I0528 09:45:21.891566 20954 net.cpp:425] pool1 <- conv1
I0528 09:45:21.891578 20954 net.cpp:399] pool1 -> pool1
I0528 09:45:21.891609 20954 net.cpp:141] Setting up pool1
I0528 09:45:21.891630 20954 net.cpp:148] Top shape: 50 96 27 27 (3499200)
I0528 09:45:21.891649 20954 net.cpp:156] Memory required for data: 136006600
I0528 09:45:21.891659 20954 layer_factory.hpp:77] Creating layer norm1
I0528 09:45:21.891674 20954 net.cpp:91] Creating Layer norm1
I0528 09:45:21.891685 20954 net.cpp:425] norm1 <- pool1
I0528 09:45:21.891696 20954 net.cpp:399] norm1 -> norm1
I0528 09:45:21.891723 20954 net.cpp:141] Setting up norm1
I0528 09:45:21.891738 20954 net.cpp:148] Top shape: 50 96 27 27 (3499200)
I0528 09:45:21.891747 20954 net.cpp:156] Memory required for data: 150003400
I0528 09:45:21.891755 20954 layer_factory.hpp:77] Creating layer conv2_changed
I0528 09:45:21.891772 20954 net.cpp:91] Creating Layer conv2_changed
I0528 09:45:21.891780 20954 net.cpp:425] conv2_changed <- norm1
I0528 09:45:21.891793 20954 net.cpp:399] conv2_changed -> conv2_changed
I0528 09:45:21.897701 20954 net.cpp:141] Setting up conv2_changed
I0528 09:45:21.897722 20954 net.cpp:148] Top shape: 50 256 27 27 (9331200)
I0528 09:45:21.897732 20954 net.cpp:156] Memory required for data: 187328200
I0528 09:45:21.897748 20954 layer_factory.hpp:77] Creating layer relu2
I0528 09:45:21.897761 20954 net.cpp:91] Creating Layer relu2
I0528 09:45:21.897770 20954 net.cpp:425] relu2 <- conv2_changed
I0528 09:45:21.897783 20954 net.cpp:386] relu2 -> conv2_changed (in-place)
I0528 09:45:21.897799 20954 net.cpp:141] Setting up relu2
I0528 09:45:21.897812 20954 net.cpp:148] Top shape: 50 256 27 27 (9331200)
I0528 09:45:21.897821 20954 net.cpp:156] Memory required for data: 224653000
I0528 09:45:21.897830 20954 layer_factory.hpp:77] Creating layer pool2
I0528 09:45:21.897842 20954 net.cpp:91] Creating Layer pool2
I0528 09:45:21.897851 20954 net.cpp:425] pool2 <- conv2_changed
I0528 09:45:21.897864 20954 net.cpp:399] pool2 -> pool2
I0528 09:45:21.897881 20954 net.cpp:141] Setting up pool2
I0528 09:45:21.897893 20954 net.cpp:148] Top shape: 50 256 13 13 (2163200)
I0528 09:45:21.897902 20954 net.cpp:156] Memory required for data: 233305800
I0528 09:45:21.897913 20954 layer_factory.hpp:77] Creating layer norm2
I0528 09:45:21.897927 20954 net.cpp:91] Creating Layer norm2
I0528 09:45:21.897938 20954 net.cpp:425] norm2 <- pool2
I0528 09:45:21.897951 20954 net.cpp:399] norm2 -> norm2
I0528 09:45:21.897967 20954 net.cpp:141] Setting up norm2
I0528 09:45:21.897979 20954 net.cpp:148] Top shape: 50 256 13 13 (2163200)
I0528 09:45:21.897987 20954 net.cpp:156] Memory required for data: 241958600
I0528 09:45:21.897996 20954 layer_factory.hpp:77] Creating layer conv3_changed
I0528 09:45:21.898011 20954 net.cpp:91] Creating Layer conv3_changed
I0528 09:45:21.898022 20954 net.cpp:425] conv3_changed <- norm2
I0528 09:45:21.898038 20954 net.cpp:399] conv3_changed -> conv3_changed
I0528 09:45:21.915603 20954 net.cpp:141] Setting up conv3_changed
I0528 09:45:21.915655 20954 net.cpp:148] Top shape: 50 384 13 13 (3244800)
I0528 09:45:21.915664 20954 net.cpp:156] Memory required for data: 254937800
I0528 09:45:21.915684 20954 layer_factory.hpp:77] Creating layer relu3
I0528 09:45:21.915700 20954 net.cpp:91] Creating Layer relu3
I0528 09:45:21.915710 20954 net.cpp:425] relu3 <- conv3_changed
I0528 09:45:21.915724 20954 net.cpp:386] relu3 -> conv3_changed (in-place)
I0528 09:45:21.915741 20954 net.cpp:141] Setting up relu3
I0528 09:45:21.915752 20954 net.cpp:148] Top shape: 50 384 13 13 (3244800)
I0528 09:45:21.915761 20954 net.cpp:156] Memory required for data: 267917000
I0528 09:45:21.915771 20954 layer_factory.hpp:77] Creating layer conv4
I0528 09:45:21.915786 20954 net.cpp:91] Creating Layer conv4
I0528 09:45:21.915798 20954 net.cpp:425] conv4 <- conv3_changed
I0528 09:45:21.915812 20954 net.cpp:399] conv4 -> conv4
I0528 09:45:21.927547 20954 net.cpp:141] Setting up conv4
I0528 09:45:21.927573 20954 net.cpp:148] Top shape: 50 384 13 13 (3244800)
I0528 09:45:21.927582 20954 net.cpp:156] Memory required for data: 280896200
I0528 09:45:21.927597 20954 layer_factory.hpp:77] Creating layer relu4
I0528 09:45:21.927609 20954 net.cpp:91] Creating Layer relu4
I0528 09:45:21.927619 20954 net.cpp:425] relu4 <- conv4
I0528 09:45:21.927650 20954 net.cpp:386] relu4 -> conv4 (in-place)
I0528 09:45:21.927680 20954 net.cpp:141] Setting up relu4
I0528 09:45:21.927693 20954 net.cpp:148] Top shape: 50 384 13 13 (3244800)
I0528 09:45:21.927701 20954 net.cpp:156] Memory required for data: 293875400
I0528 09:45:21.927711 20954 layer_factory.hpp:77] Creating layer conv5
I0528 09:45:21.927727 20954 net.cpp:91] Creating Layer conv5
I0528 09:45:21.927737 20954 net.cpp:425] conv5 <- conv4
I0528 09:45:21.927750 20954 net.cpp:399] conv5 -> conv5
I0528 09:45:21.936053 20954 net.cpp:141] Setting up conv5
I0528 09:45:21.936077 20954 net.cpp:148] Top shape: 50 256 13 13 (2163200)
I0528 09:45:21.936086 20954 net.cpp:156] Memory required for data: 302528200
I0528 09:45:21.936105 20954 layer_factory.hpp:77] Creating layer relu5
I0528 09:45:21.936120 20954 net.cpp:91] Creating Layer relu5
I0528 09:45:21.936132 20954 net.cpp:425] relu5 <- conv5
I0528 09:45:21.936144 20954 net.cpp:386] relu5 -> conv5 (in-place)
I0528 09:45:21.936158 20954 net.cpp:141] Setting up relu5
I0528 09:45:21.936169 20954 net.cpp:148] Top shape: 50 256 13 13 (2163200)
I0528 09:45:21.936178 20954 net.cpp:156] Memory required for data: 311181000
I0528 09:45:21.936187 20954 layer_factory.hpp:77] Creating layer pool5
I0528 09:45:21.936200 20954 net.cpp:91] Creating Layer pool5
I0528 09:45:21.936209 20954 net.cpp:425] pool5 <- conv5
I0528 09:45:21.936225 20954 net.cpp:399] pool5 -> pool5
I0528 09:45:21.936245 20954 net.cpp:141] Setting up pool5
I0528 09:45:21.936259 20954 net.cpp:148] Top shape: 50 256 6 6 (460800)
I0528 09:45:21.936266 20954 net.cpp:156] Memory required for data: 313024200
I0528 09:45:21.936275 20954 layer_factory.hpp:77] Creating layer fc6
I0528 09:45:21.936300 20954 net.cpp:91] Creating Layer fc6
I0528 09:45:21.936317 20954 net.cpp:425] fc6 <- pool5
I0528 09:45:21.936332 20954 net.cpp:399] fc6 -> fc6
I0528 09:45:22.504106 20954 net.cpp:141] Setting up fc6
I0528 09:45:22.504180 20954 net.cpp:148] Top shape: 50 4096 (204800)
I0528 09:45:22.504189 20954 net.cpp:156] Memory required for data: 313843400
I0528 09:45:22.504204 20954 layer_factory.hpp:77] Creating layer relu6
I0528 09:45:22.504221 20954 net.cpp:91] Creating Layer relu6
I0528 09:45:22.504230 20954 net.cpp:425] relu6 <- fc6
I0528 09:45:22.504245 20954 net.cpp:386] relu6 -> fc6 (in-place)
I0528 09:45:22.504261 20954 net.cpp:141] Setting up relu6
I0528 09:45:22.504271 20954 net.cpp:148] Top shape: 50 4096 (204800)
I0528 09:45:22.504278 20954 net.cpp:156] Memory required for data: 314662600
I0528 09:45:22.504287 20954 layer_factory.hpp:77] Creating layer drop6
I0528 09:45:22.504297 20954 net.cpp:91] Creating Layer drop6
I0528 09:45:22.504305 20954 net.cpp:425] drop6 <- fc6
I0528 09:45:22.504333 20954 net.cpp:386] drop6 -> fc6 (in-place)
I0528 09:45:22.504360 20954 net.cpp:141] Setting up drop6
I0528 09:45:22.504370 20954 net.cpp:148] Top shape: 50 4096 (204800)
I0528 09:45:22.504377 20954 net.cpp:156] Memory required for data: 315481800
I0528 09:45:22.504385 20954 layer_factory.hpp:77] Creating layer fc7
I0528 09:45:22.504400 20954 net.cpp:91] Creating Layer fc7
I0528 09:45:22.504407 20954 net.cpp:425] fc7 <- fc6
I0528 09:45:22.504418 20954 net.cpp:399] fc7 -> fc7
I0528 09:45:22.740236 20954 net.cpp:141] Setting up fc7
I0528 09:45:22.740309 20954 net.cpp:148] Top shape: 50 4096 (204800)
I0528 09:45:22.740334 20954 net.cpp:156] Memory required for data: 316301000
I0528 09:45:22.740350 20954 layer_factory.hpp:77] Creating layer relu7
I0528 09:45:22.740370 20954 net.cpp:91] Creating Layer relu7
I0528 09:45:22.740378 20954 net.cpp:425] relu7 <- fc7
I0528 09:45:22.740391 20954 net.cpp:386] relu7 -> fc7 (in-place)
I0528 09:45:22.740408 20954 net.cpp:141] Setting up relu7
I0528 09:45:22.740418 20954 net.cpp:148] Top shape: 50 4096 (204800)
I0528 09:45:22.740425 20954 net.cpp:156] Memory required for data: 317120200
I0528 09:45:22.740433 20954 layer_factory.hpp:77] Creating layer drop7
I0528 09:45:22.740452 20954 net.cpp:91] Creating Layer drop7
I0528 09:45:22.740459 20954 net.cpp:425] drop7 <- fc7
I0528 09:45:22.740483 20954 net.cpp:386] drop7 -> fc7 (in-place)
I0528 09:45:22.740512 20954 net.cpp:141] Setting up drop7
I0528 09:45:22.740522 20954 net.cpp:148] Top shape: 50 4096 (204800)
I0528 09:45:22.740530 20954 net.cpp:156] Memory required for data: 317939400
I0528 09:45:22.740537 20954 layer_factory.hpp:77] Creating layer fc8_neutrino
I0528 09:45:22.740550 20954 net.cpp:91] Creating Layer fc8_neutrino
I0528 09:45:22.740558 20954 net.cpp:425] fc8_neutrino <- fc7
I0528 09:45:22.740571 20954 net.cpp:399] fc8_neutrino -> fc8_neutrino
I0528 09:45:22.740715 20954 net.cpp:141] Setting up fc8_neutrino
I0528 09:45:22.740727 20954 net.cpp:148] Top shape: 50 2 (100)
I0528 09:45:22.740734 20954 net.cpp:156] Memory required for data: 317939800
I0528 09:45:22.740746 20954 layer_factory.hpp:77] Creating layer loss
I0528 09:45:22.740756 20954 net.cpp:91] Creating Layer loss
I0528 09:45:22.740764 20954 net.cpp:425] loss <- fc8_neutrino
I0528 09:45:22.740772 20954 net.cpp:425] loss <- label
I0528 09:45:22.740788 20954 net.cpp:399] loss -> loss
I0528 09:45:22.740809 20954 layer_factory.hpp:77] Creating layer loss
…
I0528 09:45:22.741888 20954 net.cpp:313] The NetState phase (1) differed from the phase (0) specified by a rule in layer data
I0528 09:45:22.742111 20954 net.cpp:49] Initializing net from parameters: 
name: "CaffeNet"
state {
  phase: TEST
}
layer {
  name: "data"
  type: "Data"
  top: "data"
  top: "label"
  include {
    phase: TEST
  }
  transform_param {
    mirror: false
    crop_size: 224
    mean_file: "/home/jessi12/CNN_local/caffe/data/neutrinodata/imagenet_mean.binaryproto"
  }
  data_param {
    source: "/home/jessi12/CNN_local/caffe/examples/imagenet/neutrinodata_val_lmdb"
    batch_size: 50
    backend: LMDB
  }
}
layer {
  name: "conv1"
  type: "Convolution"
  bottom: "data"
  top: "conv1"
  param {
    lr_mult: 1
    decay_mult: 1
  }
  param {
    lr_mult: 2
    decay_mult: 0
  }
  convolution_param {
    num_output: 96
    kernel_size: 11
    stride: 4
    weight_filler {
      type: "gaussian"
      std: 0.01
    }
    bias_filler {
      type: "constant"
      value: 0
    }
  }
}
layer {
  name: "relu1"
  type: "ReLU"
  bottom: "conv1"
  top: "conv1"
}
layer {
  name: "pool1"
  type: "Pooling"
  bottom: "conv1"
  top: "pool1"
  pooling_param {
    pool: MAX
    kernel_size: 3
    stride: 2
  }
}
layer {
  name: "norm1"
  type: "LRN"
  bottom: "pool1"
  top: "norm1"
  lrn_param {
    local_size: 5
    alpha: 0.0001
    beta: 0.75
  }
}
layer {
  name: "conv2_changed"
  type: "Convolution"
  bottom: "norm1"
  top: "conv2_changed"
  param {
    lr_mult: 1
    decay_mult: 1
  }
  param {
    lr_mult: 2
    decay_mult: 0
  }
  convolution_param {
    num_output: 256
    pad: 2
    kernel_size: 5
    group: 2
    weight_filler {
      type: "gaussian"
      std: 0.01
    }
    bias_filler {
      type: "constant"
      value: 1
    }
  }
}
layer {
  name: "relu2"
  type: "ReLU"
  bottom: "conv2_changed"
  top: "conv2_changed"
}
layer {
  name: "pool2"
  type: "Pooling"
  bottom: "conv2_changed"
  top: "pool2"
  pooling_param {
    pool: MAX
    kernel_size: 3
    stride: 2
  }
}
layer {
  name: "norm2"
  type: "LRN"
  bottom: "pool2"
  top: "norm2"
  lrn_param {
    local_size: 5
    alpha: 0.0001
    beta: 0.75
  }
}
layer {
  name: "conv3_changed"
  type: "Convolution"
  bottom: "norm2"
  top: "conv3_changed"
  param {
    lr_mult: 1
    decay_mult: 1
  }
  param {
    lr_mult: 2
    decay_mult: 0
  }
  convolution_param {
    num_output: 384
    pad: 1
    kernel_size: 3
    weight_filler {
      type: "gaussian"
      std: 0.01
    }
    bias_filler {
      type: "constant"
      value: 0
    }
  }
}
layer {
  name: "relu3"
  type: "ReLU"
  bottom: "conv3_changed"
  top: "conv3_changed"
}
layer {
  name: "conv4"
  type: "Convolution"
  bottom: "conv3_changed"
  top: "conv4"
  param {
    lr_mult: 1
    decay_mult: 1
  }
  param {
    lr_mult: 2
    decay_mult: 0
  }
  convolution_param {
    num_output: 384
    pad: 1
    kernel_size: 3
    group: 2
    weight_filler {
      type: "gaussian"
      std: 0.01
    }
    bias_filler {
      type: "constant"
      value: 1
    }
  }
}
layer {
  name: "relu4"
  type: "ReLU"
  bottom: "conv4"
  top: "conv4"
}
layer {
  name: "conv5"
  type: "Convolution"
  bottom: "conv4"
  top: "conv5"
  param {
    lr_mult: 1
    decay_mult: 1
  }
  param {
    lr_mult: 2
    decay_mult: 0
  }
  convolution_param {
    num_output: 256
    pad: 1
    kernel_size: 3
    group: 2
    weight_filler {
      type: "gaussian"
      std: 0.01
    }
    bias_filler {
      type: "constant"
      value: 1
    }
  }
}
layer {
  name: "relu5"
  type: "ReLU"
  bottom: "conv5"
  top: "conv5"
}
layer {
  name: "pool5"
  type: "Pooling"
  bottom: "conv5"
  top: "pool5"
  pooling_param {
    pool: MAX
    kernel_size: 3
    stride: 2
  }
}
layer {
  name: "fc6"
  type: "InnerProduct"
  bottom: "pool5"
  top: "fc6"
  param {
    lr_mult: 1
    decay_mult: 1
  }
  param {
    lr_mult: 2
    decay_mult: 0
  }
  inner_product_param {
    num_output: 4096
    weight_filler {
      type: "gaussian"
      std: 0.005
    }
    bias_filler {
      type: "constant"
      value: 1
    }
  }
}
layer {
  name: "relu6"
  type: "ReLU"
  bottom: "fc6"
  top: "fc6"
}
layer {
  name: "drop6"
  type: "Dropout"
  bottom: "fc6"
  top: "fc6"
  dropout_param {
    dropout_ratio: 0.5
  }
}
layer {
  name: "fc7"
  type: "InnerProduct"
  bottom: "fc6"
  top: "fc7"
  param {
    lr_mult: 1
    decay_mult: 1
  }
  param {
    lr_mult: 2
    decay_mult: 0
  }
  inner_product_param {
    num_output: 4096
    weight_filler {
      type: "gaussian"
      std: 0.005
    }
    bias_filler {
      type: "constant"
      value: 1
    }
  }
}
layer {
  name: "relu7"
  type: "ReLU"
  bottom: "fc7"
  top: "fc7"
}
layer {
  name: "drop7"
  type: "Dropout"
  bottom: "fc7"
  top: "fc7"
  dropout_param {
    dropout_ratio: 0.5
  }
}
layer {
  name: "fc8_neutrino"
  type: "InnerProduct"
  bottom: "fc7"
  top: "fc8_neutrino"
  param {
    lr_mult: 1
    decay_mult: 1
  }
  param {
    lr_mult: 2
    decay_mult: 0
  }
  inner_product_param {
    num_output: 2
    weight_filler {
      type: "gaussian"
      std: 0.01
    }
    bias_filler {
      type: "constant"
      value: 0
    }
  }
}
layer {
  name: "accuracy"
  type: "Accuracy"
  bottom: "fc8_neutrino"
  bottom: "label"
  top: "accuracy"
  include {
    phase: TEST
  }
}
layer {
  name: "loss"
  type: "SoftmaxWithLoss"
  bottom: "fc8_neutrino"
  bottom: "label"
  top: "loss"
}
I0528 09:45:22.742290 20954 layer_factory.hpp:77] Creating layer data
I0528 09:45:22.742434 20954 net.cpp:91] Creating Layer data
I0528 09:45:22.742460 20954 net.cpp:399] data -> data
I0528 09:45:22.742476 20954 net.cpp:399] data -> label
I0528 09:45:22.742493 20954 data_transformer.cpp:25] Loading mean file from: /home/jessi12/CNN_local/caffe/data/neutrinodata/imagenet_mean.binaryproto
I0528 09:45:22.742698 20957 db_lmdb.cpp:35] Opened lmdb /home/jessi12/CNN_local/caffe/examples/imagenet/neutrinodata_val_lmdb
I0528 09:45:22.743304 20954 data_layer.cpp:41] output data size: 50,1,224,224
I0528 09:45:22.758719 20954 net.cpp:141] Setting up data
I0528 09:45:22.758752 20954 net.cpp:148] Top shape: 50 1 224 224 (2508800)
I0528 09:45:22.758762 20954 net.cpp:148] Top shape: 50 (50)
I0528 09:45:22.758770 20954 net.cpp:156] Memory required for data: 10035400
I0528 09:45:22.758780 20954 layer_factory.hpp:77] Creating layer label_data_1_split
I0528 09:45:22.758792 20954 net.cpp:91] Creating Layer label_data_1_split
I0528 09:45:22.758800 20954 net.cpp:425] label_data_1_split <- label
I0528 09:45:22.758812 20954 net.cpp:399] label_data_1_split -> label_data_1_split_0
I0528 09:45:22.758827 20954 net.cpp:399] label_data_1_split -> label_data_1_split_1
I0528 09:45:22.758841 20954 net.cpp:141] Setting up label_data_1_split
I0528 09:45:22.758852 20954 net.cpp:148] Top shape: 50 (50)
I0528 09:45:22.758860 20954 net.cpp:148] Top shape: 50 (50)
I0528 09:45:22.758870 20954 net.cpp:156] Memory required for data: 10035800
I0528 09:45:22.758878 20954 layer_factory.hpp:77] Creating layer conv1
I0528 09:45:22.758893 20954 net.cpp:91] Creating Layer conv1
I0528 09:45:22.758903 20954 net.cpp:425] conv1 <- data
I0528 09:45:22.758913 20954 net.cpp:399] conv1 -> conv1
I0528 09:45:22.759099 20954 net.cpp:141] Setting up conv1
I0528 09:45:22.759117 20954 net.cpp:148] Top shape: 50 96 54 54 (13996800)
I0528 09:45:22.759125 20954 net.cpp:156] Memory required for data: 66023000
I0528 09:45:22.759142 20954 layer_factory.hpp:77] Creating layer relu1
I0528 09:45:22.759153 20954 net.cpp:91] Creating Layer relu1
I0528 09:45:22.759161 20954 net.cpp:425] relu1 <- conv1
I0528 09:45:22.759171 20954 net.cpp:386] relu1 -> conv1 (in-place)
I0528 09:45:22.759183 20954 net.cpp:141] Setting up relu1
I0528 09:45:22.759193 20954 net.cpp:148] Top shape: 50 96 54 54 (13996800)
I0528 09:45:22.759201 20954 net.cpp:156] Memory required for data: 122010200
I0528 09:45:22.759208 20954 layer_factory.hpp:77] Creating layer pool1
I0528 09:45:22.759219 20954 net.cpp:91] Creating Layer pool1
I0528 09:45:22.759230 20954 net.cpp:425] pool1 <- conv1
I0528 09:45:22.759240 20954 net.cpp:399] pool1 -> pool1
I0528 09:45:22.759258 20954 net.cpp:141] Setting up pool1
I0528 09:45:22.759268 20954 net.cpp:148] Top shape: 50 96 27 27 (3499200)
I0528 09:45:22.759274 20954 net.cpp:156] Memory required for data: 136007000
I0528 09:45:22.759282 20954 layer_factory.hpp:77] Creating layer norm1
I0528 09:45:22.759294 20954 net.cpp:91] Creating Layer norm1
I0528 09:45:22.759301 20954 net.cpp:425] norm1 <- pool1
I0528 09:45:22.759318 20954 net.cpp:399] norm1 -> norm1
I0528 09:45:22.759351 20954 net.cpp:141] Setting up norm1
I0528 09:45:22.759361 20954 net.cpp:148] Top shape: 50 96 27 27 (3499200)
I0528 09:45:22.759368 20954 net.cpp:156] Memory required for data: 150003800
I0528 09:45:22.759382 20954 layer_factory.hpp:77] Creating layer conv2_changed
I0528 09:45:22.759409 20954 net.cpp:91] Creating Layer conv2_changed
I0528 09:45:22.759419 20954 net.cpp:425] conv2_changed <- norm1
I0528 09:45:22.759430 20954 net.cpp:399] conv2_changed -> conv2_changed
I0528 09:45:22.764590 20954 net.cpp:141] Setting up conv2_changed
I0528 09:45:22.764608 20954 net.cpp:148] Top shape: 50 256 27 27 (9331200)
I0528 09:45:22.764621 20954 net.cpp:156] Memory required for data: 187328600
I0528 09:45:22.764649 20954 layer_factory.hpp:77] Creating layer relu2
I0528 09:45:22.764660 20954 net.cpp:91] Creating Layer relu2
I0528 09:45:22.764668 20954 net.cpp:425] relu2 <- conv2_changed
I0528 09:45:22.764678 20954 net.cpp:386] relu2 -> conv2_changed (in-place)
I0528 09:45:22.764690 20954 net.cpp:141] Setting up relu2
I0528 09:45:22.764700 20954 net.cpp:148] Top shape: 50 256 27 27 (9331200)
I0528 09:45:22.764708 20954 net.cpp:156] Memory required for data: 224653400
I0528 09:45:22.764715 20954 layer_factory.hpp:77] Creating layer pool2
I0528 09:45:22.764727 20954 net.cpp:91] Creating Layer pool2
I0528 09:45:22.764739 20954 net.cpp:425] pool2 <- conv2_changed
I0528 09:45:22.764750 20954 net.cpp:399] pool2 -> pool2
I0528 09:45:22.764765 20954 net.cpp:141] Setting up pool2
I0528 09:45:22.764776 20954 net.cpp:148] Top shape: 50 256 13 13 (2163200)
I0528 09:45:22.764783 20954 net.cpp:156] Memory required for data: 233306200
I0528 09:45:22.764791 20954 layer_factory.hpp:77] Creating layer norm2
I0528 09:45:22.764802 20954 net.cpp:91] Creating Layer norm2
I0528 09:45:22.764811 20954 net.cpp:425] norm2 <- pool2
I0528 09:45:22.764821 20954 net.cpp:399] norm2 -> norm2
I0528 09:45:22.764833 20954 net.cpp:141] Setting up norm2
I0528 09:45:22.764847 20954 net.cpp:148] Top shape: 50 256 13 13 (2163200)
I0528 09:45:22.764854 20954 net.cpp:156] Memory required for data: 241959000
I0528 09:45:22.764863 20954 layer_factory.hpp:77] Creating layer conv3_changed
I0528 09:45:22.764874 20954 net.cpp:91] Creating Layer conv3_changed
I0528 09:45:22.764883 20954 net.cpp:425] conv3_changed <- norm2
I0528 09:45:22.764894 20954 net.cpp:399] conv3_changed -> conv3_changed
I0528 09:45:22.779155 20954 net.cpp:141] Setting up conv3_changed
I0528 09:45:22.779207 20954 net.cpp:148] Top shape: 50 384 13 13 (3244800)
I0528 09:45:22.779216 20954 net.cpp:156] Memory required for data: 254938200
I0528 09:45:22.779232 20954 layer_factory.hpp:77] Creating layer relu3
I0528 09:45:22.779254 20954 net.cpp:91] Creating Layer relu3
I0528 09:45:22.779264 20954 net.cpp:425] relu3 <- conv3_changed
I0528 09:45:22.779275 20954 net.cpp:386] relu3 -> conv3_changed (in-place)
I0528 09:45:22.779290 20954 net.cpp:141] Setting up relu3
I0528 09:45:22.779300 20954 net.cpp:148] Top shape: 50 384 13 13 (3244800)
I0528 09:45:22.779307 20954 net.cpp:156] Memory required for data: 267917400
I0528 09:45:22.779323 20954 layer_factory.hpp:77] Creating layer conv4
I0528 09:45:22.779337 20954 net.cpp:91] Creating Layer conv4
I0528 09:45:22.779361 20954 net.cpp:425] conv4 <- conv3_changed
I0528 09:45:22.779372 20954 net.cpp:399] conv4 -> conv4
I0528 09:45:22.790253 20954 net.cpp:141] Setting up conv4
I0528 09:45:22.790277 20954 net.cpp:148] Top shape: 50 384 13 13 (3244800)
I0528 09:45:22.790285 20954 net.cpp:156] Memory required for data: 280896600
I0528 09:45:22.790297 20954 layer_factory.hpp:77] Creating layer relu4
I0528 09:45:22.790308 20954 net.cpp:91] Creating Layer relu4
I0528 09:45:22.790333 20954 net.cpp:425] relu4 <- conv4
I0528 09:45:22.790344 20954 net.cpp:386] relu4 -> conv4 (in-place)
I0528 09:45:22.790357 20954 net.cpp:141] Setting up relu4
I0528 09:45:22.790367 20954 net.cpp:148] Top shape: 50 384 13 13 (3244800)
I0528 09:45:22.790374 20954 net.cpp:156] Memory required for data: 293875800
I0528 09:45:22.790382 20954 layer_factory.hpp:77] Creating layer conv5
I0528 09:45:22.790396 20954 net.cpp:91] Creating Layer conv5
I0528 09:45:22.790405 20954 net.cpp:425] conv5 <- conv4
I0528 09:45:22.790416 20954 net.cpp:399] conv5 -> conv5
I0528 09:45:22.797577 20954 net.cpp:141] Setting up conv5
I0528 09:45:22.797615 20954 net.cpp:148] Top shape: 50 256 13 13 (2163200)
I0528 09:45:22.797641 20954 net.cpp:156] Memory required for data: 302528600
I0528 09:45:22.797672 20954 layer_factory.hpp:77] Creating layer relu5
I0528 09:45:22.797684 20954 net.cpp:91] Creating Layer relu5
I0528 09:45:22.797693 20954 net.cpp:425] relu5 <- conv5
I0528 09:45:22.797703 20954 net.cpp:386] relu5 -> conv5 (in-place)
I0528 09:45:22.797716 20954 net.cpp:141] Setting up relu5
I0528 09:45:22.797726 20954 net.cpp:148] Top shape: 50 256 13 13 (2163200)
I0528 09:45:22.797734 20954 net.cpp:156] Memory required for data: 311181400
I0528 09:45:22.797740 20954 layer_factory.hpp:77] Creating layer pool5
I0528 09:45:22.797755 20954 net.cpp:91] Creating Layer pool5
I0528 09:45:22.797763 20954 net.cpp:425] pool5 <- conv5
I0528 09:45:22.797775 20954 net.cpp:399] pool5 -> pool5
I0528 09:45:22.797791 20954 net.cpp:141] Setting up pool5
I0528 09:45:22.797801 20954 net.cpp:148] Top shape: 50 256 6 6 (460800)
I0528 09:45:22.797808 20954 net.cpp:156] Memory required for data: 313024600
I0528 09:45:22.797816 20954 layer_factory.hpp:77] Creating layer fc6
I0528 09:45:22.797830 20954 net.cpp:91] Creating Layer fc6
I0528 09:45:22.797838 20954 net.cpp:425] fc6 <- pool5
I0528 09:45:22.797850 20954 net.cpp:399] fc6 -> fc6
I0528 09:45:23.328024 20954 net.cpp:141] Setting up fc6
I0528 09:45:23.328094 20954 net.cpp:148] Top shape: 50 4096 (204800)
I0528 09:45:23.328102 20954 net.cpp:156] Memory required for data: 313843800
I0528 09:45:23.328117 20954 layer_factory.hpp:77] Creating layer relu6
I0528 09:45:23.328135 20954 net.cpp:91] Creating Layer relu6
I0528 09:45:23.328145 20954 net.cpp:425] relu6 <- fc6
I0528 09:45:23.328160 20954 net.cpp:386] relu6 -> fc6 (in-place)
I0528 09:45:23.328176 20954 net.cpp:141] Setting up relu6
I0528 09:45:23.328186 20954 net.cpp:148] Top shape: 50 4096 (204800)
I0528 09:45:23.328192 20954 net.cpp:156] Memory required for data: 314663000
I0528 09:45:23.328200 20954 layer_factory.hpp:77] Creating layer drop6
I0528 09:45:23.328212 20954 net.cpp:91] Creating Layer drop6
I0528 09:45:23.328222 20954 net.cpp:425] drop6 <- fc6
I0528 09:45:23.328232 20954 net.cpp:386] drop6 -> fc6 (in-place)
I0528 09:45:23.328245 20954 net.cpp:141] Setting up drop6
I0528 09:45:23.328255 20954 net.cpp:148] Top shape: 50 4096 (204800)
I0528 09:45:23.328263 20954 net.cpp:156] Memory required for data: 315482200
I0528 09:45:23.328269 20954 layer_factory.hpp:77] Creating layer fc7
I0528 09:45:23.328284 20954 net.cpp:91] Creating Layer fc7
I0528 09:45:23.328292 20954 net.cpp:425] fc7 <- fc6
I0528 09:45:23.328305 20954 net.cpp:399] fc7 -> fc7
I0528 09:45:23.564159 20954 net.cpp:141] Setting up fc7
I0528 09:45:23.564229 20954 net.cpp:148] Top shape: 50 4096 (204800)
I0528 09:45:23.564237 20954 net.cpp:156] Memory required for data: 316301400
I0528 09:45:23.564254 20954 layer_factory.hpp:77] Creating layer relu7
I0528 09:45:23.564270 20954 net.cpp:91] Creating Layer relu7
I0528 09:45:23.564280 20954 net.cpp:425] relu7 <- fc7
I0528 09:45:23.564293 20954 net.cpp:386] relu7 -> fc7 (in-place)
I0528 09:45:23.564318 20954 net.cpp:141] Setting up relu7
I0528 09:45:23.564329 20954 net.cpp:148] Top shape: 50 4096 (204800)
I0528 09:45:23.564337 20954 net.cpp:156] Memory required for data: 317120600
I0528 09:45:23.564344 20954 layer_factory.hpp:77] Creating layer drop7
I0528 09:45:23.564357 20954 net.cpp:91] Creating Layer drop7
I0528 09:45:23.564364 20954 net.cpp:425] drop7 <- fc7
I0528 09:45:23.564375 20954 net.cpp:386] drop7 -> fc7 (in-place)
I0528 09:45:23.564389 20954 net.cpp:141] Setting up drop7
I0528 09:45:23.564399 20954 net.cpp:148] Top shape: 50 4096 (204800)
I0528 09:45:23.564405 20954 net.cpp:156] Memory required for data: 317939800
I0528 09:45:23.564414 20954 layer_factory.hpp:77] Creating layer fc8_neutrino
I0528 09:45:23.564427 20954 net.cpp:91] Creating Layer fc8_neutrino
I0528 09:45:23.564435 20954 net.cpp:425] fc8_neutrino <- fc7
I0528 09:45:23.564446 20954 net.cpp:399] fc8_neutrino -> fc8_neutrino
I0528 09:45:23.564579 20954 net.cpp:141] Setting up fc8_neutrino
I0528 09:45:23.564610 20954 net.cpp:148] Top shape: 50 2 (100)
I0528 09:45:23.564632 20954 net.cpp:156] Memory required for data: 317940200
I0528 09:45:23.564643 20954 layer_factory.hpp:77] Creating layer fc8_neutrino_fc8_neutrino_0_split
I0528 09:45:23.564654 20954 net.cpp:91] Creating Layer fc8_neutrino_fc8_neutrino_0_split
I0528 09:45:23.564662 20954 net.cpp:425] fc8_neutrino_fc8_neutrino_0_split <- fc8_neutrino
I0528 09:45:23.564673 20954 net.cpp:399] fc8_neutrino_fc8_neutrino_0_split -> fc8_neutrino_fc8_neutrino_0_split_0
I0528 09:45:23.564685 20954 net.cpp:399] fc8_neutrino_fc8_neutrino_0_split -> fc8_neutrino_fc8_neutrino_0_split_1
I0528 09:45:23.564698 20954 net.cpp:141] Setting up fc8_neutrino_fc8_neutrino_0_split
I0528 09:45:23.564707 20954 net.cpp:148] Top shape: 50 2 (100)
I0528 09:45:23.564716 20954 net.cpp:148] Top shape: 50 2 (100)
I0528 09:45:23.564723 20954 net.cpp:156] Memory required for data: 317941000
I0528 09:45:23.564730 20954 layer_factory.hpp:77] Creating layer accuracy
I0528 09:45:23.564743 20954 net.cpp:91] Creating Layer accuracy
I0528 09:45:23.564751 20954 net.cpp:425] accuracy <- fc8_neutrino_fc8_neutrino_0_split_0
I0528 09:45:23.564760 20954 net.cpp:425] accuracy <- label_data_1_split_0
I0528 09:45:23.564771 20954 net.cpp:399] accuracy -> accuracy
…
