…
I0531 12:14:08.658886 32757 net.cpp:313] The NetState phase (0) differed from the phase (1) specified by a rule in layer accuracy
I0531 12:14:08.659137 32757 net.cpp:49] Initializing net from parameters: 
name: "CaffeNet"
state {
  phase: TRAIN
}
layer {
  name: "data"
  type: "Data"
  top: "data"
  top: "label"
  include {
    phase: TRAIN
  }
  transform_param {
    mirror: true
    crop_size: 224
    mean_file: "/home/jessi12/CNN_local/caffe/data/neutrinodata/imagenet_mean.binaryproto"
  }
  data_param {
    source: "/home/jessi12/CNN_local/caffe/examples/imagenet/neutrinodata_train_lmdb"
    batch_size: 50
    backend: LMDB
  }
}
layer {
  name: "conv1"
  type: "Convolution"
  bottom: "data"
  top: "conv1"
  param {
    lr_mult: 1
    decay_mult: 1
  }
  param {
    lr_mult: 2
    decay_mult: 0
  }
  convolution_param {
    num_output: 96
    kernel_size: 11
    stride: 4
    weight_filler {
      type: "gaussian"
      std: 0.01
    }
    bias_filler {
      type: "constant"
      value: 0
    }
  }
}
layer {
  name: "relu1"
  type: "ReLU"
  bottom: "conv1"
  top: "conv1"
}
layer {
  name: "pool1"
  type: "Pooling"
  bottom: "conv1"
  top: "pool1"
  pooling_param {
    pool: MAX
    kernel_size: 3
    stride: 2
  }
}
layer {
  name: "norm1"
  type: "LRN"
  bottom: "pool1"
  top: "norm1"
  lrn_param {
    local_size: 5
    alpha: 0.0001
    beta: 0.75
  }
}
layer {
  name: "conv2_changed"
  type: "Convolution"
  bottom: "norm1"
  top: "conv2_changed"
  param {
    lr_mult: 1
    decay_mult: 1
  }
  param {
    lr_mult: 2
    decay_mult: 0
  }
  convolution_param {
    num_output: 256
    pad: 2
    kernel_size: 5
    group: 2
    weight_filler {
      type: "gaussian"
      std: 0.01
    }
    bias_filler {
      type: "constant"
      value: 1
    }
  }
}
layer {
  name: "relu2"
  type: "ReLU"
  bottom: "conv2_changed"
  top: "conv2_changed"
}
layer {
  name: "pool2"
  type: "Pooling"
  bottom: "conv2_changed"
  top: "pool2"
  pooling_param {
    pool: MAX
    kernel_size: 3
    stride: 2
  }
}
layer {
  name: "norm2"
  type: "LRN"
  bottom: "pool2"
  top: "norm2"
  lrn_param {
    local_size: 5
    alpha: 0.0001
    beta: 0.75
  }
}
layer {
  name: "conv3_changed"
  type: "Convolution"
  bottom: "norm2"
  top: "conv3_changed"
  param {
    lr_mult: 1
    decay_mult: 1
  }
  param {
    lr_mult: 2
    decay_mult: 0
  }
  convolution_param {
    num_output: 384
    pad: 1
    kernel_size: 3
    weight_filler {
      type: "gaussian"
      std: 0.01
    }
    bias_filler {
      type: "constant"
      value: 0
    }
  }
}
layer {
  name: "relu3"
  type: "ReLU"
  bottom: "conv3_changed"
  top: "conv3_changed"
}
layer {
  name: "conv4"
  type: "Convolution"
  bottom: "conv3_changed"
  top: "conv4"
  param {
    lr_mult: 1
    decay_mult: 1
  }
  param {
    lr_mult: 2
    decay_mult: 0
  }
  convolution_param {
    num_output: 384
    pad: 1
    kernel_size: 3
    group: 2
    weight_filler {
      type: "gaussian"
      std: 0.01
    }
    bias_filler {
      type: "constant"
      value: 1
    }
  }
}
layer {
  name: "relu4"
  type: "ReLU"
  bottom: "conv4"
  top: "conv4"
}
layer {
  name: "conv5"
  type: "Convolution"
  bottom: "conv4"
  top: "conv5"
  param {
    lr_mult: 1
    decay_mult: 1
  }
  param {
    lr_mult: 2
    decay_mult: 0
  }
  convolution_param {
    num_output: 256
    pad: 1
    kernel_size: 3
    group: 2
    weight_filler {
      type: "gaussian"
      std: 0.01
    }
    bias_filler {
      type: "constant"
      value: 1
    }
  }
}
layer {
  name: "relu5"
  type: "ReLU"
  bottom: "conv5"
  top: "conv5"
}
layer {
  name: "pool5"
  type: "Pooling"
  bottom: "conv5"
  top: "pool5"
  pooling_param {
    pool: MAX
    kernel_size: 3
    stride: 2
  }
}
layer {
  name: "fc6"
  type: "InnerProduct"
  bottom: "pool5"
  top: "fc6"
  param {
    lr_mult: 1
    decay_mult: 1
  }
  param {
    lr_mult: 2
    decay_mult: 0
  }
  inner_product_param {
    num_output: 4096
    weight_filler {
      type: "gaussian"
      std: 0.005
    }
    bias_filler {
      type: "constant"
      value: 1
    }
  }
}
layer {
  name: "relu6"
  type: "ReLU"
  bottom: "fc6"
  top: "fc6"
}
layer {
  name: "drop6"
  type: "Dropout"
  bottom: "fc6"
  top: "fc6"
  dropout_param {
    dropout_ratio: 0.5
  }
}
layer {
  name: "fc7"
  type: "InnerProduct"
  bottom: "fc6"
  top: "fc7"
  param {
    lr_mult: 1
    decay_mult: 1
  }
  param {
    lr_mult: 2
    decay_mult: 0
  }
  inner_product_param {
    num_output: 4096
    weight_filler {
      type: "gaussian"
      std: 0.005
    }
    bias_filler {
      type: "constant"
      value: 1
    }
  }
}
layer {
  name: "relu7"
  type: "ReLU"
  bottom: "fc7"
  top: "fc7"
}
layer {
  name: "drop7"
  type: "Dropout"
  bottom: "fc7"
  top: "fc7"
  dropout_param {
    dropout_ratio: 0.5
  }
}
layer {
  name: "fc8_neutrino"
  type: "InnerProduct"
  bottom: "fc7"
  top: "fc8_neutrino"
  param {
    lr_mult: 1
    decay_mult: 1
  }
  param {
    lr_mult: 2
    decay_mult: 0
  }
  inner_product_param {
    num_output: 2
    weight_filler {
      type: "gaussian"
      std: 0.01
    }
    bias_filler {
      type: "constant"
      value: 0
    }
  }
}
layer {
  name: "accuracy"
  type: "Accuracy"
  bottom: "fc8_neutrino"
  bottom: "label"
  top: "accuracy"
  include {
    phase: TRAIN
  }
}
layer {
  name: "loss"
  type: "SoftmaxWithLoss"
  bottom: "fc8_neutrino"
  bottom: "label"
  top: "loss"
}
I0531 12:14:08.659360 32757 layer_factory.hpp:77] Creating layer data
I0531 12:14:08.660241 32757 net.cpp:91] Creating Layer data
I0531 12:14:08.660274 32757 net.cpp:399] data -> data
I0531 12:14:08.660480 32757 net.cpp:399] data -> label
I0531 12:14:08.660516 32757 data_transformer.cpp:25] Loading mean file from: /home/jessi12/CNN_local/caffe/data/neutrinodata/imagenet_mean.binaryproto
I0531 12:14:08.660706 32758 db_lmdb.cpp:35] Opened lmdb /home/jessi12/CNN_local/caffe/examples/imagenet/neutrinodata_train_lmdb
I0531 12:14:08.661829 32757 data_layer.cpp:41] output data size: 50,1,224,224
I0531 12:14:08.678331 32757 net.cpp:141] Setting up data
I0531 12:14:08.678361 32757 net.cpp:148] Top shape: 50 1 224 224 (2508800)
I0531 12:14:08.678375 32757 net.cpp:148] Top shape: 50 (50)
I0531 12:14:08.678385 32757 net.cpp:156] Memory required for data: 10035400
I0531 12:14:08.678401 32757 layer_factory.hpp:77] Creating layer label_data_1_split
I0531 12:14:08.678416 32757 net.cpp:91] Creating Layer label_data_1_split
I0531 12:14:08.678428 32757 net.cpp:425] label_data_1_split <- label
I0531 12:14:08.678447 32757 net.cpp:399] label_data_1_split -> label_data_1_split_0
I0531 12:14:08.678468 32757 net.cpp:399] label_data_1_split -> label_data_1_split_1
I0531 12:14:08.678486 32757 net.cpp:141] Setting up label_data_1_split
I0531 12:14:08.678499 32757 net.cpp:148] Top shape: 50 (50)
I0531 12:14:08.678511 32757 net.cpp:148] Top shape: 50 (50)
I0531 12:14:08.678520 32757 net.cpp:156] Memory required for data: 10035800
I0531 12:14:08.678529 32757 layer_factory.hpp:77] Creating layer conv1
I0531 12:14:08.678555 32757 net.cpp:91] Creating Layer conv1
I0531 12:14:08.678567 32757 net.cpp:425] conv1 <- data
I0531 12:14:08.678586 32757 net.cpp:399] conv1 -> conv1
I0531 12:14:08.678886 32757 net.cpp:141] Setting up conv1
I0531 12:14:08.678905 32757 net.cpp:148] Top shape: 50 96 54 54 (13996800)
I0531 12:14:08.678915 32757 net.cpp:156] Memory required for data: 66023000
I0531 12:14:08.678952 32757 layer_factory.hpp:77] Creating layer relu1
I0531 12:14:08.678977 32757 net.cpp:91] Creating Layer relu1
I0531 12:14:08.678988 32757 net.cpp:425] relu1 <- conv1
I0531 12:14:08.679000 32757 net.cpp:386] relu1 -> conv1 (in-place)
I0531 12:14:08.679015 32757 net.cpp:141] Setting up relu1
I0531 12:14:08.679028 32757 net.cpp:148] Top shape: 50 96 54 54 (13996800)
I0531 12:14:08.679039 32757 net.cpp:156] Memory required for data: 122010200
I0531 12:14:08.679049 32757 layer_factory.hpp:77] Creating layer pool1
I0531 12:14:08.679064 32757 net.cpp:91] Creating Layer pool1
I0531 12:14:08.679074 32757 net.cpp:425] pool1 <- conv1
I0531 12:14:08.679085 32757 net.cpp:399] pool1 -> pool1
I0531 12:14:08.679116 32757 net.cpp:141] Setting up pool1
I0531 12:14:08.679131 32757 net.cpp:148] Top shape: 50 96 27 27 (3499200)
I0531 12:14:08.679142 32757 net.cpp:156] Memory required for data: 136007000
I0531 12:14:08.679153 32757 layer_factory.hpp:77] Creating layer norm1
I0531 12:14:08.679167 32757 net.cpp:91] Creating Layer norm1
I0531 12:14:08.679177 32757 net.cpp:425] norm1 <- pool1
I0531 12:14:08.679199 32757 net.cpp:399] norm1 -> norm1
I0531 12:14:08.679227 32757 net.cpp:141] Setting up norm1
I0531 12:14:08.679241 32757 net.cpp:148] Top shape: 50 96 27 27 (3499200)
I0531 12:14:08.679252 32757 net.cpp:156] Memory required for data: 150003800
I0531 12:14:08.679263 32757 layer_factory.hpp:77] Creating layer conv2_changed
I0531 12:14:08.679280 32757 net.cpp:91] Creating Layer conv2_changed
I0531 12:14:08.679289 32757 net.cpp:425] conv2_changed <- norm1
I0531 12:14:08.679302 32757 net.cpp:399] conv2_changed -> conv2_changed
I0531 12:14:08.685171 32757 net.cpp:141] Setting up conv2_changed
I0531 12:14:08.685200 32757 net.cpp:148] Top shape: 50 256 27 27 (9331200)
I0531 12:14:08.685210 32757 net.cpp:156] Memory required for data: 187328600
I0531 12:14:08.685231 32757 layer_factory.hpp:77] Creating layer relu2
I0531 12:14:08.685245 32757 net.cpp:91] Creating Layer relu2
I0531 12:14:08.685255 32757 net.cpp:425] relu2 <- conv2_changed
I0531 12:14:08.685266 32757 net.cpp:386] relu2 -> conv2_changed (in-place)
I0531 12:14:08.685281 32757 net.cpp:141] Setting up relu2
I0531 12:14:08.685293 32757 net.cpp:148] Top shape: 50 256 27 27 (9331200)
I0531 12:14:08.685303 32757 net.cpp:156] Memory required for data: 224653400
I0531 12:14:08.685312 32757 layer_factory.hpp:77] Creating layer pool2
I0531 12:14:08.685330 32757 net.cpp:91] Creating Layer pool2
I0531 12:14:08.685343 32757 net.cpp:425] pool2 <- conv2_changed
I0531 12:14:08.685356 32757 net.cpp:399] pool2 -> pool2
I0531 12:14:08.685376 32757 net.cpp:141] Setting up pool2
I0531 12:14:08.685389 32757 net.cpp:148] Top shape: 50 256 13 13 (2163200)
I0531 12:14:08.685398 32757 net.cpp:156] Memory required for data: 233306200
I0531 12:14:08.685408 32757 layer_factory.hpp:77] Creating layer norm2
I0531 12:14:08.685421 32757 net.cpp:91] Creating Layer norm2
I0531 12:14:08.685431 32757 net.cpp:425] norm2 <- pool2
I0531 12:14:08.685443 32757 net.cpp:399] norm2 -> norm2
I0531 12:14:08.685462 32757 net.cpp:141] Setting up norm2
I0531 12:14:08.685475 32757 net.cpp:148] Top shape: 50 256 13 13 (2163200)
I0531 12:14:08.685484 32757 net.cpp:156] Memory required for data: 241959000
I0531 12:14:08.685494 32757 layer_factory.hpp:77] Creating layer conv3_changed
I0531 12:14:08.685509 32757 net.cpp:91] Creating Layer conv3_changed
I0531 12:14:08.685520 32757 net.cpp:425] conv3_changed <- norm2
I0531 12:14:08.685534 32757 net.cpp:399] conv3_changed -> conv3_changed
I0531 12:14:08.701969 32757 net.cpp:141] Setting up conv3_changed
I0531 12:14:08.702013 32757 net.cpp:148] Top shape: 50 384 13 13 (3244800)
I0531 12:14:08.702023 32757 net.cpp:156] Memory required for data: 254938200
I0531 12:14:08.702046 32757 layer_factory.hpp:77] Creating layer relu3
I0531 12:14:08.702069 32757 net.cpp:91] Creating Layer relu3
I0531 12:14:08.702082 32757 net.cpp:425] relu3 <- conv3_changed
I0531 12:14:08.702098 32757 net.cpp:386] relu3 -> conv3_changed (in-place)
I0531 12:14:08.702117 32757 net.cpp:141] Setting up relu3
I0531 12:14:08.702139 32757 net.cpp:148] Top shape: 50 384 13 13 (3244800)
I0531 12:14:08.702160 32757 net.cpp:156] Memory required for data: 267917400
I0531 12:14:08.702170 32757 layer_factory.hpp:77] Creating layer conv4
I0531 12:14:08.702198 32757 net.cpp:91] Creating Layer conv4
I0531 12:14:08.702209 32757 net.cpp:425] conv4 <- conv3_changed
I0531 12:14:08.702227 32757 net.cpp:399] conv4 -> conv4
I0531 12:14:08.714712 32757 net.cpp:141] Setting up conv4
I0531 12:14:08.714737 32757 net.cpp:148] Top shape: 50 384 13 13 (3244800)
I0531 12:14:08.714747 32757 net.cpp:156] Memory required for data: 280896600
I0531 12:14:08.714761 32757 layer_factory.hpp:77] Creating layer relu4
I0531 12:14:08.714776 32757 net.cpp:91] Creating Layer relu4
I0531 12:14:08.714787 32757 net.cpp:425] relu4 <- conv4
I0531 12:14:08.714799 32757 net.cpp:386] relu4 -> conv4 (in-place)
I0531 12:14:08.714814 32757 net.cpp:141] Setting up relu4
I0531 12:14:08.714826 32757 net.cpp:148] Top shape: 50 384 13 13 (3244800)
I0531 12:14:08.714835 32757 net.cpp:156] Memory required for data: 293875800
I0531 12:14:08.714846 32757 layer_factory.hpp:77] Creating layer conv5
I0531 12:14:08.714867 32757 net.cpp:91] Creating Layer conv5
I0531 12:14:08.714879 32757 net.cpp:425] conv5 <- conv4
I0531 12:14:08.714892 32757 net.cpp:399] conv5 -> conv5
I0531 12:14:08.723207 32757 net.cpp:141] Setting up conv5
I0531 12:14:08.723230 32757 net.cpp:148] Top shape: 50 256 13 13 (2163200)
I0531 12:14:08.723240 32757 net.cpp:156] Memory required for data: 302528600
I0531 12:14:08.723260 32757 layer_factory.hpp:77] Creating layer relu5
I0531 12:14:08.723278 32757 net.cpp:91] Creating Layer relu5
I0531 12:14:08.723289 32757 net.cpp:425] relu5 <- conv5
I0531 12:14:08.723302 32757 net.cpp:386] relu5 -> conv5 (in-place)
I0531 12:14:08.723320 32757 net.cpp:141] Setting up relu5
I0531 12:14:08.723331 32757 net.cpp:148] Top shape: 50 256 13 13 (2163200)
I0531 12:14:08.723340 32757 net.cpp:156] Memory required for data: 311181400
I0531 12:14:08.723351 32757 layer_factory.hpp:77] Creating layer pool5
I0531 12:14:08.723369 32757 net.cpp:91] Creating Layer pool5
I0531 12:14:08.723379 32757 net.cpp:425] pool5 <- conv5
I0531 12:14:08.723392 32757 net.cpp:399] pool5 -> pool5
I0531 12:14:08.723414 32757 net.cpp:141] Setting up pool5
I0531 12:14:08.723428 32757 net.cpp:148] Top shape: 50 256 6 6 (460800)
I0531 12:14:08.723436 32757 net.cpp:156] Memory required for data: 313024600
I0531 12:14:08.723446 32757 layer_factory.hpp:77] Creating layer fc6
I0531 12:14:08.723474 32757 net.cpp:91] Creating Layer fc6
I0531 12:14:08.723485 32757 net.cpp:425] fc6 <- pool5
I0531 12:14:08.723500 32757 net.cpp:399] fc6 -> fc6
I0531 12:14:09.372272 32757 net.cpp:141] Setting up fc6
I0531 12:14:09.372328 32757 net.cpp:148] Top shape: 50 4096 (204800)
I0531 12:14:09.372336 32757 net.cpp:156] Memory required for data: 313843800
I0531 12:14:09.372355 32757 layer_factory.hpp:77] Creating layer relu6
I0531 12:14:09.372375 32757 net.cpp:91] Creating Layer relu6
I0531 12:14:09.372386 32757 net.cpp:425] relu6 <- fc6
I0531 12:14:09.372405 32757 net.cpp:386] relu6 -> fc6 (in-place)
I0531 12:14:09.372426 32757 net.cpp:141] Setting up relu6
I0531 12:14:09.372437 32757 net.cpp:148] Top shape: 50 4096 (204800)
I0531 12:14:09.372444 32757 net.cpp:156] Memory required for data: 314663000
I0531 12:14:09.372452 32757 layer_factory.hpp:77] Creating layer drop6
I0531 12:14:09.372465 32757 net.cpp:91] Creating Layer drop6
I0531 12:14:09.372486 32757 net.cpp:425] drop6 <- fc6
I0531 12:14:09.372498 32757 net.cpp:386] drop6 -> fc6 (in-place)
I0531 12:14:09.372529 32757 net.cpp:141] Setting up drop6
I0531 12:14:09.372539 32757 net.cpp:148] Top shape: 50 4096 (204800)
I0531 12:14:09.372547 32757 net.cpp:156] Memory required for data: 315482200
I0531 12:14:09.372568 32757 layer_factory.hpp:77] Creating layer fc7
I0531 12:14:09.372586 32757 net.cpp:91] Creating Layer fc7
I0531 12:14:09.372596 32757 net.cpp:425] fc7 <- fc6
I0531 12:14:09.372611 32757 net.cpp:399] fc7 -> fc7
I0531 12:14:09.613304 32757 net.cpp:141] Setting up fc7
I0531 12:14:09.613371 32757 net.cpp:148] Top shape: 50 4096 (204800)
I0531 12:14:09.613395 32757 net.cpp:156] Memory required for data: 316301400
I0531 12:14:09.613414 32757 layer_factory.hpp:77] Creating layer relu7
I0531 12:14:09.613435 32757 net.cpp:91] Creating Layer relu7
I0531 12:14:09.613445 32757 net.cpp:425] relu7 <- fc7
I0531 12:14:09.613461 32757 net.cpp:386] relu7 -> fc7 (in-place)
I0531 12:14:09.613481 32757 net.cpp:141] Setting up relu7
I0531 12:14:09.613492 32757 net.cpp:148] Top shape: 50 4096 (204800)
I0531 12:14:09.613499 32757 net.cpp:156] Memory required for data: 317120600
I0531 12:14:09.613507 32757 layer_factory.hpp:77] Creating layer drop7
I0531 12:14:09.613523 32757 net.cpp:91] Creating Layer drop7
I0531 12:14:09.613531 32757 net.cpp:425] drop7 <- fc7
I0531 12:14:09.613541 32757 net.cpp:386] drop7 -> fc7 (in-place)
I0531 12:14:09.613557 32757 net.cpp:141] Setting up drop7
I0531 12:14:09.613567 32757 net.cpp:148] Top shape: 50 4096 (204800)
I0531 12:14:09.613574 32757 net.cpp:156] Memory required for data: 317939800
I0531 12:14:09.613584 32757 layer_factory.hpp:77] Creating layer fc8_neutrino
I0531 12:14:09.613600 32757 net.cpp:91] Creating Layer fc8_neutrino
I0531 12:14:09.613608 32757 net.cpp:425] fc8_neutrino <- fc7
I0531 12:14:09.613620 32757 net.cpp:399] fc8_neutrino -> fc8_neutrino
I0531 12:14:09.613768 32757 net.cpp:141] Setting up fc8_neutrino
I0531 12:14:09.613782 32757 net.cpp:148] Top shape: 50 2 (100)
I0531 12:14:09.613790 32757 net.cpp:156] Memory required for data: 317940200
I0531 12:14:09.613801 32757 layer_factory.hpp:77] Creating layer fc8_neutrino_fc8_neutrino_0_split
I0531 12:14:09.613816 32757 net.cpp:91] Creating Layer fc8_neutrino_fc8_neutrino_0_split
I0531 12:14:09.613824 32757 net.cpp:425] fc8_neutrino_fc8_neutrino_0_split <- fc8_neutrino
I0531 12:14:09.613836 32757 net.cpp:399] fc8_neutrino_fc8_neutrino_0_split -> fc8_neutrino_fc8_neutrino_0_split_0
I0531 12:14:09.613847 32757 net.cpp:399] fc8_neutrino_fc8_neutrino_0_split -> fc8_neutrino_fc8_neutrino_0_split_1
I0531 12:14:09.613862 32757 net.cpp:141] Setting up fc8_neutrino_fc8_neutrino_0_split
I0531 12:14:09.613870 32757 net.cpp:148] Top shape: 50 2 (100)
I0531 12:14:09.613880 32757 net.cpp:148] Top shape: 50 2 (100)
I0531 12:14:09.613888 32757 net.cpp:156] Memory required for data: 317941000
I0531 12:14:09.613895 32757 layer_factory.hpp:77] Creating layer accuracy
I0531 12:14:09.613911 32757 net.cpp:91] Creating Layer accuracy
I0531 12:14:09.613920 32757 net.cpp:425] accuracy <- fc8_neutrino_fc8_neutrino_0_split_0
I0531 12:14:09.613930 32757 net.cpp:425] accuracy <- label_data_1_split_0
I0531 12:14:09.613945 32757 net.cpp:399] accuracy -> accuracy
…
