…
I0527 11:00:19.328954 14186 net.cpp:313] The NetState phase (0) differed from the phase (1) specified by a rule in layer accuracy
I0527 11:00:19.329151 14186 net.cpp:49] Initializing net from parameters: 
name: "CaffeNet"
state {
  phase: TRAIN
}
layer {
  name: "data"
  type: "Data"
  top: "data"
  top: "label"
  include {
    phase: TRAIN
  }
  transform_param {
    mirror: true
    crop_size: 224
    mean_file: "/home/jessi12/CNN_local/caffe/data/neutrinodata/imagenet_mean.binaryproto"
  }
  data_param {
    source: "/home/jessi12/CNN_local/caffe/examples/imagenet/neutrinodata_train_lmdb"
    batch_size: 64
    backend: LMDB
  }
}
layer {
  name: "conv1"
  type: "Convolution"
  bottom: "data"
  top: "conv1"
  param {
    lr_mult: 1
    decay_mult: 1
  }
  param {
    lr_mult: 2
    decay_mult: 0
  }
  convolution_param {
    num_output: 96
    kernel_size: 11
    stride: 4
    weight_filler {
      type: "gaussian"
      std: 0.01
    }
    bias_filler {
      type: "constant"
      value: 0
    }
  }
}
layer {
  name: "relu1"
  type: "ReLU"
  bottom: "conv1"
  top: "conv1"
}
layer {
  name: "pool1"
  type: "Pooling"
  bottom: "conv1"
  top: "pool1"
  pooling_param {
    pool: MAX
    kernel_size: 3
    stride: 2
  }
}
layer {
  name: "norm1"
  type: "LRN"
  bottom: "pool1"
  top: "norm1"
  lrn_param {
    local_size: 5
    alpha: 0.0001
    beta: 0.75
  }
}
layer {
  name: "conv2_changed"
  type: "Convolution"
  bottom: "norm1"
  top: "conv2_changed"
  param {
    lr_mult: 1
    decay_mult: 1
  }
  param {
    lr_mult: 2
    decay_mult: 0
  }
  convolution_param {
    num_output: 256
    pad: 2
    kernel_size: 5
    group: 2
    weight_filler {
      type: "gaussian"
      std: 0.01
    }
    bias_filler {
      type: "constant"
      value: 1
    }
  }
}
layer {
  name: "relu2"
  type: "ReLU"
  bottom: "conv2_changed"
  top: "conv2_changed"
}
layer {
  name: "pool2"
  type: "Pooling"
  bottom: "conv2_changed"
  top: "pool2"
  pooling_param {
    pool: MAX
    kernel_size: 3
    stride: 2
  }
}
layer {
  name: "norm2"
  type: "LRN"
  bottom: "pool2"
  top: "norm2"
  lrn_param {
    local_size: 5
    alpha: 0.0001
    beta: 0.75
  }
}
layer {
  name: "conv3_changed"
  type: "Convolution"
  bottom: "norm2"
  top: "conv3_changed"
  param {
    lr_mult: 1
    decay_mult: 1
  }
  param {
    lr_mult: 2
    decay_mult: 0
  }
  convolution_param {
    num_output: 384
    pad: 1
    kernel_size: 3
    weight_filler {
      type: "gaussian"
      std: 0.01
    }
    bias_filler {
      type: "constant"
      value: 0
    }
  }
}
layer {
  name: "relu3"
  type: "ReLU"
  bottom: "conv3_changed"
  top: "conv3_changed"
}
layer {
  name: "conv4"
  type: "Convolution"
  bottom: "conv3_changed"
  top: "conv4"
  param {
    lr_mult: 1
    decay_mult: 1
  }
  param {
    lr_mult: 2
    decay_mult: 0
  }
  convolution_param {
    num_output: 384
    pad: 1
    kernel_size: 3
    group: 2
    weight_filler {
      type: "gaussian"
      std: 0.01
    }
    bias_filler {
      type: "constant"
      value: 1
    }
  }
}
layer {
  name: "relu4"
  type: "ReLU"
  bottom: "conv4"
  top: "conv4"
}
layer {
  name: "conv5"
  type: "Convolution"
  bottom: "conv4"
  top: "conv5"
  param {
    lr_mult: 1
    decay_mult: 1
  }
  param {
    lr_mult: 2
    decay_mult: 0
  }
  convolution_param {
    num_output: 256
    pad: 1
    kernel_size: 3
    group: 2
    weight_filler {
      type: "gaussian"
      std: 0.01
    }
    bias_filler {
      type: "constant"
      value: 1
    }
  }
}
layer {
  name: "relu5"
  type: "ReLU"
  bottom: "conv5"
  top: "conv5"
}
layer {
  name: "pool5"
  type: "Pooling"
  bottom: "conv5"
  top: "pool5"
  pooling_param {
    pool: MAX
    kernel_size: 3
    stride: 2
  }
}
layer {
  name: "fc6"
  type: "InnerProduct"
  bottom: "pool5"
  top: "fc6"
  param {
    lr_mult: 1
    decay_mult: 1
  }
  param {
    lr_mult: 2
    decay_mult: 0
  }
  inner_product_param {
    num_output: 4096
    weight_filler {
      type: "gaussian"
      std: 0.005
    }
    bias_filler {
      type: "constant"
      value: 1
    }
  }
}
layer {
  name: "relu6"
  type: "ReLU"
  bottom: "fc6"
  top: "fc6"
}
layer {
  name: "drop6"
  type: "Dropout"
  bottom: "fc6"
  top: "fc6"
  dropout_param {
    dropout_ratio: 0.5
  }
}
layer {
  name: "fc7"
  type: "InnerProduct"
  bottom: "fc6"
  top: "fc7"
  param {
    lr_mult: 1
    decay_mult: 1
  }
  param {
    lr_mult: 2
    decay_mult: 0
  }
  inner_product_param {
    num_output: 4096
    weight_filler {
      type: "gaussian"
      std: 0.005
    }
    bias_filler {
      type: "constant"
      value: 1
    }
  }
}
layer {
  name: "relu7"
  type: "ReLU"
  bottom: "fc7"
  top: "fc7"
}
layer {
  name: "drop7"
  type: "Dropout"
  bottom: "fc7"
  top: "fc7"
  dropout_param {
    dropout_ratio: 0.5
  }
}
layer {
  name: "fc8_changed"
  type: "InnerProduct"
  bottom: "fc7"
  top: "fc8_changed"
  param {
    lr_mult: 10
    decay_mult: 1
  }
  param {
    lr_mult: 20
    decay_mult: 0
  }
  inner_product_param {
    num_output: 2
    weight_filler {
      type: "gaussian"
      std: 0.01
    }
    bias_filler {
      type: "constant"
      value: 0
    }
  }
}
layer {
  name: "loss"
  type: "SoftmaxWithLoss"
  bottom: "fc8_changed"
  bottom: "label"
  top: "loss"
}
I0527 11:00:19.329282 14186 layer_factory.hpp:77] Creating layer data
I0527 11:00:19.329962 14186 net.cpp:91] Creating Layer data
I0527 11:00:19.329988 14186 net.cpp:399] data -> data
I0527 11:00:19.330050 14186 net.cpp:399] data -> label
I0527 11:00:19.330107 14186 data_transformer.cpp:25] Loading mean file from: /home/jessi12/CNN_local/caffe/data/neutrinodata/imagenet_mean.binaryproto
I0527 11:00:19.330387 14187 db_lmdb.cpp:35] Opened lmdb /home/jessi12/CNN_local/caffe/examples/imagenet/neutrinodata_train_lmdb
I0527 11:00:19.331164 14186 data_layer.cpp:41] output data size: 64,1,224,224
I0527 11:00:19.349236 14186 net.cpp:141] Setting up data
I0527 11:00:19.349272 14186 net.cpp:148] Top shape: 64 1 224 224 (3211264)
I0527 11:00:19.349284 14186 net.cpp:148] Top shape: 64 (64)
I0527 11:00:19.349293 14186 net.cpp:156] Memory required for data: 12845312
I0527 11:00:19.349308 14186 layer_factory.hpp:77] Creating layer conv1
I0527 11:00:19.349367 14186 net.cpp:91] Creating Layer conv1
I0527 11:00:19.349380 14186 net.cpp:425] conv1 <- data
I0527 11:00:19.349398 14186 net.cpp:399] conv1 -> conv1
I0527 11:00:19.349650 14186 net.cpp:141] Setting up conv1
I0527 11:00:19.349666 14186 net.cpp:148] Top shape: 64 96 54 54 (17915904)
I0527 11:00:19.349678 14186 net.cpp:156] Memory required for data: 84508928
I0527 11:00:19.349699 14186 layer_factory.hpp:77] Creating layer relu1
I0527 11:00:19.349714 14186 net.cpp:91] Creating Layer relu1
I0527 11:00:19.349721 14186 net.cpp:425] relu1 <- conv1
I0527 11:00:19.349732 14186 net.cpp:386] relu1 -> conv1 (in-place)
I0527 11:00:19.349745 14186 net.cpp:141] Setting up relu1
I0527 11:00:19.349756 14186 net.cpp:148] Top shape: 64 96 54 54 (17915904)
I0527 11:00:19.349762 14186 net.cpp:156] Memory required for data: 156172544
I0527 11:00:19.349771 14186 layer_factory.hpp:77] Creating layer pool1
I0527 11:00:19.349781 14186 net.cpp:91] Creating Layer pool1
I0527 11:00:19.349792 14186 net.cpp:425] pool1 <- conv1
I0527 11:00:19.349803 14186 net.cpp:399] pool1 -> pool1
I0527 11:00:19.349828 14186 net.cpp:141] Setting up pool1
I0527 11:00:19.349840 14186 net.cpp:148] Top shape: 64 96 27 27 (4478976)
I0527 11:00:19.349863 14186 net.cpp:156] Memory required for data: 174088448
I0527 11:00:19.349871 14186 layer_factory.hpp:77] Creating layer norm1
I0527 11:00:19.349884 14186 net.cpp:91] Creating Layer norm1
I0527 11:00:19.349892 14186 net.cpp:425] norm1 <- pool1
I0527 11:00:19.349905 14186 net.cpp:399] norm1 -> norm1
I0527 11:00:19.349928 14186 net.cpp:141] Setting up norm1
I0527 11:00:19.349941 14186 net.cpp:148] Top shape: 64 96 27 27 (4478976)
I0527 11:00:19.349948 14186 net.cpp:156] Memory required for data: 192004352
I0527 11:00:19.349956 14186 layer_factory.hpp:77] Creating layer conv2_changed
I0527 11:00:19.349968 14186 net.cpp:91] Creating Layer conv2_changed
I0527 11:00:19.349977 14186 net.cpp:425] conv2_changed <- norm1
I0527 11:00:19.349988 14186 net.cpp:399] conv2_changed -> conv2_changed
I0527 11:00:19.354964 14186 net.cpp:141] Setting up conv2_changed
I0527 11:00:19.354984 14186 net.cpp:148] Top shape: 64 256 27 27 (11943936)
I0527 11:00:19.354993 14186 net.cpp:156] Memory required for data: 239780096
I0527 11:00:19.355008 14186 layer_factory.hpp:77] Creating layer relu2
I0527 11:00:19.355020 14186 net.cpp:91] Creating Layer relu2
I0527 11:00:19.355029 14186 net.cpp:425] relu2 <- conv2_changed
I0527 11:00:19.355039 14186 net.cpp:386] relu2 -> conv2_changed (in-place)
I0527 11:00:19.355051 14186 net.cpp:141] Setting up relu2
I0527 11:00:19.355062 14186 net.cpp:148] Top shape: 64 256 27 27 (11943936)
I0527 11:00:19.355069 14186 net.cpp:156] Memory required for data: 287555840
I0527 11:00:19.355077 14186 layer_factory.hpp:77] Creating layer pool2
I0527 11:00:19.355090 14186 net.cpp:91] Creating Layer pool2
I0527 11:00:19.355099 14186 net.cpp:425] pool2 <- conv2_changed
I0527 11:00:19.355110 14186 net.cpp:399] pool2 -> pool2
I0527 11:00:19.355125 14186 net.cpp:141] Setting up pool2
I0527 11:00:19.355136 14186 net.cpp:148] Top shape: 64 256 13 13 (2768896)
I0527 11:00:19.355144 14186 net.cpp:156] Memory required for data: 298631424
I0527 11:00:19.355151 14186 layer_factory.hpp:77] Creating layer norm2
I0527 11:00:19.355165 14186 net.cpp:91] Creating Layer norm2
I0527 11:00:19.355172 14186 net.cpp:425] norm2 <- pool2
I0527 11:00:19.355183 14186 net.cpp:399] norm2 -> norm2
I0527 11:00:19.355196 14186 net.cpp:141] Setting up norm2
I0527 11:00:19.355208 14186 net.cpp:148] Top shape: 64 256 13 13 (2768896)
I0527 11:00:19.355218 14186 net.cpp:156] Memory required for data: 309707008
I0527 11:00:19.355226 14186 layer_factory.hpp:77] Creating layer conv3_changed
I0527 11:00:19.355239 14186 net.cpp:91] Creating Layer conv3_changed
I0527 11:00:19.355248 14186 net.cpp:425] conv3_changed <- norm2
I0527 11:00:19.355260 14186 net.cpp:399] conv3_changed -> conv3_changed
I0527 11:00:19.369143 14186 net.cpp:141] Setting up conv3_changed
I0527 11:00:19.369199 14186 net.cpp:148] Top shape: 64 384 13 13 (4153344)
I0527 11:00:19.369209 14186 net.cpp:156] Memory required for data: 326320384
I0527 11:00:19.369226 14186 layer_factory.hpp:77] Creating layer relu3
I0527 11:00:19.369241 14186 net.cpp:91] Creating Layer relu3
I0527 11:00:19.369251 14186 net.cpp:425] relu3 <- conv3_changed
I0527 11:00:19.369267 14186 net.cpp:386] relu3 -> conv3_changed (in-place)
I0527 11:00:19.369283 14186 net.cpp:141] Setting up relu3
I0527 11:00:19.369294 14186 net.cpp:148] Top shape: 64 384 13 13 (4153344)
I0527 11:00:19.369302 14186 net.cpp:156] Memory required for data: 342933760
I0527 11:00:19.369316 14186 layer_factory.hpp:77] Creating layer conv4
I0527 11:00:19.369333 14186 net.cpp:91] Creating Layer conv4
I0527 11:00:19.369341 14186 net.cpp:425] conv4 <- conv3_changed
I0527 11:00:19.369354 14186 net.cpp:399] conv4 -> conv4
I0527 11:00:19.379987 14186 net.cpp:141] Setting up conv4
I0527 11:00:19.380019 14186 net.cpp:148] Top shape: 64 384 13 13 (4153344)
I0527 11:00:19.380028 14186 net.cpp:156] Memory required for data: 359547136
I0527 11:00:19.380040 14186 layer_factory.hpp:77] Creating layer relu4
I0527 11:00:19.380051 14186 net.cpp:91] Creating Layer relu4
I0527 11:00:19.380060 14186 net.cpp:425] relu4 <- conv4
I0527 11:00:19.380084 14186 net.cpp:386] relu4 -> conv4 (in-place)
I0527 11:00:19.380121 14186 net.cpp:141] Setting up relu4
I0527 11:00:19.380132 14186 net.cpp:148] Top shape: 64 384 13 13 (4153344)
I0527 11:00:19.380139 14186 net.cpp:156] Memory required for data: 376160512
I0527 11:00:19.380148 14186 layer_factory.hpp:77] Creating layer conv5
I0527 11:00:19.380162 14186 net.cpp:91] Creating Layer conv5
I0527 11:00:19.380172 14186 net.cpp:425] conv5 <- conv4
I0527 11:00:19.380187 14186 net.cpp:399] conv5 -> conv5
I0527 11:00:19.387320 14186 net.cpp:141] Setting up conv5
I0527 11:00:19.387339 14186 net.cpp:148] Top shape: 64 256 13 13 (2768896)
I0527 11:00:19.387347 14186 net.cpp:156] Memory required for data: 387236096
I0527 11:00:19.387365 14186 layer_factory.hpp:77] Creating layer relu5
I0527 11:00:19.387377 14186 net.cpp:91] Creating Layer relu5
I0527 11:00:19.387387 14186 net.cpp:425] relu5 <- conv5
I0527 11:00:19.387400 14186 net.cpp:386] relu5 -> conv5 (in-place)
I0527 11:00:19.387413 14186 net.cpp:141] Setting up relu5
I0527 11:00:19.387423 14186 net.cpp:148] Top shape: 64 256 13 13 (2768896)
I0527 11:00:19.387431 14186 net.cpp:156] Memory required for data: 398311680
I0527 11:00:19.387439 14186 layer_factory.hpp:77] Creating layer pool5
I0527 11:00:19.387451 14186 net.cpp:91] Creating Layer pool5
I0527 11:00:19.387459 14186 net.cpp:425] pool5 <- conv5
I0527 11:00:19.387471 14186 net.cpp:399] pool5 -> pool5
I0527 11:00:19.387490 14186 net.cpp:141] Setting up pool5
I0527 11:00:19.387501 14186 net.cpp:148] Top shape: 64 256 6 6 (589824)
I0527 11:00:19.387507 14186 net.cpp:156] Memory required for data: 400670976
I0527 11:00:19.387516 14186 layer_factory.hpp:77] Creating layer fc6
I0527 11:00:19.387539 14186 net.cpp:91] Creating Layer fc6
I0527 11:00:19.387549 14186 net.cpp:425] fc6 <- pool5
I0527 11:00:19.387564 14186 net.cpp:399] fc6 -> fc6
I0527 11:00:19.917052 14186 net.cpp:141] Setting up fc6
I0527 11:00:19.917124 14186 net.cpp:148] Top shape: 64 4096 (262144)
I0527 11:00:19.917131 14186 net.cpp:156] Memory required for data: 401719552
I0527 11:00:19.917148 14186 layer_factory.hpp:77] Creating layer relu6
I0527 11:00:19.917165 14186 net.cpp:91] Creating Layer relu6
I0527 11:00:19.917176 14186 net.cpp:425] relu6 <- fc6
I0527 11:00:19.917189 14186 net.cpp:386] relu6 -> fc6 (in-place)
I0527 11:00:19.917207 14186 net.cpp:141] Setting up relu6
I0527 11:00:19.917218 14186 net.cpp:148] Top shape: 64 4096 (262144)
I0527 11:00:19.917225 14186 net.cpp:156] Memory required for data: 402768128
I0527 11:00:19.917233 14186 layer_factory.hpp:77] Creating layer drop6
I0527 11:00:19.917249 14186 net.cpp:91] Creating Layer drop6
I0527 11:00:19.917258 14186 net.cpp:425] drop6 <- fc6
I0527 11:00:19.917268 14186 net.cpp:386] drop6 -> fc6 (in-place)
I0527 11:00:19.917294 14186 net.cpp:141] Setting up drop6
I0527 11:00:19.917305 14186 net.cpp:148] Top shape: 64 4096 (262144)
I0527 11:00:19.917321 14186 net.cpp:156] Memory required for data: 403816704
I0527 11:00:19.917330 14186 layer_factory.hpp:77] Creating layer fc7
I0527 11:00:19.917346 14186 net.cpp:91] Creating Layer fc7
I0527 11:00:19.917353 14186 net.cpp:425] fc7 <- fc6
I0527 11:00:19.917366 14186 net.cpp:399] fc7 -> fc7
I0527 11:00:20.152866 14186 net.cpp:141] Setting up fc7
I0527 11:00:20.152940 14186 net.cpp:148] Top shape: 64 4096 (262144)
I0527 11:00:20.152948 14186 net.cpp:156] Memory required for data: 404865280
I0527 11:00:20.152964 14186 layer_factory.hpp:77] Creating layer relu7
I0527 11:00:20.152983 14186 net.cpp:91] Creating Layer relu7
I0527 11:00:20.152994 14186 net.cpp:425] relu7 <- fc7
I0527 11:00:20.153007 14186 net.cpp:386] relu7 -> fc7 (in-place)
I0527 11:00:20.153025 14186 net.cpp:141] Setting up relu7
I0527 11:00:20.153035 14186 net.cpp:148] Top shape: 64 4096 (262144)
I0527 11:00:20.153043 14186 net.cpp:156] Memory required for data: 405913856
I0527 11:00:20.153050 14186 layer_factory.hpp:77] Creating layer drop7
I0527 11:00:20.153062 14186 net.cpp:91] Creating Layer drop7
I0527 11:00:20.153070 14186 net.cpp:425] drop7 <- fc7
I0527 11:00:20.153096 14186 net.cpp:386] drop7 -> fc7 (in-place)
I0527 11:00:20.153126 14186 net.cpp:141] Setting up drop7
I0527 11:00:20.153137 14186 net.cpp:148] Top shape: 64 4096 (262144)
I0527 11:00:20.153144 14186 net.cpp:156] Memory required for data: 406962432
I0527 11:00:20.153152 14186 layer_factory.hpp:77] Creating layer fc8_changed
I0527 11:00:20.153165 14186 net.cpp:91] Creating Layer fc8_changed
I0527 11:00:20.153173 14186 net.cpp:425] fc8_changed <- fc7
I0527 11:00:20.153184 14186 net.cpp:399] fc8_changed -> fc8_changed
I0527 11:00:20.153332 14186 net.cpp:141] Setting up fc8_changed
I0527 11:00:20.153347 14186 net.cpp:148] Top shape: 64 2 (128)
I0527 11:00:20.153354 14186 net.cpp:156] Memory required for data: 406962944
I0527 11:00:20.153365 14186 layer_factory.hpp:77] Creating layer loss
I0527 11:00:20.153379 14186 net.cpp:91] Creating Layer loss
I0527 11:00:20.153388 14186 net.cpp:425] loss <- fc8_changed
I0527 11:00:20.153396 14186 net.cpp:425] loss <- label
I0527 11:00:20.153414 14186 net.cpp:399] loss -> loss
I0527 11:00:20.153434 14186 layer_factory.hpp:77] Creating layer loss
…
I0527 11:00:20.154517 14186 net.cpp:313] The NetState phase (1) differed from the phase (0) specified by a rule in layer data
I0527 11:00:20.154738 14186 net.cpp:49] Initializing net from parameters: 
name: "CaffeNet"
state {
  phase: TEST
}
layer {
  name: "data"
  type: "Data"
  top: "data"
  top: "label"
  include {
    phase: TEST
  }
  transform_param {
    mirror: false
    crop_size: 224
    mean_file: "/home/jessi12/CNN_local/caffe/data/neutrinodata/imagenet_mean.binaryproto"
  }
  data_param {
    source: "/home/jessi12/CNN_local/caffe/examples/imagenet/neutrinodata_val_lmdb"
    batch_size: 25
    backend: LMDB
  }
}
layer {
  name: "conv1"
  type: "Convolution"
  bottom: "data"
  top: "conv1"
  param {
    lr_mult: 1
    decay_mult: 1
  }
  param {
    lr_mult: 2
    decay_mult: 0
  }
  convolution_param {
    num_output: 96
    kernel_size: 11
    stride: 4
    weight_filler {
      type: "gaussian"
      std: 0.01
    }
    bias_filler {
      type: "constant"
      value: 0
    }
  }
}
layer {
  name: "relu1"
  type: "ReLU"
  bottom: "conv1"
  top: "conv1"
}
layer {
  name: "pool1"
  type: "Pooling"
  bottom: "conv1"
  top: "pool1"
  pooling_param {
    pool: MAX
    kernel_size: 3
    stride: 2
  }
}
layer {
  name: "norm1"
  type: "LRN"
  bottom: "pool1"
  top: "norm1"
  lrn_param {
    local_size: 5
    alpha: 0.0001
    beta: 0.75
  }
}
layer {
  name: "conv2_changed"
  type: "Convolution"
  bottom: "norm1"
  top: "conv2_changed"
  param {
    lr_mult: 1
    decay_mult: 1
  }
  param {
    lr_mult: 2
    decay_mult: 0
  }
  convolution_param {
    num_output: 256
    pad: 2
    kernel_size: 5
    group: 2
    weight_filler {
      type: "gaussian"
      std: 0.01
    }
    bias_filler {
      type: "constant"
      value: 1
    }
  }
}
layer {
  name: "relu2"
  type: "ReLU"
  bottom: "conv2_changed"
  top: "conv2_changed"
}
layer {
  name: "pool2"
  type: "Pooling"
  bottom: "conv2_changed"
  top: "pool2"
  pooling_param {
    pool: MAX
    kernel_size: 3
    stride: 2
  }
}
layer {
  name: "norm2"
  type: "LRN"
  bottom: "pool2"
  top: "norm2"
  lrn_param {
    local_size: 5
    alpha: 0.0001
    beta: 0.75
  }
}
layer {
  name: "conv3_changed"
  type: "Convolution"
  bottom: "norm2"
  top: "conv3_changed"
  param {
    lr_mult: 1
    decay_mult: 1
  }
  param {
    lr_mult: 2
    decay_mult: 0
  }
  convolution_param {
    num_output: 384
    pad: 1
    kernel_size: 3
    weight_filler {
      type: "gaussian"
      std: 0.01
    }
    bias_filler {
      type: "constant"
      value: 0
    }
  }
}
layer {
  name: "relu3"
  type: "ReLU"
  bottom: "conv3_changed"
  top: "conv3_changed"
}
layer {
  name: "conv4"
  type: "Convolution"
  bottom: "conv3_changed"
  top: "conv4"
  param {
    lr_mult: 1
    decay_mult: 1
  }
  param {
    lr_mult: 2
    decay_mult: 0
  }
  convolution_param {
    num_output: 384
    pad: 1
    kernel_size: 3
    group: 2
    weight_filler {
      type: "gaussian"
      std: 0.01
    }
    bias_filler {
      type: "constant"
      value: 1
    }
  }
}
layer {
  name: "relu4"
  type: "ReLU"
  bottom: "conv4"
  top: "conv4"
}
layer {
  name: "conv5"
  type: "Convolution"
  bottom: "conv4"
  top: "conv5"
  param {
    lr_mult: 1
    decay_mult: 1
  }
  param {
    lr_mult: 2
    decay_mult: 0
  }
  convolution_param {
    num_output: 256
    pad: 1
    kernel_size: 3
    group: 2
    weight_filler {
      type: "gaussian"
      std: 0.01
    }
    bias_filler {
      type: "constant"
      value: 1
    }
  }
}
layer {
  name: "relu5"
  type: "ReLU"
  bottom: "conv5"
  top: "conv5"
}
layer {
  name: "pool5"
  type: "Pooling"
  bottom: "conv5"
  top: "pool5"
  pooling_param {
    pool: MAX
    kernel_size: 3
    stride: 2
  }
}
layer {
  name: "fc6"
  type: "InnerProduct"
  bottom: "pool5"
  top: "fc6"
  param {
    lr_mult: 1
    decay_mult: 1
  }
  param {
    lr_mult: 2
    decay_mult: 0
  }
  inner_product_param {
    num_output: 4096
    weight_filler {
      type: "gaussian"
      std: 0.005
    }
    bias_filler {
      type: "constant"
      value: 1
    }
  }
}
layer {
  name: "relu6"
  type: "ReLU"
  bottom: "fc6"
  top: "fc6"
}
layer {
  name: "drop6"
  type: "Dropout"
  bottom: "fc6"
  top: "fc6"
  dropout_param {
    dropout_ratio: 0.5
  }
}
layer {
  name: "fc7"
  type: "InnerProduct"
  bottom: "fc6"
  top: "fc7"
  param {
    lr_mult: 1
    decay_mult: 1
  }
  param {
    lr_mult: 2
    decay_mult: 0
  }
  inner_product_param {
    num_output: 4096
    weight_filler {
      type: "gaussian"
      std: 0.005
    }
    bias_filler {
      type: "constant"
      value: 1
    }
  }
}
layer {
  name: "relu7"
  type: "ReLU"
  bottom: "fc7"
  top: "fc7"
}
layer {
  name: "drop7"
  type: "Dropout"
  bottom: "fc7"
  top: "fc7"
  dropout_param {
    dropout_ratio: 0.5
  }
}
layer {
  name: "fc8_changed"
  type: "InnerProduct"
  bottom: "fc7"
  top: "fc8_changed"
  param {
    lr_mult: 10
    decay_mult: 1
  }
  param {
    lr_mult: 20
    decay_mult: 0
  }
  inner_product_param {
    num_output: 2
    weight_filler {
      type: "gaussian"
      std: 0.01
    }
    bias_filler {
      type: "constant"
      value: 0
    }
  }
}
layer {
  name: "accuracy"
  type: "Accuracy"
  bottom: "fc8_changed"
  bottom: "label"
  top: "accuracy"
  include {
    phase: TEST
  }
}
layer {
  name: "loss"
  type: "SoftmaxWithLoss"
  bottom: "fc8_changed"
  bottom: "label"
  top: "loss"
}
I0527 11:00:20.154917 14186 layer_factory.hpp:77] Creating layer data
I0527 11:00:20.155031 14186 net.cpp:91] Creating Layer data
I0527 11:00:20.155047 14186 net.cpp:399] data -> data
I0527 11:00:20.155066 14186 net.cpp:399] data -> label
I0527 11:00:20.155083 14186 data_transformer.cpp:25] Loading mean file from: /home/jessi12/CNN_local/caffe/data/neutrinodata/imagenet_mean.binaryproto
I0527 11:00:20.155468 14189 db_lmdb.cpp:35] Opened lmdb /home/jessi12/CNN_local/caffe/examples/imagenet/neutrinodata_val_lmdb
I0527 11:00:20.156009 14186 data_layer.cpp:41] output data size: 25,1,224,224
I0527 11:00:20.164158 14186 net.cpp:141] Setting up data
I0527 11:00:20.164191 14186 net.cpp:148] Top shape: 25 1 224 224 (1254400)
I0527 11:00:20.164201 14186 net.cpp:148] Top shape: 25 (25)
I0527 11:00:20.164209 14186 net.cpp:156] Memory required for data: 5017700
I0527 11:00:20.164218 14186 layer_factory.hpp:77] Creating layer label_data_1_split
I0527 11:00:20.164230 14186 net.cpp:91] Creating Layer label_data_1_split
I0527 11:00:20.164239 14186 net.cpp:425] label_data_1_split <- label
I0527 11:00:20.164253 14186 net.cpp:399] label_data_1_split -> label_data_1_split_0
I0527 11:00:20.164268 14186 net.cpp:399] label_data_1_split -> label_data_1_split_1
I0527 11:00:20.164281 14186 net.cpp:141] Setting up label_data_1_split
I0527 11:00:20.164293 14186 net.cpp:148] Top shape: 25 (25)
I0527 11:00:20.164301 14186 net.cpp:148] Top shape: 25 (25)
I0527 11:00:20.164309 14186 net.cpp:156] Memory required for data: 5017900
I0527 11:00:20.164329 14186 layer_factory.hpp:77] Creating layer conv1
I0527 11:00:20.164345 14186 net.cpp:91] Creating Layer conv1
I0527 11:00:20.164355 14186 net.cpp:425] conv1 <- data
I0527 11:00:20.164366 14186 net.cpp:399] conv1 -> conv1
I0527 11:00:20.164553 14186 net.cpp:141] Setting up conv1
I0527 11:00:20.164572 14186 net.cpp:148] Top shape: 25 96 54 54 (6998400)
I0527 11:00:20.164579 14186 net.cpp:156] Memory required for data: 33011500
I0527 11:00:20.164597 14186 layer_factory.hpp:77] Creating layer relu1
I0527 11:00:20.164608 14186 net.cpp:91] Creating Layer relu1
I0527 11:00:20.164615 14186 net.cpp:425] relu1 <- conv1
I0527 11:00:20.164626 14186 net.cpp:386] relu1 -> conv1 (in-place)
I0527 11:00:20.164638 14186 net.cpp:141] Setting up relu1
I0527 11:00:20.164649 14186 net.cpp:148] Top shape: 25 96 54 54 (6998400)
I0527 11:00:20.164656 14186 net.cpp:156] Memory required for data: 61005100
I0527 11:00:20.164666 14186 layer_factory.hpp:77] Creating layer pool1
I0527 11:00:20.164679 14186 net.cpp:91] Creating Layer pool1
I0527 11:00:20.164687 14186 net.cpp:425] pool1 <- conv1
I0527 11:00:20.164697 14186 net.cpp:399] pool1 -> pool1
I0527 11:00:20.164713 14186 net.cpp:141] Setting up pool1
I0527 11:00:20.164724 14186 net.cpp:148] Top shape: 25 96 27 27 (1749600)
I0527 11:00:20.164732 14186 net.cpp:156] Memory required for data: 68003500
I0527 11:00:20.164741 14186 layer_factory.hpp:77] Creating layer norm1
I0527 11:00:20.164752 14186 net.cpp:91] Creating Layer norm1
I0527 11:00:20.164759 14186 net.cpp:425] norm1 <- pool1
I0527 11:00:20.164769 14186 net.cpp:399] norm1 -> norm1
I0527 11:00:20.164786 14186 net.cpp:141] Setting up norm1
I0527 11:00:20.164798 14186 net.cpp:148] Top shape: 25 96 27 27 (1749600)
I0527 11:00:20.164805 14186 net.cpp:156] Memory required for data: 75001900
I0527 11:00:20.164813 14186 layer_factory.hpp:77] Creating layer conv2_changed
I0527 11:00:20.164841 14186 net.cpp:91] Creating Layer conv2_changed
I0527 11:00:20.164851 14186 net.cpp:425] conv2_changed <- norm1
I0527 11:00:20.164862 14186 net.cpp:399] conv2_changed -> conv2_changed
I0527 11:00:20.169816 14186 net.cpp:141] Setting up conv2_changed
I0527 11:00:20.169836 14186 net.cpp:148] Top shape: 25 256 27 27 (4665600)
I0527 11:00:20.169843 14186 net.cpp:156] Memory required for data: 93664300
I0527 11:00:20.169857 14186 layer_factory.hpp:77] Creating layer relu2
I0527 11:00:20.169868 14186 net.cpp:91] Creating Layer relu2
I0527 11:00:20.169878 14186 net.cpp:425] relu2 <- conv2_changed
I0527 11:00:20.169890 14186 net.cpp:386] relu2 -> conv2_changed (in-place)
I0527 11:00:20.169903 14186 net.cpp:141] Setting up relu2
I0527 11:00:20.169914 14186 net.cpp:148] Top shape: 25 256 27 27 (4665600)
I0527 11:00:20.169921 14186 net.cpp:156] Memory required for data: 112326700
I0527 11:00:20.169929 14186 layer_factory.hpp:77] Creating layer pool2
I0527 11:00:20.169941 14186 net.cpp:91] Creating Layer pool2
I0527 11:00:20.169950 14186 net.cpp:425] pool2 <- conv2_changed
I0527 11:00:20.169960 14186 net.cpp:399] pool2 -> pool2
I0527 11:00:20.169976 14186 net.cpp:141] Setting up pool2
I0527 11:00:20.169991 14186 net.cpp:148] Top shape: 25 256 13 13 (1081600)
I0527 11:00:20.169999 14186 net.cpp:156] Memory required for data: 116653100
I0527 11:00:20.170007 14186 layer_factory.hpp:77] Creating layer norm2
I0527 11:00:20.170017 14186 net.cpp:91] Creating Layer norm2
I0527 11:00:20.170025 14186 net.cpp:425] norm2 <- pool2
I0527 11:00:20.170037 14186 net.cpp:399] norm2 -> norm2
I0527 11:00:20.170050 14186 net.cpp:141] Setting up norm2
I0527 11:00:20.170060 14186 net.cpp:148] Top shape: 25 256 13 13 (1081600)
I0527 11:00:20.170068 14186 net.cpp:156] Memory required for data: 120979500
I0527 11:00:20.170075 14186 layer_factory.hpp:77] Creating layer conv3_changed
I0527 11:00:20.170089 14186 net.cpp:91] Creating Layer conv3_changed
I0527 11:00:20.170097 14186 net.cpp:425] conv3_changed <- norm2
I0527 11:00:20.170112 14186 net.cpp:399] conv3_changed -> conv3_changed
I0527 11:00:20.184288 14186 net.cpp:141] Setting up conv3_changed
I0527 11:00:20.184334 14186 net.cpp:148] Top shape: 25 384 13 13 (1622400)
I0527 11:00:20.184342 14186 net.cpp:156] Memory required for data: 127469100
I0527 11:00:20.184361 14186 layer_factory.hpp:77] Creating layer relu3
I0527 11:00:20.184376 14186 net.cpp:91] Creating Layer relu3
I0527 11:00:20.184384 14186 net.cpp:425] relu3 <- conv3_changed
I0527 11:00:20.184397 14186 net.cpp:386] relu3 -> conv3_changed (in-place)
I0527 11:00:20.184412 14186 net.cpp:141] Setting up relu3
I0527 11:00:20.184422 14186 net.cpp:148] Top shape: 25 384 13 13 (1622400)
I0527 11:00:20.184430 14186 net.cpp:156] Memory required for data: 133958700
I0527 11:00:20.184438 14186 layer_factory.hpp:77] Creating layer conv4
I0527 11:00:20.184453 14186 net.cpp:91] Creating Layer conv4
I0527 11:00:20.184461 14186 net.cpp:425] conv4 <- conv3_changed
I0527 11:00:20.184473 14186 net.cpp:399] conv4 -> conv4
I0527 11:00:20.194733 14186 net.cpp:141] Setting up conv4
I0527 11:00:20.194751 14186 net.cpp:148] Top shape: 25 384 13 13 (1622400)
I0527 11:00:20.194759 14186 net.cpp:156] Memory required for data: 140448300
I0527 11:00:20.194771 14186 layer_factory.hpp:77] Creating layer relu4
I0527 11:00:20.194782 14186 net.cpp:91] Creating Layer relu4
I0527 11:00:20.194790 14186 net.cpp:425] relu4 <- conv4
I0527 11:00:20.194800 14186 net.cpp:386] relu4 -> conv4 (in-place)
I0527 11:00:20.194813 14186 net.cpp:141] Setting up relu4
I0527 11:00:20.194823 14186 net.cpp:148] Top shape: 25 384 13 13 (1622400)
I0527 11:00:20.194830 14186 net.cpp:156] Memory required for data: 146937900
I0527 11:00:20.194839 14186 layer_factory.hpp:77] Creating layer conv5
I0527 11:00:20.194851 14186 net.cpp:91] Creating Layer conv5
I0527 11:00:20.194860 14186 net.cpp:425] conv5 <- conv4
I0527 11:00:20.194871 14186 net.cpp:399] conv5 -> conv5
I0527 11:00:20.201630 14186 net.cpp:141] Setting up conv5
I0527 11:00:20.201658 14186 net.cpp:148] Top shape: 25 256 13 13 (1081600)
I0527 11:00:20.201683 14186 net.cpp:156] Memory required for data: 151264300
I0527 11:00:20.201699 14186 layer_factory.hpp:77] Creating layer relu5
I0527 11:00:20.201711 14186 net.cpp:91] Creating Layer relu5
I0527 11:00:20.201719 14186 net.cpp:425] relu5 <- conv5
I0527 11:00:20.201730 14186 net.cpp:386] relu5 -> conv5 (in-place)
I0527 11:00:20.201741 14186 net.cpp:141] Setting up relu5
I0527 11:00:20.201751 14186 net.cpp:148] Top shape: 25 256 13 13 (1081600)
I0527 11:00:20.201758 14186 net.cpp:156] Memory required for data: 155590700
I0527 11:00:20.201766 14186 layer_factory.hpp:77] Creating layer pool5
I0527 11:00:20.201779 14186 net.cpp:91] Creating Layer pool5
I0527 11:00:20.201787 14186 net.cpp:425] pool5 <- conv5
I0527 11:00:20.201798 14186 net.cpp:399] pool5 -> pool5
I0527 11:00:20.201814 14186 net.cpp:141] Setting up pool5
I0527 11:00:20.201824 14186 net.cpp:148] Top shape: 25 256 6 6 (230400)
I0527 11:00:20.201833 14186 net.cpp:156] Memory required for data: 156512300
I0527 11:00:20.201840 14186 layer_factory.hpp:77] Creating layer fc6
I0527 11:00:20.201854 14186 net.cpp:91] Creating Layer fc6
I0527 11:00:20.201863 14186 net.cpp:425] fc6 <- pool5
I0527 11:00:20.201874 14186 net.cpp:399] fc6 -> fc6
I0527 11:00:20.730120 14186 net.cpp:141] Setting up fc6
I0527 11:00:20.730178 14186 net.cpp:148] Top shape: 25 4096 (102400)
I0527 11:00:20.730186 14186 net.cpp:156] Memory required for data: 156921900
I0527 11:00:20.730203 14186 layer_factory.hpp:77] Creating layer relu6
I0527 11:00:20.730221 14186 net.cpp:91] Creating Layer relu6
I0527 11:00:20.730231 14186 net.cpp:425] relu6 <- fc6
I0527 11:00:20.730244 14186 net.cpp:386] relu6 -> fc6 (in-place)
I0527 11:00:20.730262 14186 net.cpp:141] Setting up relu6
I0527 11:00:20.730273 14186 net.cpp:148] Top shape: 25 4096 (102400)
I0527 11:00:20.730280 14186 net.cpp:156] Memory required for data: 157331500
I0527 11:00:20.730288 14186 layer_factory.hpp:77] Creating layer drop6
I0527 11:00:20.730300 14186 net.cpp:91] Creating Layer drop6
I0527 11:00:20.730309 14186 net.cpp:425] drop6 <- fc6
I0527 11:00:20.730339 14186 net.cpp:386] drop6 -> fc6 (in-place)
I0527 11:00:20.730355 14186 net.cpp:141] Setting up drop6
I0527 11:00:20.730365 14186 net.cpp:148] Top shape: 25 4096 (102400)
I0527 11:00:20.730372 14186 net.cpp:156] Memory required for data: 157741100
I0527 11:00:20.730379 14186 layer_factory.hpp:77] Creating layer fc7
I0527 11:00:20.730394 14186 net.cpp:91] Creating Layer fc7
I0527 11:00:20.730402 14186 net.cpp:425] fc7 <- fc6
I0527 11:00:20.730414 14186 net.cpp:399] fc7 -> fc7
I0527 11:00:20.966166 14186 net.cpp:141] Setting up fc7
I0527 11:00:20.966234 14186 net.cpp:148] Top shape: 25 4096 (102400)
I0527 11:00:20.966243 14186 net.cpp:156] Memory required for data: 158150700
I0527 11:00:20.966259 14186 layer_factory.hpp:77] Creating layer relu7
I0527 11:00:20.966276 14186 net.cpp:91] Creating Layer relu7
I0527 11:00:20.966286 14186 net.cpp:425] relu7 <- fc7
I0527 11:00:20.966300 14186 net.cpp:386] relu7 -> fc7 (in-place)
I0527 11:00:20.966326 14186 net.cpp:141] Setting up relu7
I0527 11:00:20.966338 14186 net.cpp:148] Top shape: 25 4096 (102400)
I0527 11:00:20.966346 14186 net.cpp:156] Memory required for data: 158560300
I0527 11:00:20.966353 14186 layer_factory.hpp:77] Creating layer drop7
I0527 11:00:20.966366 14186 net.cpp:91] Creating Layer drop7
I0527 11:00:20.966373 14186 net.cpp:425] drop7 <- fc7
I0527 11:00:20.966384 14186 net.cpp:386] drop7 -> fc7 (in-place)
I0527 11:00:20.966398 14186 net.cpp:141] Setting up drop7
I0527 11:00:20.966408 14186 net.cpp:148] Top shape: 25 4096 (102400)
I0527 11:00:20.966415 14186 net.cpp:156] Memory required for data: 158969900
I0527 11:00:20.966423 14186 layer_factory.hpp:77] Creating layer fc8_changed
I0527 11:00:20.966437 14186 net.cpp:91] Creating Layer fc8_changed
I0527 11:00:20.966446 14186 net.cpp:425] fc8_changed <- fc7
I0527 11:00:20.966457 14186 net.cpp:399] fc8_changed -> fc8_changed
I0527 11:00:20.966591 14186 net.cpp:141] Setting up fc8_changed
I0527 11:00:20.966627 14186 net.cpp:148] Top shape: 25 2 (50)
I0527 11:00:20.966652 14186 net.cpp:156] Memory required for data: 158970100
I0527 11:00:20.966663 14186 layer_factory.hpp:77] Creating layer fc8_changed_fc8_changed_0_split
I0527 11:00:20.966675 14186 net.cpp:91] Creating Layer fc8_changed_fc8_changed_0_split
I0527 11:00:20.966683 14186 net.cpp:425] fc8_changed_fc8_changed_0_split <- fc8_changed
I0527 11:00:20.966694 14186 net.cpp:399] fc8_changed_fc8_changed_0_split -> fc8_changed_fc8_changed_0_split_0
I0527 11:00:20.966707 14186 net.cpp:399] fc8_changed_fc8_changed_0_split -> fc8_changed_fc8_changed_0_split_1
I0527 11:00:20.966722 14186 net.cpp:141] Setting up fc8_changed_fc8_changed_0_split
I0527 11:00:20.966732 14186 net.cpp:148] Top shape: 25 2 (50)
I0527 11:00:20.966740 14186 net.cpp:148] Top shape: 25 2 (50)
I0527 11:00:20.966747 14186 net.cpp:156] Memory required for data: 158970500
I0527 11:00:20.966755 14186 layer_factory.hpp:77] Creating layer accuracy
I0527 11:00:20.966768 14186 net.cpp:91] Creating Layer accuracy
I0527 11:00:20.966776 14186 net.cpp:425] accuracy <- fc8_changed_fc8_changed_0_split_0
I0527 11:00:20.966786 14186 net.cpp:425] accuracy <- label_data_1_split_0
I0527 11:00:20.966797 14186 net.cpp:399] accuracy -> accuracy
…
