WARNING: Logging before InitGoogleLogging() is written to STDERR
I0831 10:41:37.052736  9960 net.cpp:49] Initializing net from parameters: 
name: "CaffeNet"
state {
  phase: TEST
}
layer {
  name: "data"
  type: "Input"
  top: "data"
  input_param {
    shape {
      dim: 1
      dim: 1
      dim: 224
      dim: 224
    }
  }
}
layer {
  name: "conv1"
  type: "Convolution"
  bottom: "data"
  top: "conv1"
  convolution_param {
    num_output: 96
    kernel_size: 11
    stride: 4
  }
}
layer {
  name: "relu1"
  type: "ReLU"
  bottom: "conv1"
  top: "conv1"
}
layer {
  name: "pool1"
  type: "Pooling"
  bottom: "conv1"
  top: "pool1"
  pooling_param {
    pool: MAX
    kernel_size: 3
    stride: 2
  }
}
layer {
  name: "norm1"
  type: "LRN"
  bottom: "pool1"
  top: "norm1"
  lrn_param {
    local_size: 5
    alpha: 0.0001
    beta: 0.75
  }
}
layer {
  name: "conv2_changed"
  type: "Convolution"
  bottom: "norm1"
  top: "conv2_changed"
  convolution_param {
    num_output: 256
    pad: 2
    kernel_size: 5
    group: 2
  }
}
layer {
  name: "relu2"
  type: "ReLU"
  bottom: "conv2_changed"
  top: "conv2_changed"
}
layer {
  name: "pool2"
  type: "Pooling"
  bottom: "conv2_changed"
  top: "pool2"
  pooling_param {
    pool: MAX
    kernel_size: 3
    stride: 2
  }
}
layer {
  name: "norm2"
  type: "LRN"
  bottom: "pool2"
  top: "norm2"
  lrn_param {
    local_size: 5
    alpha: 0.0001
    beta: 0.75
  }
}
layer {
  name: "conv3_changed"
  type: "Convolution"
  bottom: "norm2"
  top: "conv3_changed"
  convolution_param {
    num_output: 384
    pad: 1
    kernel_size: 3
  }
}
layer {
  name: "relu3"
  type: "ReLU"
  bottom: "conv3_changed"
  top: "conv3_changed"
}
layer {
  name: "conv4"
  type: "Convolution"
  bottom: "conv3_changed"
  top: "conv4"
  convolution_param {
    num_output: 384
    pad: 1
    kernel_size: 3
    group: 2
  }
}
layer {
  name: "relu4"
  type: "ReLU"
  bottom: "conv4"
  top: "conv4"
}
layer {
  name: "conv5"
  type: "Convolution"
  bottom: "conv4"
  top: "conv5"
  convolution_param {
    num_output: 256
    pad: 1
    kernel_size: 3
    group: 2
  }
}
layer {
  name: "relu5"
  type: "ReLU"
  bottom: "conv5"
  top: "conv5"
}
layer {
  name: "pool5"
  type: "Pooling"
  bottom: "conv5"
  top: "pool5"
  pooling_param {
    pool: MAX
    kernel_size: 3
    stride: 2
  }
}
layer {
  name: "fc6"
  type: "InnerProduct"
  bottom: "pool5"
  top: "fc6"
  inner_product_param {
    num_output: 4096
  }
}
layer {
  name: "relu6"
  type: "ReLU"
  bottom: "fc6"
  top: "fc6"
}
layer {
  name: "drop6"
  type: "Dropout"
  bottom: "fc6"
  top: "fc6"
  dropout_param {
    dropout_ratio: 0.5
  }
}
layer {
  name: "fc7"
  type: "InnerProduct"
  bottom: "fc6"
  top: "fc7"
  inner_product_param {
    num_output: 4096
  }
}
layer {
  name: "relu7"
  type: "ReLU"
  bottom: "fc7"
  top: "fc7"
}
layer {
  name: "drop7"
  type: "Dropout"
  bottom: "fc7"
  top: "fc7"
  dropout_param {
    dropout_ratio: 0.5
  }
}
layer {
  name: "fc8_neutrino"
  type: "InnerProduct"
  bottom: "fc7"
  top: "fc8_neutrino"
  inner_product_param {
    num_output: 2
  }
}
layer {
  name: "prob"
  type: "Softmax"
  bottom: "fc8_neutrino"
  top: "prob"
}
I0831 10:41:37.052961  9960 layer_factory.hpp:77] Creating layer data
I0831 10:41:37.052991  9960 net.cpp:91] Creating Layer data
I0831 10:41:37.053010  9960 net.cpp:399] data -> data
I0831 10:41:37.053052  9960 net.cpp:141] Setting up data
I0831 10:41:37.053076  9960 net.cpp:148] Top shape: 1 1 224 224 (50176)
I0831 10:41:37.053086  9960 net.cpp:156] Memory required for data: 200704
I0831 10:41:37.053097  9960 layer_factory.hpp:77] Creating layer conv1
I0831 10:41:37.053117  9960 net.cpp:91] Creating Layer conv1
I0831 10:41:37.053128  9960 net.cpp:425] conv1 <- data
I0831 10:41:37.053143  9960 net.cpp:399] conv1 -> conv1
I0831 10:41:37.053251  9960 net.cpp:141] Setting up conv1
I0831 10:41:37.053272  9960 net.cpp:148] Top shape: 1 96 54 54 (279936)
I0831 10:41:37.053282  9960 net.cpp:156] Memory required for data: 1320448
I0831 10:41:37.053306  9960 layer_factory.hpp:77] Creating layer relu1
I0831 10:41:37.053326  9960 net.cpp:91] Creating Layer relu1
I0831 10:41:37.053344  9960 net.cpp:425] relu1 <- conv1
I0831 10:41:37.053357  9960 net.cpp:386] relu1 -> conv1 (in-place)
I0831 10:41:37.053372  9960 net.cpp:141] Setting up relu1
I0831 10:41:37.053387  9960 net.cpp:148] Top shape: 1 96 54 54 (279936)
I0831 10:41:37.053397  9960 net.cpp:156] Memory required for data: 2440192
I0831 10:41:37.053407  9960 layer_factory.hpp:77] Creating layer pool1
I0831 10:41:37.053423  9960 net.cpp:91] Creating Layer pool1
I0831 10:41:37.053434  9960 net.cpp:425] pool1 <- conv1
I0831 10:41:37.053447  9960 net.cpp:399] pool1 -> pool1
I0831 10:41:37.053472  9960 net.cpp:141] Setting up pool1
I0831 10:41:37.053486  9960 net.cpp:148] Top shape: 1 96 27 27 (69984)
I0831 10:41:37.053496  9960 net.cpp:156] Memory required for data: 2720128
I0831 10:41:37.053505  9960 layer_factory.hpp:77] Creating layer norm1
I0831 10:41:37.053520  9960 net.cpp:91] Creating Layer norm1
I0831 10:41:37.053531  9960 net.cpp:425] norm1 <- pool1
I0831 10:41:37.053547  9960 net.cpp:399] norm1 -> norm1
I0831 10:41:37.053570  9960 net.cpp:141] Setting up norm1
I0831 10:41:37.053583  9960 net.cpp:148] Top shape: 1 96 27 27 (69984)
I0831 10:41:37.053592  9960 net.cpp:156] Memory required for data: 3000064
I0831 10:41:37.053602  9960 layer_factory.hpp:77] Creating layer conv2_changed
I0831 10:41:37.053616  9960 net.cpp:91] Creating Layer conv2_changed
I0831 10:41:37.053625  9960 net.cpp:425] conv2_changed <- norm1
I0831 10:41:37.053642  9960 net.cpp:399] conv2_changed -> conv2_changed
I0831 10:41:37.054507  9960 net.cpp:141] Setting up conv2_changed
I0831 10:41:37.054532  9960 net.cpp:148] Top shape: 1 256 27 27 (186624)
I0831 10:41:37.054543  9960 net.cpp:156] Memory required for data: 3746560
I0831 10:41:37.054560  9960 layer_factory.hpp:77] Creating layer relu2
I0831 10:41:37.054577  9960 net.cpp:91] Creating Layer relu2
I0831 10:41:37.054589  9960 net.cpp:425] relu2 <- conv2_changed
I0831 10:41:37.054601  9960 net.cpp:386] relu2 -> conv2_changed (in-place)
I0831 10:41:37.054616  9960 net.cpp:141] Setting up relu2
I0831 10:41:37.054630  9960 net.cpp:148] Top shape: 1 256 27 27 (186624)
I0831 10:41:37.054638  9960 net.cpp:156] Memory required for data: 4493056
I0831 10:41:37.054648  9960 layer_factory.hpp:77] Creating layer pool2
I0831 10:41:37.054661  9960 net.cpp:91] Creating Layer pool2
I0831 10:41:37.054671  9960 net.cpp:425] pool2 <- conv2_changed
I0831 10:41:37.054683  9960 net.cpp:399] pool2 -> pool2
I0831 10:41:37.054702  9960 net.cpp:141] Setting up pool2
I0831 10:41:37.054715  9960 net.cpp:148] Top shape: 1 256 13 13 (43264)
I0831 10:41:37.054725  9960 net.cpp:156] Memory required for data: 4666112
I0831 10:41:37.054734  9960 layer_factory.hpp:77] Creating layer norm2
I0831 10:41:37.054755  9960 net.cpp:91] Creating Layer norm2
I0831 10:41:37.054766  9960 net.cpp:425] norm2 <- pool2
I0831 10:41:37.054780  9960 net.cpp:399] norm2 -> norm2
I0831 10:41:37.054798  9960 net.cpp:141] Setting up norm2
I0831 10:41:37.054811  9960 net.cpp:148] Top shape: 1 256 13 13 (43264)
I0831 10:41:37.054821  9960 net.cpp:156] Memory required for data: 4839168
I0831 10:41:37.054831  9960 layer_factory.hpp:77] Creating layer conv3_changed
I0831 10:41:37.054852  9960 net.cpp:91] Creating Layer conv3_changed
I0831 10:41:37.054863  9960 net.cpp:425] conv3_changed <- norm2
I0831 10:41:37.054877  9960 net.cpp:399] conv3_changed -> conv3_changed
I0831 10:41:37.058099  9960 net.cpp:141] Setting up conv3_changed
I0831 10:41:37.058125  9960 net.cpp:148] Top shape: 1 384 13 13 (64896)
I0831 10:41:37.058135  9960 net.cpp:156] Memory required for data: 5098752
I0831 10:41:37.058163  9960 layer_factory.hpp:77] Creating layer relu3
I0831 10:41:37.058182  9960 net.cpp:91] Creating Layer relu3
I0831 10:41:37.058194  9960 net.cpp:425] relu3 <- conv3_changed
I0831 10:41:37.058207  9960 net.cpp:386] relu3 -> conv3_changed (in-place)
I0831 10:41:37.058226  9960 net.cpp:141] Setting up relu3
I0831 10:41:37.058238  9960 net.cpp:148] Top shape: 1 384 13 13 (64896)
I0831 10:41:37.058248  9960 net.cpp:156] Memory required for data: 5358336
I0831 10:41:37.058269  9960 layer_factory.hpp:77] Creating layer conv4
I0831 10:41:37.058284  9960 net.cpp:91] Creating Layer conv4
I0831 10:41:37.058293  9960 net.cpp:425] conv4 <- conv3_changed
I0831 10:41:37.058306  9960 net.cpp:399] conv4 -> conv4
I0831 10:41:37.060138  9960 net.cpp:141] Setting up conv4
I0831 10:41:37.060168  9960 net.cpp:148] Top shape: 1 384 13 13 (64896)
I0831 10:41:37.060178  9960 net.cpp:156] Memory required for data: 5617920
I0831 10:41:37.060195  9960 layer_factory.hpp:77] Creating layer relu4
I0831 10:41:37.060214  9960 net.cpp:91] Creating Layer relu4
I0831 10:41:37.060225  9960 net.cpp:425] relu4 <- conv4
I0831 10:41:37.060237  9960 net.cpp:386] relu4 -> conv4 (in-place)
I0831 10:41:37.060256  9960 net.cpp:141] Setting up relu4
I0831 10:41:37.060269  9960 net.cpp:148] Top shape: 1 384 13 13 (64896)
I0831 10:41:37.060278  9960 net.cpp:156] Memory required for data: 5877504
I0831 10:41:37.060288  9960 layer_factory.hpp:77] Creating layer conv5
I0831 10:41:37.060300  9960 net.cpp:91] Creating Layer conv5
I0831 10:41:37.060312  9960 net.cpp:425] conv5 <- conv4
I0831 10:41:37.060323  9960 net.cpp:399] conv5 -> conv5
I0831 10:41:37.062135  9960 net.cpp:141] Setting up conv5
I0831 10:41:37.062165  9960 net.cpp:148] Top shape: 1 256 13 13 (43264)
I0831 10:41:37.062176  9960 net.cpp:156] Memory required for data: 6050560
I0831 10:41:37.062196  9960 layer_factory.hpp:77] Creating layer relu5
I0831 10:41:37.062216  9960 net.cpp:91] Creating Layer relu5
I0831 10:41:37.062227  9960 net.cpp:425] relu5 <- conv5
I0831 10:41:37.062239  9960 net.cpp:386] relu5 -> conv5 (in-place)
I0831 10:41:37.062254  9960 net.cpp:141] Setting up relu5
I0831 10:41:37.062268  9960 net.cpp:148] Top shape: 1 256 13 13 (43264)
I0831 10:41:37.062278  9960 net.cpp:156] Memory required for data: 6223616
I0831 10:41:37.062288  9960 layer_factory.hpp:77] Creating layer pool5
I0831 10:41:37.062300  9960 net.cpp:91] Creating Layer pool5
I0831 10:41:37.062310  9960 net.cpp:425] pool5 <- conv5
I0831 10:41:37.062325  9960 net.cpp:399] pool5 -> pool5
I0831 10:41:37.062345  9960 net.cpp:141] Setting up pool5
I0831 10:41:37.062360  9960 net.cpp:148] Top shape: 1 256 6 6 (9216)
I0831 10:41:37.062369  9960 net.cpp:156] Memory required for data: 6260480
I0831 10:41:37.062379  9960 layer_factory.hpp:77] Creating layer fc6
I0831 10:41:37.062397  9960 net.cpp:91] Creating Layer fc6
I0831 10:41:37.062407  9960 net.cpp:425] fc6 <- pool5
I0831 10:41:37.062422  9960 net.cpp:399] fc6 -> fc6
I0831 10:41:37.154379  9960 net.cpp:141] Setting up fc6
I0831 10:41:37.154454  9960 net.cpp:148] Top shape: 1 4096 (4096)
I0831 10:41:37.154465  9960 net.cpp:156] Memory required for data: 6276864
I0831 10:41:37.154486  9960 layer_factory.hpp:77] Creating layer relu6
I0831 10:41:37.154513  9960 net.cpp:91] Creating Layer relu6
I0831 10:41:37.154525  9960 net.cpp:425] relu6 <- fc6
I0831 10:41:37.154542  9960 net.cpp:386] relu6 -> fc6 (in-place)
I0831 10:41:37.154563  9960 net.cpp:141] Setting up relu6
I0831 10:41:37.154577  9960 net.cpp:148] Top shape: 1 4096 (4096)
I0831 10:41:37.154585  9960 net.cpp:156] Memory required for data: 6293248
I0831 10:41:37.154595  9960 layer_factory.hpp:77] Creating layer drop6
I0831 10:41:37.154613  9960 net.cpp:91] Creating Layer drop6
I0831 10:41:37.154624  9960 net.cpp:425] drop6 <- fc6
I0831 10:41:37.154639  9960 net.cpp:386] drop6 -> fc6 (in-place)
I0831 10:41:37.154662  9960 net.cpp:141] Setting up drop6
I0831 10:41:37.154675  9960 net.cpp:148] Top shape: 1 4096 (4096)
I0831 10:41:37.154685  9960 net.cpp:156] Memory required for data: 6309632
I0831 10:41:37.154695  9960 layer_factory.hpp:77] Creating layer fc7
I0831 10:41:37.154711  9960 net.cpp:91] Creating Layer fc7
I0831 10:41:37.154721  9960 net.cpp:425] fc7 <- fc6
I0831 10:41:37.154734  9960 net.cpp:399] fc7 -> fc7
I0831 10:41:37.195524  9960 net.cpp:141] Setting up fc7
I0831 10:41:37.195605  9960 net.cpp:148] Top shape: 1 4096 (4096)
I0831 10:41:37.195616  9960 net.cpp:156] Memory required for data: 6326016
I0831 10:41:37.195636  9960 layer_factory.hpp:77] Creating layer relu7
I0831 10:41:37.195674  9960 net.cpp:91] Creating Layer relu7
I0831 10:41:37.195688  9960 net.cpp:425] relu7 <- fc7
I0831 10:41:37.195703  9960 net.cpp:386] relu7 -> fc7 (in-place)
I0831 10:41:37.195724  9960 net.cpp:141] Setting up relu7
I0831 10:41:37.195737  9960 net.cpp:148] Top shape: 1 4096 (4096)
I0831 10:41:37.195746  9960 net.cpp:156] Memory required for data: 6342400
I0831 10:41:37.195756  9960 layer_factory.hpp:77] Creating layer drop7
I0831 10:41:37.195771  9960 net.cpp:91] Creating Layer drop7
I0831 10:41:37.195782  9960 net.cpp:425] drop7 <- fc7
I0831 10:41:37.195796  9960 net.cpp:386] drop7 -> fc7 (in-place)
I0831 10:41:37.195813  9960 net.cpp:141] Setting up drop7
I0831 10:41:37.195827  9960 net.cpp:148] Top shape: 1 4096 (4096)
I0831 10:41:37.195835  9960 net.cpp:156] Memory required for data: 6358784
I0831 10:41:37.195845  9960 layer_factory.hpp:77] Creating layer fc8_neutrino
I0831 10:41:37.195863  9960 net.cpp:91] Creating Layer fc8_neutrino
I0831 10:41:37.195874  9960 net.cpp:425] fc8_neutrino <- fc7
I0831 10:41:37.195888  9960 net.cpp:399] fc8_neutrino -> fc8_neutrino
I0831 10:41:37.195937  9960 net.cpp:141] Setting up fc8_neutrino
I0831 10:41:37.195953  9960 net.cpp:148] Top shape: 1 2 (2)
I0831 10:41:37.195963  9960 net.cpp:156] Memory required for data: 6358792
I0831 10:41:37.195977  9960 layer_factory.hpp:77] Creating layer prob
I0831 10:41:37.195992  9960 net.cpp:91] Creating Layer prob
I0831 10:41:37.196010  9960 net.cpp:425] prob <- fc8_neutrino
I0831 10:41:37.196025  9960 net.cpp:399] prob -> prob
I0831 10:41:37.196048  9960 net.cpp:141] Setting up prob
I0831 10:41:37.196061  9960 net.cpp:148] Top shape: 1 2 (2)
I0831 10:41:37.196071  9960 net.cpp:156] Memory required for data: 6358800
I0831 10:41:37.196082  9960 net.cpp:219] prob does not need backward computation.
I0831 10:41:37.196092  9960 net.cpp:219] fc8_neutrino does not need backward computation.
I0831 10:41:37.196102  9960 net.cpp:219] drop7 does not need backward computation.
I0831 10:41:37.196111  9960 net.cpp:219] relu7 does not need backward computation.
…
