WARNING: Logging before InitGoogleLogging() is written to STDERR
I0831 10:27:42.792024 25357 net.cpp:49] Initializing net from parameters: 
name: "CaffeNet"
state {
  phase: TEST
}
layer {
  name: "data"
  type: "Input"
  top: "data"
  input_param {
    shape {
      dim: 1
      dim: 1
      dim: 224
      dim: 224
    }
  }
}
layer {
  name: "conv1"
  type: "Convolution"
  bottom: "data"
  top: "conv1"
  convolution_param {
    num_output: 96
    kernel_size: 11
    stride: 4
  }
}
layer {
  name: "relu1"
  type: "ReLU"
  bottom: "conv1"
  top: "conv1"
}
layer {
  name: "pool1"
  type: "Pooling"
  bottom: "conv1"
  top: "pool1"
  pooling_param {
    pool: MAX
    kernel_size: 3
    stride: 2
  }
}
layer {
  name: "norm1"
  type: "LRN"
  bottom: "pool1"
  top: "norm1"
  lrn_param {
    local_size: 5
    alpha: 0.0001
    beta: 0.75
  }
}
layer {
  name: "conv2_changed"
  type: "Convolution"
  bottom: "norm1"
  top: "conv2_changed"
  convolution_param {
    num_output: 256
    pad: 2
    kernel_size: 5
    group: 2
  }
}
layer {
  name: "relu2"
  type: "ReLU"
  bottom: "conv2_changed"
  top: "conv2_changed"
}
layer {
  name: "pool2"
  type: "Pooling"
  bottom: "conv2_changed"
  top: "pool2"
  pooling_param {
    pool: MAX
    kernel_size: 3
    stride: 2
  }
}
layer {
  name: "norm2"
  type: "LRN"
  bottom: "pool2"
  top: "norm2"
  lrn_param {
    local_size: 5
    alpha: 0.0001
    beta: 0.75
  }
}
layer {
  name: "conv3_changed"
  type: "Convolution"
  bottom: "norm2"
  top: "conv3_changed"
  convolution_param {
    num_output: 384
    pad: 1
    kernel_size: 3
  }
}
layer {
  name: "relu3"
  type: "ReLU"
  bottom: "conv3_changed"
  top: "conv3_changed"
}
layer {
  name: "conv4"
  type: "Convolution"
  bottom: "conv3_changed"
  top: "conv4"
  convolution_param {
    num_output: 384
    pad: 1
    kernel_size: 3
    group: 2
  }
}
layer {
  name: "relu4"
  type: "ReLU"
  bottom: "conv4"
  top: "conv4"
}
layer {
  name: "conv5"
  type: "Convolution"
  bottom: "conv4"
  top: "conv5"
  convolution_param {
    num_output: 256
    pad: 1
    kernel_size: 3
    group: 2
  }
}
layer {
  name: "relu5"
  type: "ReLU"
  bottom: "conv5"
  top: "conv5"
}
layer {
  name: "pool5"
  type: "Pooling"
  bottom: "conv5"
  top: "pool5"
  pooling_param {
    pool: MAX
    kernel_size: 3
    stride: 2
  }
}
layer {
  name: "fc6"
  type: "InnerProduct"
  bottom: "pool5"
  top: "fc6"
  inner_product_param {
    num_output: 4096
  }
}
layer {
  name: "relu6"
  type: "ReLU"
  bottom: "fc6"
  top: "fc6"
}
layer {
  name: "drop6"
  type: "Dropout"
  bottom: "fc6"
  top: "fc6"
  dropout_param {
    dropout_ratio: 0.5
  }
}
layer {
  name: "fc7"
  type: "InnerProduct"
  bottom: "fc6"
  top: "fc7"
  inner_product_param {
    num_output: 4096
  }
}
layer {
  name: "relu7"
  type: "ReLU"
  bottom: "fc7"
  top: "fc7"
}
layer {
  name: "drop7"
  type: "Dropout"
  bottom: "fc7"
  top: "fc7"
  dropout_param {
    dropout_ratio: 0.5
  }
}
layer {
  name: "fc8_neutrino"
  type: "InnerProduct"
  bottom: "fc7"
  top: "fc8_neutrino"
  inner_product_param {
    num_output: 2
  }
}
layer {
  name: "prob"
  type: "Softmax"
  bottom: "fc8_neutrino"
  top: "prob"
}
I0831 10:27:42.792240 25357 layer_factory.hpp:77] Creating layer data
I0831 10:27:42.792266 25357 net.cpp:91] Creating Layer data
I0831 10:27:42.792281 25357 net.cpp:399] data -> data
I0831 10:27:42.792320 25357 net.cpp:141] Setting up data
I0831 10:27:42.792338 25357 net.cpp:148] Top shape: 1 1 224 224 (50176)
I0831 10:27:42.792347 25357 net.cpp:156] Memory required for data: 200704
I0831 10:27:42.792356 25357 layer_factory.hpp:77] Creating layer conv1
I0831 10:27:42.792372 25357 net.cpp:91] Creating Layer conv1
I0831 10:27:42.792382 25357 net.cpp:425] conv1 <- data
I0831 10:27:42.792393 25357 net.cpp:399] conv1 -> conv1
I0831 10:27:42.792475 25357 net.cpp:141] Setting up conv1
I0831 10:27:42.792498 25357 net.cpp:148] Top shape: 1 96 54 54 (279936)
I0831 10:27:42.792507 25357 net.cpp:156] Memory required for data: 1320448
I0831 10:27:42.792528 25357 layer_factory.hpp:77] Creating layer relu1
I0831 10:27:42.792544 25357 net.cpp:91] Creating Layer relu1
I0831 10:27:42.792559 25357 net.cpp:425] relu1 <- conv1
I0831 10:27:42.792570 25357 net.cpp:386] relu1 -> conv1 (in-place)
I0831 10:27:42.792583 25357 net.cpp:141] Setting up relu1
I0831 10:27:42.792593 25357 net.cpp:148] Top shape: 1 96 54 54 (279936)
I0831 10:27:42.792601 25357 net.cpp:156] Memory required for data: 2440192
I0831 10:27:42.792608 25357 layer_factory.hpp:77] Creating layer pool1
I0831 10:27:42.792623 25357 net.cpp:91] Creating Layer pool1
I0831 10:27:42.792630 25357 net.cpp:425] pool1 <- conv1
I0831 10:27:42.792640 25357 net.cpp:399] pool1 -> pool1
I0831 10:27:42.792660 25357 net.cpp:141] Setting up pool1
I0831 10:27:42.792672 25357 net.cpp:148] Top shape: 1 96 27 27 (69984)
I0831 10:27:42.792680 25357 net.cpp:156] Memory required for data: 2720128
I0831 10:27:42.792688 25357 layer_factory.hpp:77] Creating layer norm1
I0831 10:27:42.792701 25357 net.cpp:91] Creating Layer norm1
I0831 10:27:42.792708 25357 net.cpp:425] norm1 <- pool1
I0831 10:27:42.792719 25357 net.cpp:399] norm1 -> norm1
I0831 10:27:42.792737 25357 net.cpp:141] Setting up norm1
I0831 10:27:42.792747 25357 net.cpp:148] Top shape: 1 96 27 27 (69984)
I0831 10:27:42.792755 25357 net.cpp:156] Memory required for data: 3000064
I0831 10:27:42.792762 25357 layer_factory.hpp:77] Creating layer conv2_changed
I0831 10:27:42.792776 25357 net.cpp:91] Creating Layer conv2_changed
I0831 10:27:42.792785 25357 net.cpp:425] conv2_changed <- norm1
I0831 10:27:42.792798 25357 net.cpp:399] conv2_changed -> conv2_changed
I0831 10:27:42.793529 25357 net.cpp:141] Setting up conv2_changed
I0831 10:27:42.793547 25357 net.cpp:148] Top shape: 1 256 27 27 (186624)
I0831 10:27:42.793555 25357 net.cpp:156] Memory required for data: 3746560
I0831 10:27:42.793570 25357 layer_factory.hpp:77] Creating layer relu2
I0831 10:27:42.793584 25357 net.cpp:91] Creating Layer relu2
I0831 10:27:42.793593 25357 net.cpp:425] relu2 <- conv2_changed
I0831 10:27:42.793603 25357 net.cpp:386] relu2 -> conv2_changed (in-place)
I0831 10:27:42.793615 25357 net.cpp:141] Setting up relu2
I0831 10:27:42.793625 25357 net.cpp:148] Top shape: 1 256 27 27 (186624)
I0831 10:27:42.793632 25357 net.cpp:156] Memory required for data: 4493056
I0831 10:27:42.793640 25357 layer_factory.hpp:77] Creating layer pool2
I0831 10:27:42.793650 25357 net.cpp:91] Creating Layer pool2
I0831 10:27:42.793658 25357 net.cpp:425] pool2 <- conv2_changed
I0831 10:27:42.793668 25357 net.cpp:399] pool2 -> pool2
I0831 10:27:42.793689 25357 net.cpp:141] Setting up pool2
I0831 10:27:42.793699 25357 net.cpp:148] Top shape: 1 256 13 13 (43264)
I0831 10:27:42.793706 25357 net.cpp:156] Memory required for data: 4666112
I0831 10:27:42.793715 25357 layer_factory.hpp:77] Creating layer norm2
I0831 10:27:42.793730 25357 net.cpp:91] Creating Layer norm2
I0831 10:27:42.793740 25357 net.cpp:425] norm2 <- pool2
I0831 10:27:42.793751 25357 net.cpp:399] norm2 -> norm2
I0831 10:27:42.793766 25357 net.cpp:141] Setting up norm2
I0831 10:27:42.793777 25357 net.cpp:148] Top shape: 1 256 13 13 (43264)
I0831 10:27:42.793784 25357 net.cpp:156] Memory required for data: 4839168
I0831 10:27:42.793792 25357 layer_factory.hpp:77] Creating layer conv3_changed
I0831 10:27:42.793807 25357 net.cpp:91] Creating Layer conv3_changed
I0831 10:27:42.793817 25357 net.cpp:425] conv3_changed <- norm2
I0831 10:27:42.793828 25357 net.cpp:399] conv3_changed -> conv3_changed
I0831 10:27:42.796094 25357 net.cpp:141] Setting up conv3_changed
I0831 10:27:42.796120 25357 net.cpp:148] Top shape: 1 384 13 13 (64896)
I0831 10:27:42.796128 25357 net.cpp:156] Memory required for data: 5098752
I0831 10:27:42.796144 25357 layer_factory.hpp:77] Creating layer relu3
I0831 10:27:42.796157 25357 net.cpp:91] Creating Layer relu3
I0831 10:27:42.796166 25357 net.cpp:425] relu3 <- conv3_changed
I0831 10:27:42.796175 25357 net.cpp:386] relu3 -> conv3_changed (in-place)
I0831 10:27:42.796187 25357 net.cpp:141] Setting up relu3
I0831 10:27:42.796197 25357 net.cpp:148] Top shape: 1 384 13 13 (64896)
I0831 10:27:42.796205 25357 net.cpp:156] Memory required for data: 5358336
I0831 10:27:42.796218 25357 layer_factory.hpp:77] Creating layer conv4
I0831 10:27:42.796231 25357 net.cpp:91] Creating Layer conv4
I0831 10:27:42.796241 25357 net.cpp:425] conv4 <- conv3_changed
I0831 10:27:42.796250 25357 net.cpp:399] conv4 -> conv4
I0831 10:27:42.798341 25357 net.cpp:141] Setting up conv4
I0831 10:27:42.798360 25357 net.cpp:148] Top shape: 1 384 13 13 (64896)
I0831 10:27:42.798368 25357 net.cpp:156] Memory required for data: 5617920
I0831 10:27:42.798379 25357 layer_factory.hpp:77] Creating layer relu4
I0831 10:27:42.798393 25357 net.cpp:91] Creating Layer relu4
I0831 10:27:42.798403 25357 net.cpp:425] relu4 <- conv4
I0831 10:27:42.798413 25357 net.cpp:386] relu4 -> conv4 (in-place)
I0831 10:27:42.798424 25357 net.cpp:141] Setting up relu4
I0831 10:27:42.798434 25357 net.cpp:148] Top shape: 1 384 13 13 (64896)
I0831 10:27:42.798441 25357 net.cpp:156] Memory required for data: 5877504
I0831 10:27:42.798449 25357 layer_factory.hpp:77] Creating layer conv5
I0831 10:27:42.798461 25357 net.cpp:91] Creating Layer conv5
I0831 10:27:42.798470 25357 net.cpp:425] conv5 <- conv4
I0831 10:27:42.798480 25357 net.cpp:399] conv5 -> conv5
I0831 10:27:42.799799 25357 net.cpp:141] Setting up conv5
I0831 10:27:42.799818 25357 net.cpp:148] Top shape: 1 256 13 13 (43264)
I0831 10:27:42.799825 25357 net.cpp:156] Memory required for data: 6050560
I0831 10:27:42.799840 25357 layer_factory.hpp:77] Creating layer relu5
I0831 10:27:42.799850 25357 net.cpp:91] Creating Layer relu5
I0831 10:27:42.799859 25357 net.cpp:425] relu5 <- conv5
I0831 10:27:42.799871 25357 net.cpp:386] relu5 -> conv5 (in-place)
I0831 10:27:42.799885 25357 net.cpp:141] Setting up relu5
I0831 10:27:42.799895 25357 net.cpp:148] Top shape: 1 256 13 13 (43264)
I0831 10:27:42.799901 25357 net.cpp:156] Memory required for data: 6223616
I0831 10:27:42.799909 25357 layer_factory.hpp:77] Creating layer pool5
I0831 10:27:42.799919 25357 net.cpp:91] Creating Layer pool5
I0831 10:27:42.799927 25357 net.cpp:425] pool5 <- conv5
I0831 10:27:42.799938 25357 net.cpp:399] pool5 -> pool5
I0831 10:27:42.799954 25357 net.cpp:141] Setting up pool5
I0831 10:27:42.799965 25357 net.cpp:148] Top shape: 1 256 6 6 (9216)
I0831 10:27:42.799973 25357 net.cpp:156] Memory required for data: 6260480
I0831 10:27:42.799979 25357 layer_factory.hpp:77] Creating layer fc6
I0831 10:27:42.799993 25357 net.cpp:91] Creating Layer fc6
I0831 10:27:42.800003 25357 net.cpp:425] fc6 <- pool5
I0831 10:27:42.800012 25357 net.cpp:399] fc6 -> fc6
I0831 10:27:42.875290 25357 net.cpp:141] Setting up fc6
I0831 10:27:42.875355 25357 net.cpp:148] Top shape: 1 4096 (4096)
I0831 10:27:42.875365 25357 net.cpp:156] Memory required for data: 6276864
I0831 10:27:42.875383 25357 layer_factory.hpp:77] Creating layer relu6
I0831 10:27:42.875401 25357 net.cpp:91] Creating Layer relu6
I0831 10:27:42.875411 25357 net.cpp:425] relu6 <- fc6
I0831 10:27:42.875424 25357 net.cpp:386] relu6 -> fc6 (in-place)
I0831 10:27:42.875442 25357 net.cpp:141] Setting up relu6
I0831 10:27:42.875453 25357 net.cpp:148] Top shape: 1 4096 (4096)
I0831 10:27:42.875460 25357 net.cpp:156] Memory required for data: 6293248
I0831 10:27:42.875469 25357 layer_factory.hpp:77] Creating layer drop6
I0831 10:27:42.875483 25357 net.cpp:91] Creating Layer drop6
I0831 10:27:42.875490 25357 net.cpp:425] drop6 <- fc6
I0831 10:27:42.875504 25357 net.cpp:386] drop6 -> fc6 (in-place)
I0831 10:27:42.875525 25357 net.cpp:141] Setting up drop6
I0831 10:27:42.875535 25357 net.cpp:148] Top shape: 1 4096 (4096)
I0831 10:27:42.875543 25357 net.cpp:156] Memory required for data: 6309632
I0831 10:27:42.875551 25357 layer_factory.hpp:77] Creating layer fc7
I0831 10:27:42.875566 25357 net.cpp:91] Creating Layer fc7
I0831 10:27:42.875573 25357 net.cpp:425] fc7 <- fc6
I0831 10:27:42.875584 25357 net.cpp:399] fc7 -> fc7
I0831 10:27:42.909224 25357 net.cpp:141] Setting up fc7
I0831 10:27:42.909288 25357 net.cpp:148] Top shape: 1 4096 (4096)
I0831 10:27:42.909296 25357 net.cpp:156] Memory required for data: 6326016
I0831 10:27:42.909313 25357 layer_factory.hpp:77] Creating layer relu7
I0831 10:27:42.909343 25357 net.cpp:91] Creating Layer relu7
I0831 10:27:42.909354 25357 net.cpp:425] relu7 <- fc7
I0831 10:27:42.909368 25357 net.cpp:386] relu7 -> fc7 (in-place)
I0831 10:27:42.909385 25357 net.cpp:141] Setting up relu7
I0831 10:27:42.909395 25357 net.cpp:148] Top shape: 1 4096 (4096)
I0831 10:27:42.909404 25357 net.cpp:156] Memory required for data: 6342400
I0831 10:27:42.909411 25357 layer_factory.hpp:77] Creating layer drop7
I0831 10:27:42.909423 25357 net.cpp:91] Creating Layer drop7
I0831 10:27:42.909431 25357 net.cpp:425] drop7 <- fc7
I0831 10:27:42.909441 25357 net.cpp:386] drop7 -> fc7 (in-place)
I0831 10:27:42.909456 25357 net.cpp:141] Setting up drop7
I0831 10:27:42.909466 25357 net.cpp:148] Top shape: 1 4096 (4096)
I0831 10:27:42.909473 25357 net.cpp:156] Memory required for data: 6358784
I0831 10:27:42.909482 25357 layer_factory.hpp:77] Creating layer fc8_neutrino
I0831 10:27:42.909499 25357 net.cpp:91] Creating Layer fc8_neutrino
I0831 10:27:42.909508 25357 net.cpp:425] fc8_neutrino <- fc7
I0831 10:27:42.909519 25357 net.cpp:399] fc8_neutrino -> fc8_neutrino
I0831 10:27:42.909559 25357 net.cpp:141] Setting up fc8_neutrino
I0831 10:27:42.909571 25357 net.cpp:148] Top shape: 1 2 (2)
I0831 10:27:42.909579 25357 net.cpp:156] Memory required for data: 6358792
I0831 10:27:42.909590 25357 layer_factory.hpp:77] Creating layer prob
I0831 10:27:42.909602 25357 net.cpp:91] Creating Layer prob
I0831 10:27:42.909610 25357 net.cpp:425] prob <- fc8_neutrino
I0831 10:27:42.909623 25357 net.cpp:399] prob -> prob
I0831 10:27:42.909641 25357 net.cpp:141] Setting up prob
I0831 10:27:42.909652 25357 net.cpp:148] Top shape: 1 2 (2)
I0831 10:27:42.909659 25357 net.cpp:156] Memory required for data: 6358800
I0831 10:27:42.909668 25357 net.cpp:219] prob does not need backward computation.
I0831 10:27:42.909677 25357 net.cpp:219] fc8_neutrino does not need backward computation.
I0831 10:27:42.909684 25357 net.cpp:219] drop7 does not need backward computation.
I0831 10:27:42.909693 25357 net.cpp:219] relu7 does not need backward computation.
…
