WARNING: Logging before InitGoogleLogging() is written to STDERR
I0914 11:35:16.302124 16146 net.cpp:49] Initializing net from parameters: 
name: "CaffeNet"
state {
  phase: TEST
}
layer {
  name: "data"
  type: "Input"
  top: "data"
  input_param {
    shape {
      dim: 1
      dim: 1
      dim: 224
      dim: 224
    }
  }
}
layer {
  name: "conv1"
  type: "Convolution"
  bottom: "data"
  top: "conv1"
  convolution_param {
    num_output: 96
    kernel_size: 11
    stride: 4
  }
}
layer {
  name: "relu1"
  type: "ReLU"
  bottom: "conv1"
  top: "conv1"
}
layer {
  name: "pool1"
  type: "Pooling"
  bottom: "conv1"
  top: "pool1"
  pooling_param {
    pool: MAX
    kernel_size: 3
    stride: 2
  }
}
layer {
  name: "norm1"
  type: "LRN"
  bottom: "pool1"
  top: "norm1"
  lrn_param {
    local_size: 5
    alpha: 0.0001
    beta: 0.75
  }
}
layer {
  name: "conv2_changed"
  type: "Convolution"
  bottom: "norm1"
  top: "conv2_changed"
  convolution_param {
    num_output: 256
    pad: 2
    kernel_size: 5
    group: 2
  }
}
layer {
  name: "relu2"
  type: "ReLU"
  bottom: "conv2_changed"
  top: "conv2_changed"
}
layer {
  name: "pool2"
  type: "Pooling"
  bottom: "conv2_changed"
  top: "pool2"
  pooling_param {
    pool: MAX
    kernel_size: 3
    stride: 2
  }
}
layer {
  name: "norm2"
  type: "LRN"
  bottom: "pool2"
  top: "norm2"
  lrn_param {
    local_size: 5
    alpha: 0.0001
    beta: 0.75
  }
}
layer {
  name: "conv3_changed"
  type: "Convolution"
  bottom: "norm2"
  top: "conv3_changed"
  convolution_param {
    num_output: 384
    pad: 1
    kernel_size: 3
  }
}
layer {
  name: "relu3"
  type: "ReLU"
  bottom: "conv3_changed"
  top: "conv3_changed"
}
layer {
  name: "conv4"
  type: "Convolution"
  bottom: "conv3_changed"
  top: "conv4"
  convolution_param {
    num_output: 384
    pad: 1
    kernel_size: 3
    group: 2
  }
}
layer {
  name: "relu4"
  type: "ReLU"
  bottom: "conv4"
  top: "conv4"
}
layer {
  name: "conv5"
  type: "Convolution"
  bottom: "conv4"
  top: "conv5"
  convolution_param {
    num_output: 256
    pad: 1
    kernel_size: 3
    group: 2
  }
}
layer {
  name: "relu5"
  type: "ReLU"
  bottom: "conv5"
  top: "conv5"
}
layer {
  name: "pool5"
  type: "Pooling"
  bottom: "conv5"
  top: "pool5"
  pooling_param {
    pool: MAX
    kernel_size: 3
    stride: 2
  }
}
layer {
  name: "fc6"
  type: "InnerProduct"
  bottom: "pool5"
  top: "fc6"
  inner_product_param {
    num_output: 4096
  }
}
layer {
  name: "relu6"
  type: "ReLU"
  bottom: "fc6"
  top: "fc6"
}
layer {
  name: "drop6"
  type: "Dropout"
  bottom: "fc6"
  top: "fc6"
  dropout_param {
    dropout_ratio: 0.5
  }
}
layer {
  name: "fc7"
  type: "InnerProduct"
  bottom: "fc6"
  top: "fc7"
  inner_product_param {
    num_output: 4096
  }
}
layer {
  name: "relu7"
  type: "ReLU"
  bottom: "fc7"
  top: "fc7"
}
layer {
  name: "drop7"
  type: "Dropout"
  bottom: "fc7"
  top: "fc7"
  dropout_param {
    dropout_ratio: 0.5
  }
}
layer {
  name: "fc8_neutrino"
  type: "InnerProduct"
  bottom: "fc7"
  top: "fc8_neutrino"
  inner_product_param {
    num_output: 2
  }
}
layer {
  name: "prob"
  type: "Softmax"
  bottom: "fc8_neutrino"
  top: "prob"
}
I0914 11:35:16.302297 16146 layer_factory.hpp:77] Creating layer data
I0914 11:35:16.302326 16146 net.cpp:91] Creating Layer data
I0914 11:35:16.302341 16146 net.cpp:399] data -> data
I0914 11:35:16.302386 16146 net.cpp:141] Setting up data
I0914 11:35:16.302407 16146 net.cpp:148] Top shape: 1 1 224 224 (50176)
I0914 11:35:16.302415 16146 net.cpp:156] Memory required for data: 200704
I0914 11:35:16.302424 16146 layer_factory.hpp:77] Creating layer conv1
I0914 11:35:16.302441 16146 net.cpp:91] Creating Layer conv1
I0914 11:35:16.302451 16146 net.cpp:425] conv1 <- data
I0914 11:35:16.302462 16146 net.cpp:399] conv1 -> conv1
I0914 11:35:16.302556 16146 net.cpp:141] Setting up conv1
I0914 11:35:16.302572 16146 net.cpp:148] Top shape: 1 96 54 54 (279936)
I0914 11:35:16.302580 16146 net.cpp:156] Memory required for data: 1320448
I0914 11:35:16.302603 16146 layer_factory.hpp:77] Creating layer relu1
I0914 11:35:16.302618 16146 net.cpp:91] Creating Layer relu1
I0914 11:35:16.302633 16146 net.cpp:425] relu1 <- conv1
I0914 11:35:16.302642 16146 net.cpp:386] relu1 -> conv1 (in-place)
I0914 11:35:16.302656 16146 net.cpp:141] Setting up relu1
I0914 11:35:16.302666 16146 net.cpp:148] Top shape: 1 96 54 54 (279936)
I0914 11:35:16.302673 16146 net.cpp:156] Memory required for data: 2440192
I0914 11:35:16.302681 16146 layer_factory.hpp:77] Creating layer pool1
I0914 11:35:16.302695 16146 net.cpp:91] Creating Layer pool1
I0914 11:35:16.302703 16146 net.cpp:425] pool1 <- conv1
I0914 11:35:16.302713 16146 net.cpp:399] pool1 -> pool1
I0914 11:35:16.302736 16146 net.cpp:141] Setting up pool1
I0914 11:35:16.302747 16146 net.cpp:148] Top shape: 1 96 27 27 (69984)
I0914 11:35:16.302754 16146 net.cpp:156] Memory required for data: 2720128
I0914 11:35:16.302762 16146 layer_factory.hpp:77] Creating layer norm1
I0914 11:35:16.302775 16146 net.cpp:91] Creating Layer norm1
I0914 11:35:16.302783 16146 net.cpp:425] norm1 <- pool1
I0914 11:35:16.302793 16146 net.cpp:399] norm1 -> norm1
I0914 11:35:16.302814 16146 net.cpp:141] Setting up norm1
I0914 11:35:16.302824 16146 net.cpp:148] Top shape: 1 96 27 27 (69984)
I0914 11:35:16.302831 16146 net.cpp:156] Memory required for data: 3000064
I0914 11:35:16.302839 16146 layer_factory.hpp:77] Creating layer conv2_changed
I0914 11:35:16.302855 16146 net.cpp:91] Creating Layer conv2_changed
I0914 11:35:16.302863 16146 net.cpp:425] conv2_changed <- norm1
I0914 11:35:16.302876 16146 net.cpp:399] conv2_changed -> conv2_changed
I0914 11:35:16.303622 16146 net.cpp:141] Setting up conv2_changed
I0914 11:35:16.303640 16146 net.cpp:148] Top shape: 1 256 27 27 (186624)
I0914 11:35:16.303648 16146 net.cpp:156] Memory required for data: 3746560
I0914 11:35:16.303663 16146 layer_factory.hpp:77] Creating layer relu2
I0914 11:35:16.303678 16146 net.cpp:91] Creating Layer relu2
I0914 11:35:16.303685 16146 net.cpp:425] relu2 <- conv2_changed
I0914 11:35:16.303695 16146 net.cpp:386] relu2 -> conv2_changed (in-place)
I0914 11:35:16.303707 16146 net.cpp:141] Setting up relu2
I0914 11:35:16.303717 16146 net.cpp:148] Top shape: 1 256 27 27 (186624)
I0914 11:35:16.303725 16146 net.cpp:156] Memory required for data: 4493056
I0914 11:35:16.303732 16146 layer_factory.hpp:77] Creating layer pool2
I0914 11:35:16.303742 16146 net.cpp:91] Creating Layer pool2
I0914 11:35:16.303750 16146 net.cpp:425] pool2 <- conv2_changed
I0914 11:35:16.303761 16146 net.cpp:399] pool2 -> pool2
I0914 11:35:16.303776 16146 net.cpp:141] Setting up pool2
I0914 11:35:16.303786 16146 net.cpp:148] Top shape: 1 256 13 13 (43264)
I0914 11:35:16.303793 16146 net.cpp:156] Memory required for data: 4666112
I0914 11:35:16.303802 16146 layer_factory.hpp:77] Creating layer norm2
I0914 11:35:16.303815 16146 net.cpp:91] Creating Layer norm2
I0914 11:35:16.303824 16146 net.cpp:425] norm2 <- pool2
I0914 11:35:16.303834 16146 net.cpp:399] norm2 -> norm2
I0914 11:35:16.303848 16146 net.cpp:141] Setting up norm2
I0914 11:35:16.303858 16146 net.cpp:148] Top shape: 1 256 13 13 (43264)
I0914 11:35:16.303866 16146 net.cpp:156] Memory required for data: 4839168
I0914 11:35:16.303874 16146 layer_factory.hpp:77] Creating layer conv3_changed
I0914 11:35:16.303891 16146 net.cpp:91] Creating Layer conv3_changed
I0914 11:35:16.303900 16146 net.cpp:425] conv3_changed <- norm2
I0914 11:35:16.303910 16146 net.cpp:399] conv3_changed -> conv3_changed
I0914 11:35:16.306148 16146 net.cpp:141] Setting up conv3_changed
I0914 11:35:16.306165 16146 net.cpp:148] Top shape: 1 384 13 13 (64896)
I0914 11:35:16.306174 16146 net.cpp:156] Memory required for data: 5098752
I0914 11:35:16.306188 16146 layer_factory.hpp:77] Creating layer relu3
I0914 11:35:16.306203 16146 net.cpp:91] Creating Layer relu3
I0914 11:35:16.306211 16146 net.cpp:425] relu3 <- conv3_changed
I0914 11:35:16.306222 16146 net.cpp:386] relu3 -> conv3_changed (in-place)
I0914 11:35:16.306234 16146 net.cpp:141] Setting up relu3
I0914 11:35:16.306243 16146 net.cpp:148] Top shape: 1 384 13 13 (64896)
I0914 11:35:16.306252 16146 net.cpp:156] Memory required for data: 5358336
I0914 11:35:16.306267 16146 layer_factory.hpp:77] Creating layer conv4
I0914 11:35:16.306280 16146 net.cpp:91] Creating Layer conv4
I0914 11:35:16.306288 16146 net.cpp:425] conv4 <- conv3_changed
I0914 11:35:16.306299 16146 net.cpp:399] conv4 -> conv4
I0914 11:35:16.308393 16146 net.cpp:141] Setting up conv4
I0914 11:35:16.308410 16146 net.cpp:148] Top shape: 1 384 13 13 (64896)
I0914 11:35:16.308418 16146 net.cpp:156] Memory required for data: 5617920
I0914 11:35:16.308430 16146 layer_factory.hpp:77] Creating layer relu4
I0914 11:35:16.308447 16146 net.cpp:91] Creating Layer relu4
I0914 11:35:16.308456 16146 net.cpp:425] relu4 <- conv4
I0914 11:35:16.308466 16146 net.cpp:386] relu4 -> conv4 (in-place)
I0914 11:35:16.308478 16146 net.cpp:141] Setting up relu4
I0914 11:35:16.308490 16146 net.cpp:148] Top shape: 1 384 13 13 (64896)
I0914 11:35:16.308496 16146 net.cpp:156] Memory required for data: 5877504
I0914 11:35:16.308504 16146 layer_factory.hpp:77] Creating layer conv5
I0914 11:35:16.308517 16146 net.cpp:91] Creating Layer conv5
I0914 11:35:16.308526 16146 net.cpp:425] conv5 <- conv4
I0914 11:35:16.308537 16146 net.cpp:399] conv5 -> conv5
I0914 11:35:16.309936 16146 net.cpp:141] Setting up conv5
I0914 11:35:16.309952 16146 net.cpp:148] Top shape: 1 256 13 13 (43264)
I0914 11:35:16.309981 16146 net.cpp:156] Memory required for data: 6050560
I0914 11:35:16.309999 16146 layer_factory.hpp:77] Creating layer relu5
I0914 11:35:16.310010 16146 net.cpp:91] Creating Layer relu5
I0914 11:35:16.310019 16146 net.cpp:425] relu5 <- conv5
I0914 11:35:16.310034 16146 net.cpp:386] relu5 -> conv5 (in-place)
I0914 11:35:16.310046 16146 net.cpp:141] Setting up relu5
I0914 11:35:16.310056 16146 net.cpp:148] Top shape: 1 256 13 13 (43264)
I0914 11:35:16.310065 16146 net.cpp:156] Memory required for data: 6223616
I0914 11:35:16.310072 16146 layer_factory.hpp:77] Creating layer pool5
I0914 11:35:16.310083 16146 net.cpp:91] Creating Layer pool5
I0914 11:35:16.310091 16146 net.cpp:425] pool5 <- conv5
I0914 11:35:16.310102 16146 net.cpp:399] pool5 -> pool5
I0914 11:35:16.310118 16146 net.cpp:141] Setting up pool5
I0914 11:35:16.310129 16146 net.cpp:148] Top shape: 1 256 6 6 (9216)
I0914 11:35:16.310137 16146 net.cpp:156] Memory required for data: 6260480
I0914 11:35:16.310145 16146 layer_factory.hpp:77] Creating layer fc6
I0914 11:35:16.310158 16146 net.cpp:91] Creating Layer fc6
I0914 11:35:16.310168 16146 net.cpp:425] fc6 <- pool5
I0914 11:35:16.310178 16146 net.cpp:399] fc6 -> fc6
I0914 11:35:16.389384 16146 net.cpp:141] Setting up fc6
I0914 11:35:16.389443 16146 net.cpp:148] Top shape: 1 4096 (4096)
I0914 11:35:16.389452 16146 net.cpp:156] Memory required for data: 6276864
I0914 11:35:16.389472 16146 layer_factory.hpp:77] Creating layer relu6
I0914 11:35:16.389492 16146 net.cpp:91] Creating Layer relu6
I0914 11:35:16.389503 16146 net.cpp:425] relu6 <- fc6
I0914 11:35:16.389518 16146 net.cpp:386] relu6 -> fc6 (in-place)
I0914 11:35:16.389539 16146 net.cpp:141] Setting up relu6
I0914 11:35:16.389549 16146 net.cpp:148] Top shape: 1 4096 (4096)
I0914 11:35:16.389556 16146 net.cpp:156] Memory required for data: 6293248
I0914 11:35:16.389564 16146 layer_factory.hpp:77] Creating layer drop6
I0914 11:35:16.389577 16146 net.cpp:91] Creating Layer drop6
I0914 11:35:16.389585 16146 net.cpp:425] drop6 <- fc6
I0914 11:35:16.389600 16146 net.cpp:386] drop6 -> fc6 (in-place)
I0914 11:35:16.389621 16146 net.cpp:141] Setting up drop6
I0914 11:35:16.389631 16146 net.cpp:148] Top shape: 1 4096 (4096)
I0914 11:35:16.389639 16146 net.cpp:156] Memory required for data: 6309632
I0914 11:35:16.389647 16146 layer_factory.hpp:77] Creating layer fc7
I0914 11:35:16.389662 16146 net.cpp:91] Creating Layer fc7
I0914 11:35:16.389669 16146 net.cpp:425] fc7 <- fc6
I0914 11:35:16.389680 16146 net.cpp:399] fc7 -> fc7
I0914 11:35:16.425143 16146 net.cpp:141] Setting up fc7
I0914 11:35:16.425200 16146 net.cpp:148] Top shape: 1 4096 (4096)
I0914 11:35:16.425209 16146 net.cpp:156] Memory required for data: 6326016
I0914 11:35:16.425228 16146 layer_factory.hpp:77] Creating layer relu7
I0914 11:35:16.425259 16146 net.cpp:91] Creating Layer relu7
I0914 11:35:16.425271 16146 net.cpp:425] relu7 <- fc7
I0914 11:35:16.425287 16146 net.cpp:386] relu7 -> fc7 (in-place)
I0914 11:35:16.425307 16146 net.cpp:141] Setting up relu7
I0914 11:35:16.425318 16146 net.cpp:148] Top shape: 1 4096 (4096)
I0914 11:35:16.425324 16146 net.cpp:156] Memory required for data: 6342400
I0914 11:35:16.425333 16146 layer_factory.hpp:77] Creating layer drop7
I0914 11:35:16.425346 16146 net.cpp:91] Creating Layer drop7
I0914 11:35:16.425354 16146 net.cpp:425] drop7 <- fc7
I0914 11:35:16.425364 16146 net.cpp:386] drop7 -> fc7 (in-place)
I0914 11:35:16.425380 16146 net.cpp:141] Setting up drop7
I0914 11:35:16.425390 16146 net.cpp:148] Top shape: 1 4096 (4096)
I0914 11:35:16.425398 16146 net.cpp:156] Memory required for data: 6358784
I0914 11:35:16.425405 16146 layer_factory.hpp:77] Creating layer fc8_neutrino
I0914 11:35:16.425420 16146 net.cpp:91] Creating Layer fc8_neutrino
I0914 11:35:16.425427 16146 net.cpp:425] fc8_neutrino <- fc7
I0914 11:35:16.425441 16146 net.cpp:399] fc8_neutrino -> fc8_neutrino
I0914 11:35:16.425483 16146 net.cpp:141] Setting up fc8_neutrino
I0914 11:35:16.425496 16146 net.cpp:148] Top shape: 1 2 (2)
I0914 11:35:16.425503 16146 net.cpp:156] Memory required for data: 6358792
I0914 11:35:16.425515 16146 layer_factory.hpp:77] Creating layer prob
I0914 11:35:16.425534 16146 net.cpp:91] Creating Layer prob
I0914 11:35:16.425544 16146 net.cpp:425] prob <- fc8_neutrino
I0914 11:35:16.425557 16146 net.cpp:399] prob -> prob
I0914 11:35:16.425575 16146 net.cpp:141] Setting up prob
I0914 11:35:16.425586 16146 net.cpp:148] Top shape: 1 2 (2)
I0914 11:35:16.425595 16146 net.cpp:156] Memory required for data: 6358800
I0914 11:35:16.425603 16146 net.cpp:219] prob does not need backward computation.
I0914 11:35:16.425611 16146 net.cpp:219] fc8_neutrino does not need backward computation.
I0914 11:35:16.425619 16146 net.cpp:219] drop7 does not need backward computation.
I0914 11:35:16.425627 16146 net.cpp:219] relu7 does not need backward computation.
…
