WARNING: Logging before InitGoogleLogging() is written to STDERR
I0913 14:51:12.068156  5307 net.cpp:49] Initializing net from parameters: 
name: "CaffeNet"
state {
  phase: TEST
}
layer {
  name: "data"
  type: "Input"
  top: "data"
  input_param {
    shape {
      dim: 1
      dim: 1
      dim: 224
      dim: 224
    }
  }
}
layer {
  name: "conv1"
  type: "Convolution"
  bottom: "data"
  top: "conv1"
  convolution_param {
    num_output: 96
    kernel_size: 11
    stride: 4
  }
}
layer {
  name: "relu1"
  type: "ReLU"
  bottom: "conv1"
  top: "conv1"
}
layer {
  name: "pool1"
  type: "Pooling"
  bottom: "conv1"
  top: "pool1"
  pooling_param {
    pool: MAX
    kernel_size: 3
    stride: 2
  }
}
layer {
  name: "norm1"
  type: "LRN"
  bottom: "pool1"
  top: "norm1"
  lrn_param {
    local_size: 5
    alpha: 0.0001
    beta: 0.75
  }
}
layer {
  name: "conv2_changed"
  type: "Convolution"
  bottom: "norm1"
  top: "conv2_changed"
  convolution_param {
    num_output: 256
    pad: 2
    kernel_size: 5
    group: 2
  }
}
layer {
  name: "relu2"
  type: "ReLU"
  bottom: "conv2_changed"
  top: "conv2_changed"
}
layer {
  name: "pool2"
  type: "Pooling"
  bottom: "conv2_changed"
  top: "pool2"
  pooling_param {
    pool: MAX
    kernel_size: 3
    stride: 2
  }
}
layer {
  name: "norm2"
  type: "LRN"
  bottom: "pool2"
  top: "norm2"
  lrn_param {
    local_size: 5
    alpha: 0.0001
    beta: 0.75
  }
}
layer {
  name: "conv3_changed"
  type: "Convolution"
  bottom: "norm2"
  top: "conv3_changed"
  convolution_param {
    num_output: 384
    pad: 1
    kernel_size: 3
  }
}
layer {
  name: "relu3"
  type: "ReLU"
  bottom: "conv3_changed"
  top: "conv3_changed"
}
layer {
  name: "conv4"
  type: "Convolution"
  bottom: "conv3_changed"
  top: "conv4"
  convolution_param {
    num_output: 384
    pad: 1
    kernel_size: 3
    group: 2
  }
}
layer {
  name: "relu4"
  type: "ReLU"
  bottom: "conv4"
  top: "conv4"
}
layer {
  name: "conv5"
  type: "Convolution"
  bottom: "conv4"
  top: "conv5"
  convolution_param {
    num_output: 256
    pad: 1
    kernel_size: 3
    group: 2
  }
}
layer {
  name: "relu5"
  type: "ReLU"
  bottom: "conv5"
  top: "conv5"
}
layer {
  name: "pool5"
  type: "Pooling"
  bottom: "conv5"
  top: "pool5"
  pooling_param {
    pool: MAX
    kernel_size: 3
    stride: 2
  }
}
layer {
  name: "fc6"
  type: "InnerProduct"
  bottom: "pool5"
  top: "fc6"
  inner_product_param {
    num_output: 4096
  }
}
layer {
  name: "relu6"
  type: "ReLU"
  bottom: "fc6"
  top: "fc6"
}
layer {
  name: "drop6"
  type: "Dropout"
  bottom: "fc6"
  top: "fc6"
  dropout_param {
    dropout_ratio: 0.5
  }
}
layer {
  name: "fc7"
  type: "InnerProduct"
  bottom: "fc6"
  top: "fc7"
  inner_product_param {
    num_output: 4096
  }
}
layer {
  name: "relu7"
  type: "ReLU"
  bottom: "fc7"
  top: "fc7"
}
layer {
  name: "drop7"
  type: "Dropout"
  bottom: "fc7"
  top: "fc7"
  dropout_param {
    dropout_ratio: 0.5
  }
}
layer {
  name: "fc8_neutrino"
  type: "InnerProduct"
  bottom: "fc7"
  top: "fc8_neutrino"
  inner_product_param {
    num_output: 2
  }
}
layer {
  name: "prob"
  type: "Softmax"
  bottom: "fc8_neutrino"
  top: "prob"
}
I0913 14:51:12.068352  5307 layer_factory.hpp:77] Creating layer data
I0913 14:51:12.068382  5307 net.cpp:91] Creating Layer data
I0913 14:51:12.068397  5307 net.cpp:399] data -> data
I0913 14:51:12.068433  5307 net.cpp:141] Setting up data
I0913 14:51:12.068451  5307 net.cpp:148] Top shape: 1 1 224 224 (50176)
I0913 14:51:12.068459  5307 net.cpp:156] Memory required for data: 200704
I0913 14:51:12.068469  5307 layer_factory.hpp:77] Creating layer conv1
I0913 14:51:12.068483  5307 net.cpp:91] Creating Layer conv1
I0913 14:51:12.068492  5307 net.cpp:425] conv1 <- data
I0913 14:51:12.068503  5307 net.cpp:399] conv1 -> conv1
I0913 14:51:12.068583  5307 net.cpp:141] Setting up conv1
I0913 14:51:12.068596  5307 net.cpp:148] Top shape: 1 96 54 54 (279936)
I0913 14:51:12.068604  5307 net.cpp:156] Memory required for data: 1320448
I0913 14:51:12.068625  5307 layer_factory.hpp:77] Creating layer relu1
I0913 14:51:12.068641  5307 net.cpp:91] Creating Layer relu1
I0913 14:51:12.068655  5307 net.cpp:425] relu1 <- conv1
I0913 14:51:12.068665  5307 net.cpp:386] relu1 -> conv1 (in-place)
I0913 14:51:12.068680  5307 net.cpp:141] Setting up relu1
I0913 14:51:12.068691  5307 net.cpp:148] Top shape: 1 96 54 54 (279936)
I0913 14:51:12.068697  5307 net.cpp:156] Memory required for data: 2440192
I0913 14:51:12.068706  5307 layer_factory.hpp:77] Creating layer pool1
I0913 14:51:12.068716  5307 net.cpp:91] Creating Layer pool1
I0913 14:51:12.068727  5307 net.cpp:425] pool1 <- conv1
I0913 14:51:12.068737  5307 net.cpp:399] pool1 -> pool1
I0913 14:51:12.068758  5307 net.cpp:141] Setting up pool1
I0913 14:51:12.068769  5307 net.cpp:148] Top shape: 1 96 27 27 (69984)
I0913 14:51:12.068776  5307 net.cpp:156] Memory required for data: 2720128
I0913 14:51:12.068784  5307 layer_factory.hpp:77] Creating layer norm1
I0913 14:51:12.068796  5307 net.cpp:91] Creating Layer norm1
I0913 14:51:12.068804  5307 net.cpp:425] norm1 <- pool1
I0913 14:51:12.068814  5307 net.cpp:399] norm1 -> norm1
I0913 14:51:12.068830  5307 net.cpp:141] Setting up norm1
I0913 14:51:12.068841  5307 net.cpp:148] Top shape: 1 96 27 27 (69984)
I0913 14:51:12.068848  5307 net.cpp:156] Memory required for data: 3000064
I0913 14:51:12.068856  5307 layer_factory.hpp:77] Creating layer conv2_changed
I0913 14:51:12.068871  5307 net.cpp:91] Creating Layer conv2_changed
I0913 14:51:12.068878  5307 net.cpp:425] conv2_changed <- norm1
I0913 14:51:12.068893  5307 net.cpp:399] conv2_changed -> conv2_changed
I0913 14:51:12.069603  5307 net.cpp:141] Setting up conv2_changed
I0913 14:51:12.069622  5307 net.cpp:148] Top shape: 1 256 27 27 (186624)
I0913 14:51:12.069629  5307 net.cpp:156] Memory required for data: 3746560
I0913 14:51:12.069643  5307 layer_factory.hpp:77] Creating layer relu2
I0913 14:51:12.069656  5307 net.cpp:91] Creating Layer relu2
I0913 14:51:12.069664  5307 net.cpp:425] relu2 <- conv2_changed
I0913 14:51:12.069674  5307 net.cpp:386] relu2 -> conv2_changed (in-place)
I0913 14:51:12.069686  5307 net.cpp:141] Setting up relu2
I0913 14:51:12.069696  5307 net.cpp:148] Top shape: 1 256 27 27 (186624)
I0913 14:51:12.069705  5307 net.cpp:156] Memory required for data: 4493056
I0913 14:51:12.069711  5307 layer_factory.hpp:77] Creating layer pool2
I0913 14:51:12.069721  5307 net.cpp:91] Creating Layer pool2
I0913 14:51:12.069728  5307 net.cpp:425] pool2 <- conv2_changed
I0913 14:51:12.069738  5307 net.cpp:399] pool2 -> pool2
I0913 14:51:12.069752  5307 net.cpp:141] Setting up pool2
I0913 14:51:12.069763  5307 net.cpp:148] Top shape: 1 256 13 13 (43264)
I0913 14:51:12.069771  5307 net.cpp:156] Memory required for data: 4666112
I0913 14:51:12.069778  5307 layer_factory.hpp:77] Creating layer norm2
I0913 14:51:12.069792  5307 net.cpp:91] Creating Layer norm2
I0913 14:51:12.069800  5307 net.cpp:425] norm2 <- pool2
I0913 14:51:12.069810  5307 net.cpp:399] norm2 -> norm2
I0913 14:51:12.069823  5307 net.cpp:141] Setting up norm2
I0913 14:51:12.069834  5307 net.cpp:148] Top shape: 1 256 13 13 (43264)
I0913 14:51:12.069841  5307 net.cpp:156] Memory required for data: 4839168
I0913 14:51:12.069849  5307 layer_factory.hpp:77] Creating layer conv3_changed
I0913 14:51:12.069862  5307 net.cpp:91] Creating Layer conv3_changed
I0913 14:51:12.069870  5307 net.cpp:425] conv3_changed <- norm2
I0913 14:51:12.069881  5307 net.cpp:399] conv3_changed -> conv3_changed
I0913 14:51:12.072628  5307 net.cpp:141] Setting up conv3_changed
I0913 14:51:12.072646  5307 net.cpp:148] Top shape: 1 384 13 13 (64896)
I0913 14:51:12.072654  5307 net.cpp:156] Memory required for data: 5098752
I0913 14:51:12.072669  5307 layer_factory.hpp:77] Creating layer relu3
I0913 14:51:12.072685  5307 net.cpp:91] Creating Layer relu3
I0913 14:51:12.072695  5307 net.cpp:425] relu3 <- conv3_changed
I0913 14:51:12.072705  5307 net.cpp:386] relu3 -> conv3_changed (in-place)
I0913 14:51:12.072717  5307 net.cpp:141] Setting up relu3
I0913 14:51:12.072727  5307 net.cpp:148] Top shape: 1 384 13 13 (64896)
I0913 14:51:12.072734  5307 net.cpp:156] Memory required for data: 5358336
I0913 14:51:12.072747  5307 layer_factory.hpp:77] Creating layer conv4
I0913 14:51:12.072762  5307 net.cpp:91] Creating Layer conv4
I0913 14:51:12.072769  5307 net.cpp:425] conv4 <- conv3_changed
I0913 14:51:12.072780  5307 net.cpp:399] conv4 -> conv4
I0913 14:51:12.074414  5307 net.cpp:141] Setting up conv4
I0913 14:51:12.074440  5307 net.cpp:148] Top shape: 1 384 13 13 (64896)
I0913 14:51:12.074455  5307 net.cpp:156] Memory required for data: 5617920
I0913 14:51:12.074475  5307 layer_factory.hpp:77] Creating layer relu4
I0913 14:51:12.074497  5307 net.cpp:91] Creating Layer relu4
I0913 14:51:12.074512  5307 net.cpp:425] relu4 <- conv4
I0913 14:51:12.074530  5307 net.cpp:386] relu4 -> conv4 (in-place)
I0913 14:51:12.074548  5307 net.cpp:141] Setting up relu4
I0913 14:51:12.074563  5307 net.cpp:148] Top shape: 1 384 13 13 (64896)
I0913 14:51:12.074576  5307 net.cpp:156] Memory required for data: 5877504
I0913 14:51:12.074592  5307 layer_factory.hpp:77] Creating layer conv5
I0913 14:51:12.074615  5307 net.cpp:91] Creating Layer conv5
I0913 14:51:12.074630  5307 net.cpp:425] conv5 <- conv4
I0913 14:51:12.074647  5307 net.cpp:399] conv5 -> conv5
I0913 14:51:12.076395  5307 net.cpp:141] Setting up conv5
I0913 14:51:12.076437  5307 net.cpp:148] Top shape: 1 256 13 13 (43264)
I0913 14:51:12.076453  5307 net.cpp:156] Memory required for data: 6050560
I0913 14:51:12.076483  5307 layer_factory.hpp:77] Creating layer relu5
I0913 14:51:12.076504  5307 net.cpp:91] Creating Layer relu5
I0913 14:51:12.076522  5307 net.cpp:425] relu5 <- conv5
I0913 14:51:12.076548  5307 net.cpp:386] relu5 -> conv5 (in-place)
I0913 14:51:12.076573  5307 net.cpp:141] Setting up relu5
I0913 14:51:12.076594  5307 net.cpp:148] Top shape: 1 256 13 13 (43264)
I0913 14:51:12.076609  5307 net.cpp:156] Memory required for data: 6223616
I0913 14:51:12.076619  5307 layer_factory.hpp:77] Creating layer pool5
I0913 14:51:12.076632  5307 net.cpp:91] Creating Layer pool5
I0913 14:51:12.076642  5307 net.cpp:425] pool5 <- conv5
I0913 14:51:12.076653  5307 net.cpp:399] pool5 -> pool5
I0913 14:51:12.076670  5307 net.cpp:141] Setting up pool5
I0913 14:51:12.076683  5307 net.cpp:148] Top shape: 1 256 6 6 (9216)
I0913 14:51:12.076690  5307 net.cpp:156] Memory required for data: 6260480
I0913 14:51:12.076699  5307 layer_factory.hpp:77] Creating layer fc6
I0913 14:51:12.076719  5307 net.cpp:91] Creating Layer fc6
I0913 14:51:12.076736  5307 net.cpp:425] fc6 <- pool5
I0913 14:51:12.076759  5307 net.cpp:399] fc6 -> fc6
I0913 14:51:12.156401  5307 net.cpp:141] Setting up fc6
I0913 14:51:12.156472  5307 net.cpp:148] Top shape: 1 4096 (4096)
I0913 14:51:12.156482  5307 net.cpp:156] Memory required for data: 6276864
I0913 14:51:12.156499  5307 layer_factory.hpp:77] Creating layer relu6
I0913 14:51:12.156517  5307 net.cpp:91] Creating Layer relu6
I0913 14:51:12.156527  5307 net.cpp:425] relu6 <- fc6
I0913 14:51:12.156541  5307 net.cpp:386] relu6 -> fc6 (in-place)
I0913 14:51:12.156558  5307 net.cpp:141] Setting up relu6
I0913 14:51:12.156569  5307 net.cpp:148] Top shape: 1 4096 (4096)
I0913 14:51:12.156576  5307 net.cpp:156] Memory required for data: 6293248
I0913 14:51:12.156584  5307 layer_factory.hpp:77] Creating layer drop6
I0913 14:51:12.156597  5307 net.cpp:91] Creating Layer drop6
I0913 14:51:12.156605  5307 net.cpp:425] drop6 <- fc6
I0913 14:51:12.156618  5307 net.cpp:386] drop6 -> fc6 (in-place)
I0913 14:51:12.156638  5307 net.cpp:141] Setting up drop6
I0913 14:51:12.156649  5307 net.cpp:148] Top shape: 1 4096 (4096)
I0913 14:51:12.156657  5307 net.cpp:156] Memory required for data: 6309632
I0913 14:51:12.156666  5307 layer_factory.hpp:77] Creating layer fc7
I0913 14:51:12.156678  5307 net.cpp:91] Creating Layer fc7
I0913 14:51:12.156687  5307 net.cpp:425] fc7 <- fc6
I0913 14:51:12.156698  5307 net.cpp:399] fc7 -> fc7
I0913 14:51:12.192044  5307 net.cpp:141] Setting up fc7
I0913 14:51:12.192111  5307 net.cpp:148] Top shape: 1 4096 (4096)
I0913 14:51:12.192118  5307 net.cpp:156] Memory required for data: 6326016
I0913 14:51:12.192136  5307 layer_factory.hpp:77] Creating layer relu7
I0913 14:51:12.192167  5307 net.cpp:91] Creating Layer relu7
I0913 14:51:12.192178  5307 net.cpp:425] relu7 <- fc7
I0913 14:51:12.192190  5307 net.cpp:386] relu7 -> fc7 (in-place)
I0913 14:51:12.192209  5307 net.cpp:141] Setting up relu7
I0913 14:51:12.192219  5307 net.cpp:148] Top shape: 1 4096 (4096)
I0913 14:51:12.192225  5307 net.cpp:156] Memory required for data: 6342400
I0913 14:51:12.192234  5307 layer_factory.hpp:77] Creating layer drop7
I0913 14:51:12.192246  5307 net.cpp:91] Creating Layer drop7
I0913 14:51:12.192253  5307 net.cpp:425] drop7 <- fc7
I0913 14:51:12.192263  5307 net.cpp:386] drop7 -> fc7 (in-place)
I0913 14:51:12.192278  5307 net.cpp:141] Setting up drop7
I0913 14:51:12.192288  5307 net.cpp:148] Top shape: 1 4096 (4096)
I0913 14:51:12.192296  5307 net.cpp:156] Memory required for data: 6358784
I0913 14:51:12.192303  5307 layer_factory.hpp:77] Creating layer fc8_neutrino
I0913 14:51:12.192325  5307 net.cpp:91] Creating Layer fc8_neutrino
I0913 14:51:12.192334  5307 net.cpp:425] fc8_neutrino <- fc7
I0913 14:51:12.192348  5307 net.cpp:399] fc8_neutrino -> fc8_neutrino
I0913 14:51:12.192390  5307 net.cpp:141] Setting up fc8_neutrino
I0913 14:51:12.192404  5307 net.cpp:148] Top shape: 1 2 (2)
I0913 14:51:12.192411  5307 net.cpp:156] Memory required for data: 6358792
I0913 14:51:12.192423  5307 layer_factory.hpp:77] Creating layer prob
I0913 14:51:12.192437  5307 net.cpp:91] Creating Layer prob
I0913 14:51:12.192446  5307 net.cpp:425] prob <- fc8_neutrino
I0913 14:51:12.192461  5307 net.cpp:399] prob -> prob
I0913 14:51:12.192478  5307 net.cpp:141] Setting up prob
I0913 14:51:12.192489  5307 net.cpp:148] Top shape: 1 2 (2)
I0913 14:51:12.192497  5307 net.cpp:156] Memory required for data: 6358800
I0913 14:51:12.192505  5307 net.cpp:219] prob does not need backward computation.
I0913 14:51:12.192513  5307 net.cpp:219] fc8_neutrino does not need backward computation.
I0913 14:51:12.192522  5307 net.cpp:219] drop7 does not need backward computation.
I0913 14:51:12.192529  5307 net.cpp:219] relu7 does not need backward computation.
…
